model/Discriminator_finetuned_liyun4.pt (torch, 825167 bytes, 5 tensors)

discriminator.0.weight f4 [16, 3, 4, 4]
0	0xbe01f98d	-0.12692852
1	0x3dd7ba8c	0.10533628
2	0xbc0fa81d	-0.008768109
3	0xbd6272df	-0.05528533
4	0xbd7db3fe	-0.061939232
5	0x3db4319a	0.08798523
6	0x3dab7c70	0.08373344
7	0xbe00c425	-0.12574823
8	0x3dc7059a	0.09717865
9	0x3dc0c88e	0.09413253
10	0x3dd739be	0.1050906
11	0x3da5493c	0.08070609
12	0xbd9409df	-0.07228445
13	0x3de77c79	0.11303038
14	0x3d47181e	0.048606984
15	0xbd58fdc3	-0.05297638
16	0xbdd8a5aa	-0.10578473
17	0xbcc5a6d1	-0.024127396
18	0x3e01c517	0.1267284
19	0xbd1698e0	-0.036766887
20	0x3d11384b	0.035454076
21	0xbd3a1dd1	-0.04543859
22	0xbdb97918	-0.090563
23	0xbd729d52	-0.059232064
24	0x3dcb6a23	0.09932353
25	0xbc1954ff	-0.009358644
26	0xbd341d92	-0.043973513
27	0xbd898d58	-0.06716412
28	0x3c0c9a87	0.008581764
29	0xbdfffa21	-0.1249888
30	0xbd08d339	-0.033404563
31	0xbe0227a5	-0.12710436
32	0xbdcdddce	-0.100520715
33	0x3d959bf4	0.07305136
34	0x3de49dc9	0.11162908
35	0x3e13098a	0.14359108
36	0xbc601920	-0.013677865
37	0xbdc23656	-0.0948302
38	0x3d8f0a20	0.06984353
39	0x3cb687ce	0.022281554
40	0x3e06f47e	0.13179204
41	0xbd01f379	-0.031726334
42	0xbd992571	-0.074778445
43	0xbd86b98e	-0.065783605
44	0x3e0ae6dc	0.13564628
45	0x3d0ab87e	0.03386735
46	0xbd3df48f	-0.046375807
47	0xbd38cd45	-0.045117635
48	0x3df9625b	0.12176963
49	0xbd88d050	-0.066803575
50	0xbd89bf0a	-0.06725891
51	0xbd7d6dc1	-0.061872248
52	0xbd13b0d3	-0.036057305
53	0xbdc23e3b	-0.09484526
54	0xbde8c538	-0.113657415
55	0x3d7d46a5	0.06183495
56	0xbde30fe6	-0.11087017
57	0xbd90cfbc	-0.07070872
58	0x3da2b616	0.079448864
59	0x3b664654	0.0035137134
60	0xbd614ba4	-0.055003777
61	0x3d9a1f18	0.07525462
62	0xbdcbe58e	-0.099558935
63	0x3dc20f50	0.09475577
64	0x3cad34fc	0.021143429
65	0xbd0cb9d9	-0.034356926
66	0xbcca983a	-0.02473079
67	0xbd08927a	-0.033342816
68	0xbe050272	-0.12989214
69	0xbd4f80a0	-0.050659776
70	0xbd8a4429	-0.06751282
71	0xbc8e4459	-0.017366575
72	0xbdc20ce4	-0.09475115
73	0xbe03e658	-0.12880838
74	0x3d4ad2d5	0.04951747
75	0xbd80670d	-0.062696554
76	0x3da528d9	0.08064432
77	0x3de70231	0.11279715
78	0xbb42f51c	-0.0029748147
79	0xbdb5a80c	-0.08869943
80	0xbd10224a	-0.03518895
81	0x3dde9106	0.10867505
82	0xbdd86d83	-0.10567763
83	0x3db4e739	0.08833165
84	0xbd06a80d	-0.03287511
85	0xbc6b1f33	-0.0143507
86	0x3b13590b	0.0022483494
87	0x3b1bfc3b	0.0023801464
88	0xbe02f970	-0.12790465
89	0xbdd67be2	-0.104728475
90	0x3cfc1b3d	0.030774707
91	0x3cbfcbcc	0.023412608
92	0x3d9266c4	0.07148507
93	0xbda751bd	-0.08169887
94	0xbd414bb9	-0.047191355
95	0x3dc16cf1	0.09444607
96	0xbd3fd744	-0.046836153
97	0x3dfb6413	0.12274947
98	0x3d8a38ce	0.06749116
99	0xbd594091	-0.05304009
100	0x3db5fe1f	0.088863604
101	0x3d5beb5b	0.05369125
102	0x3df5a0d4	0.11993566
103	0x3d411917	0.04714307
104	0x3caed501	0.021341803
105	0x3dfb09d3	0.12257733
106	0x3bbf69f2	0.005841487
107	0x3e0b617e	0.13611409
108	0x3d401e74	0.046904042
109	0x3d8a7524	0.06760624
110	0x3dc55ccb	0.096368395
111	0x3d4bf08e	0.049789958
112	0x3d4d9eba	0.0502002
113	0xbd88bc07	-0.06676488
114	0x3cdd5016	0.027015727
115	0x3dacc3c6	0.08435778
116	0x3db710f9	0.08938784
117	0x3d0e9ac0	0.03481555
118	0x3d113f4f	0.035460766
119	0x3dbabba0	0.09117818
120	0xbcfb4672	-0.03067324
121	0xbd9e02c4	-0.07715371
122	0xbd081948	-0.033227235
123	0x3e040d39	0.12895669
124	0x3e0d915f	0.13824986
125	0xbe0dc71c	-0.13845485
126	0xbd1bdc51	-0.038051907
127	0x3dd9c930	0.106340766
128	0x3d835785	0.064131774
129	0xbc9703b1	-0.018434377
130	0x3d060fb8	0.032729834
131	0x3d727b38	0.05919954
132	0x3d36233f	0.044467207
133	0xbe0e22e9	-0.13880505
134	0x3e0d4367	0.13795243
135	0xbdce24f9	-0.10065646
136	0xbe059b79	-0.1304759
137	0x3da4086b	0.08009418
138	0xbdec9221	-0.115513094
139	0x3d1cb0f2	0.038254686
140	0xbc118272	-0.008881198
141	0x3d063821	0.032768372
142	0xbdcf7316	-0.10129373
143	0x3d105aa0	0.035242677
144	0xbe0aed10	-0.13566995
145	0x3e00efb7	0.12591444
146	0x3dc01d34	0.0938057
147	0x3d9ca180	0.07647991
148	0xb9a9c9ca	-0.00032384536
149	0x3dde731f	0.10861801
150	0x3ce5de03	0.028059965
151	0xbd900f20	-0.07034135
152	0xbd7924d4	-0.060826138
153	0x3ca7c92a	0.020481665
154	0x3dafff7f	0.08593654
155	0x3d340ec7	0.043959405
156	0x3d77e5bc	0.060521826
157	0x3d35fceb	0.044430654
158	0xbd8e616c	-0.069521755
159	0xbd7c0660	-0.061529517
160	0x3d80b1fe	0.06283949
161	0xbdf6ea53	-0.120564125
162	0xbe0e2d88	-0.13884556
163	0xbd1d9ee3	-0.038481604
164	0xbd8d4692	-0.06898226
165	0xbdd8c087	-0.10583597
166	0xbdb23a97	-0.087025814
167	0xbde1b628	-0.11021072
168	0xbdc8939a	-0.09793778
169	0x3d2d055d	0.042241443
170	0xbda08a0e	-0.07838832
171	0xbe022f25	-0.12713297
172	0xbdd1ddad	-0.102473594
173	0xbd973868	-0.073838055
174	0xbc1bfe7d	-0.009521124
175	0xbcaef601	-0.021357538
176	0x3cff94ba	0.031198848
177	0x3c905904	0.017620571
178	0x3d865c76	0.06560604
179	0xbe0e7cdd	-0.13914819
180	0xbcb9b57c	-0.022669546
181	0x3dc4a8bc	0.09602496
182	0x3cd2bed3	0.025725758
183	0x3d7a66aa	0.061133064
184	0x3e0e2c73	0.13884144
185	0x3de8d763	0.11369207
186	0x3e0324c1	0.12806989
187	0x3dfa1d0c	0.122125715
188	0x3d8631e6	0.06552486
189	0x3d2aead9	0.041727874
190	0xbd87c587	-0.06629472
191	0xbcaa0552	-0.02075449
192	0xbbc28282	-0.005935968
193	0xbdbd82d1	-0.09253467
194	0x3e045472	0.12922838
195	0xbc1cbda9	-0.009566703
196	0xbdb718a4	-0.08940247
197	0x3d452999	0.048135374
198	0xbdaa97b2	-0.08329715
199	0xbd9cf829	-0.0766452
200	0x3e04695a	0.12930813
201	0x3dcfb96c	0.10142788
202	0xbdc7c8e7	-0.09755116
203	0xbd724a57	-0.059152927
204	0xbe044d5a	-0.12920132
205	0xbd46b2e9	-0.048510466
206	0x3de28124	0.11059788
207	0xbd13af6e	-0.036055975
208	0x3cf6fc1b	0.03014951
209	0x3deef515	0.116678394
210	0xbdd7f762	-0.105452314
211	0x3db0634a	0.08612688
212	0xbc5b3579	-0.013379448
213	0x3d7267ef	0.05918115
214	0x3d76560b	0.06014065
215	0xbd2a54cc	-0.041584775
216	0x3e08579f	0.13314675
217	0x3df7e4ae	0.12104164
218	0xbc674251	-0.014114932
219	0x3c3143f9	0.010819429
220	0xbd338cb9	-0.043835375
221	0x3de1b49d	0.110207774
222	0xbdc4fd29	-0.09618599
223	0x3de4f781	0.1118002
224	0x3b817313	0.0039504855
225	0xbcd54b5d	-0.026036913
226	0x3e1634d2	0.14668587
227	0x3e012286	0.12610826
228	0x3de1c6af	0.11024224
229	0xbcb9076f	-0.022586552
230	0x3de5768e	0.11204253
231	0xbd823b6e	-0.063589916
232	0x3bb5bbbd	0.005546062
233	0x3dd32d5e	0.103113875
234	0x3da3b0e6	0.07992725
235	0xbca623be	-0.020280715
236	0x3d9bc605	0.076061286
237	0xbdb85f8f	-0.09002601
238	0xbdf974a0	-0.121804476
239	0xbdcb8e20	-0.099392176
240	0x3def967a	0.11698623
241	0xbda9d619	-0.08292789
242	0x3dc25a21	0.09489847
243	0xbca639a4	-0.020291157
244	0x3d922eb3	0.071378134
245	0xbc5f0339	-0.013611608
246	0x3d394b67	0.045237925
247	0xbe1096b6	-0.14119992
248	0xbc297035	-0.010341694
249	0x3e05eda9	0.13078941
250	0x3dc730cb	0.097261034
251	0xbc108659	-0.0088210935
252	0xbdee67de	-0.11640905
253	0x3df4f8a7	0.11961489
254	0x3d4adacb	0.049525063
255	0x3e0fca7d	0.14042087

discriminator.2.weight f4 [32, 16, 4, 4]
0	0x3cb5fc88	0.022215143
1	0x3bc8e77a	0.00613111
2	0x3c43a0fd	0.011940238
3	0x3cfd875f	0.030948339
4	0xbc99c3d7	-0.018770142
5	0xbd59bee7	-0.053160574
6	0x3d209dbd	0.03921293
7	0xbc87c233	-0.016572094
8	0x3c9b9972	0.018994067
9	0x3c9638ce	0.018337633
10	0xbb2080a6	-0.0024490743
11	0x3d601345	0.054705877
12	0x3a1684aa	0.00057418144
13	0x3cc2bb64	0.023770995
14	0xbd058e65	-0.0326065
15	0x3d127fa0	0.035766244
16	0xbb4fe722	-0.003172346
17	0xbd23da6e	-0.040003233
18	0xbd216c26	-0.03940978
19	0xbcfeeb1b	-0.031117966
20	0x3c854864	0.01626987
21	0x3c9affa6	0.01892073
22	0xbc70dfd3	-0.014701801
23	0xbbd1e515	-0.0064054825
24	0xbd1d09ec	-0.03833954
25	0xbd320425	-0.043460984
26	0xbd3231c4	-0.04350449
27	0x3d7c732d	0.061633278
28	0xbc779530	-0.015111253
29	0xbcf076c1	-0.029353501
30	0x3c7ba812	0.015359895
31	0x3cef31c2	0.029198531
32	0xbd6ada77	-0.05733725
33	0x3cac3f50	0.021026284
34	0x3c141293	0.009037632
35	0xbc8bfef4	-0.017089345
36	0x3af12a1e	0.0018399393
37	0xbd565ccc	-0.05233459
38	0x3bfcb356	0.007711808
39	0x3d88e7ea	0.06684859
40	0x3cdcba7f	0.026944397
41	0x3ce45c4c	0.027876042
42	0x3cdfa903	0.02730227
43	0xbd1d6b45	-0.03843238
44	0xbd38c2b9	-0.045107577
45	0xbd48dea2	-0.049040444
46	0x3d88cde6	0.06679897
47	0x3d0cef39	0.034407828
48	0xbd406e77	-0.046980347
49	0x3d003506	0.031300567
50	0x3ce03a19	0.027371453
51	0x3d1f55dc	0.03890024
52	0x3ba4617f	0.0050165053
53	0x3d110b16	0.035410963
54	0xbd34e6e5	-0.04416551
55	0x3d1a05c6	0.037603162
56	0x3ca14368	0.019685462
57	0xbc9b1e86	-0.018935453
58	0x3cf641b8	0.030060634
59	0xbd6152e3	-0.055010688
60	0x3ae34673	0.0017339721
61	0x3d0706cb	0.032965463
62	0x3d0eaf66	0.03483524
63	0xbd1a459a	-0.037664033
64	0x3bfe44ba	0.0077596577
65	0x3d030c54	0.03199418
66	0x3b4f7d8c	0.0031660525
67	0x3a1f4f2a	0.0006077165
68	0xbd133402	-0.03593827
69	0x3cf21af5	0.02955387
70	0x3d3e1593	0.046407294
71	0x3c5d4d34	0.013507176
72	0xbd51ab34	-0.051188663
73	0x3bffe06c	0.0078087356
74	0xbc932282	-0.01796079
75	0xbc49136d	-0.012272698
76	0x3d353a59	0.044245098
77	0xbba521b9	-0.0050394204
78	0xbc8dc34e	-0.017305043
79	0x3d303e57	0.043028202
80	0x3d7905f0	0.060796678
81	0xbc9c99b5	-0.019116262
82	0xbc4437fd	-0.011976239
83	0x3d2b879b	0.04187737
84	0x3d483f3f	0.04888844
85	0xbd5a6376	-0.05331751
86	0xbc8c04b4	-0.017092086
87	0x3b8bf33d	0.0042709396
88	0xbcffa6cd	-0.031207466
89	0x3c769722	0.015050681
90	0xbc8238e3	-0.015896266
91	0x3c2cacff	0.010539292
92	0x3d735b82	0.05941344
93	0x3cfb3293	0.030663764
94	0x3cdfb4a6	0.02730782
95	0xbd4fb65e	-0.05071103
96	0xbd177d6d	-0.03698485
97	0xbc37b47e	-0.011212466
98	0x3c8a31fc	0.016869538
99	0x3c516c1c	0.012782123
100	0xbd172735	-0.036902625
101	0x3d1d9911	0.038476054
102	0xbcaf6f3f	-0.021415351
103	0xbd85a719	-0.06526012
104	0xbcd3edf5	-0.025870303
105	0xbd235332	-0.039874263
106	0x3c58cc5a	0.013232315
107	0x3d1b6ce6	0.03794565
108	0xbcbef81d	-0.023311669
109	0x3b85b665	0.004080581
110	0x3d55ba51	0.05217964
111	0x3be8c211	0.0071032126
112	0x3cf17f71	0.029479714
113	0xbd024f6a	-0.031814016
114	0xbb4f9027	-0.0031671615
115	0xbb90374f	-0.0044011245
116	0xbbdddef9	-0.006770965
117	0xbd202df4	-0.039106324
118	0xbd124f21	-0.035719994
119	0x3d7099d1	0.05874044
120	0x3c5dc1ab	0.013534944
121	0x3ca08904	0.019596584
122	0xbcb4c7a5	-0.022067854
123	0xbd1bbdac	-0.038022682
124	0x3b9db1df	0.0048124637
125	0xbd3b2dc5	-0.045697946
126	0x3d08c41a	0.033390142
127	0x3d87453d	0.06605003
128	0xbd421509	-0.047383342
129	0xbd426fd3	-0.047469925
130	0x3b9b2da1	0.004735664
131	0x3ca6e14b	0.0203711
132	0x3b0605ce	0.0020450237
133	0xbd2a8a3c	-0.041635737
134	0x3d0b42da	0.0339993
135	0x3d08c215	0.033388216
136	0x3ce8d8f2	0.02842376
137	0x3d048174	0.03235002
138	0x3d1d7dd6	0.038450085
139	0x3d7427a9	0.059608135
140	0xbd452313	-0.048129153
141	0x3d60d552	0.054890938
142	0xbd078545	-0.03308608
143	0xbc9f1a87	-0.019421829
144	0xbcf9f1ac	-0.030510746
145	0x3c340ac5	0.010988896
146	0x3d3530d8	0.044236034
147	0xbd09f892	-0.03368432
148	0xbd08a8ef	-0.033364233
149	0xbc68d2c0	-0.014210403
150	0xbca02caf	-0.019552557
151	0x3d84f244	0.06491521
152	0x3d68082c	0.05664842
153	0x3d6852e4	0.056719676
154	0xbc5eb64b	-0.013593267
155	0x3d73e530	0.059544742
156	0xbd09c11b	-0.033631425
157	0xbd1db7ae	-0.03850525
158	0x3cb89f1f	0.022536812
159	0xbc9399a3	-0.018017596
160	0xbca17dca	-0.019713301
161	0xbd5fe9a1	-0.054666165
162	0xbc4f64d9	-0.012658321
163	0xbbdc5baf	-0.0067247967
164	0x3d82e3a1	0.06391073
165	0x3cd807ed	0.026370967
166	0x3af31872	0.0018546714
167	0xbd0e2db5	-0.03471156
168	0x3b6a0a6a	0.0035711774
169	0xbc998036	-0.018737894
170	0x3ce53d57	0.02798335
171	0xba02a5c1	-0.00049838057
172	0xbd03b599	-0.032155607
173	0x3d4fcfbf	0.05073523
174	0x3d046ba8	0.03232923
175	0xba8de3d4	-0.0010825344
176	0x3d8e3218	0.069431484
177	0xbb907b30	-0.0044092163
178	0xbcea15cc	-0.028574847
179	0xbc6bc9b3	-0.014391351
180	0xbce031f7	-0.027367575
181	0xbd3b0cb0	-0.045666397
182	0xbc0e0d4f	-0.008670165
183	0x3d802ceb	0.062585674
184	0x3cbb0be6	0.022832822
185	0x3d068c1e	0.03284847
186	0x3d35097f	0.04419851
187	0xbd225a31	-0.039636794
188	0x3c130726	0.008973872
189	0x3d0e60bf	0.034760233
190	0x3d68e67b	0.05686043
191	0xbd30992d	-0.04311483
192	0x3a836757	0.0010025305
193	0x3d31c45c	0.043400154
194	0x3d896e8d	0.06710539
195	0xbbc7d2dd	-0.006098135
196	0x3d542ec6	0.05180242
197	0xbbe54224	-0.00699641
198	0xbd5ac8a5	-0.053414006
199	0x3c830ab3	0.015996313
200	0xbc8e4b2e	-0.017369833
201	0x3ca38412	0.019960437
202	0x3ca2713f	0.01982939
203	0x3d58818d	0.052857924
204	0xbca21452	-0.01978508
205	0xbd49c105	-0.049256343
206	0x3c959bdd	0.018262798
207	0x3d099b55	0.0335954
208	0xbc80d934	-0.01572857
209	0xbd2fdc4e	-0.04293471
210	0xbd1476a1	-0.036245946
211	0xbd3ea878	-0.046547383
212	0xbca7f8ec	-0.020504437
213	0x3d412dea	0.047162928
214	0xbbabfffe	-0.0052490225
215	0xbc9f7210	-0.019463569
216	0x3ceefbd4	0.029172815
217	0x3d079dbd	0.033109415
218	0x3d7168c8	0.058937818
219	0x3c1956be	0.00935906
220	0xbd443c82	-0.047909267
221	0x3d8281a9	0.06372387
222	0x3d3bb888	0.04583028
223	0xbccb1244	-0.024788983
224	0xbd3664fc	-0.0445299
225	0xbd2301e3	-0.03979672
226	0x3c90dc90	0.017683297
227	0x3add550f	0.0016886311
228	0xbba7a787	-0.0051164064
229	0x3b5c76ba	0.0033640102
230	0xbc186cc6	-0.009303277
231	0xbd63bc64	-0.055599585
232	0xbd6cf945	-0.05785491
233	0x3cc8864a	0.024478097
234	0xbd301b6c	-0.0429949
235	0xbd6a6880	-0.057228565
236	0xbd2cf951	-0.042229954
237	0xbc3e2a5d	-0.01160678
238	0x3c26c551	0.01017888
239	0x3d72af59	0.059249256
240	0xbd3a9611	-0.04555327
241	0xbc9601ca	-0.0183114
242	0xbbb0873d	-0.0053872154
243	0xbd428be6	-0.0474967
244	0xbd597350	-0.053088486
245	0xbbc3dfd4	-0.00597761
246	0x3ce65b77	0.028119786
247	0x3d069429	0.03285614
248	0xbcd8f392	-0.02648333
249	0x3c1ec48e	0.009690417
250	0x3d835a9f	0.06413769
251	0x3cad73bb	0.021173349
252	0x3c9c93c7	0.019113434
253	0x3d80d2d9	0.06290216
254	0xbd1ac8b2	-0.037789054
255	0x3d7a542a	0.06111542

discriminator.4.weight f4 [64, 32, 4, 4]
0	0x3bc874f9	0.00611746
1	0x3c00ccf6	0.0078613665
2	0xbd17da13	-0.037073206
3	0xbcba15e4	-0.022715516
4	0x3c74a31e	0.014931468
5	0xbc9019f7	-0.017590506
6	0xbcf507d8	-0.029910967
7	0x3c8d9ca1	0.0172866
8	0x3ccd5874	0.025066592
9	0x3cf86caf	0.030325262
10	0xbcb36388	-0.021898046
11	0xbc1f242f	-0.009713217
12	0xbcb34572	-0.0218837
13	0x3ce5bdb2	0.028044555
14	0x3cc76616	0.02434067
15	0x3ca3c5f1	0.019991847
16	0xbcbc5cce	-0.022993471
17	0x3c8ee5a0	0.017443478
18	0xbbab59c5	-0.005229207
19	0xbcf86da0	-0.03032571
20	0xbd2517a5	-0.040305752
21	0x3b5dfce1	0.0033872651
22	0xbbf67a12	-0.007521876
23	0xbceed443	-0.029153949
24	0xbc89c123	-0.016815728
25	0x3cec902f	0.028877346
26	0xbc11056d	-0.008851391
27	0x3cad4c6e	0.021154609
28	0x3b8482cc	0.0040439125
29	0x3c8337ab	0.016017755
30	0xbb96c16e	-0.0046006953
31	0x3d11fac0	0.035639524
32	0xbd2d9556	-0.042378746
33	0xbcf09450	-0.029367596
34	0xbcf757b2	-0.030193184
35	0x3a7f9f8f	0.0009751254
36	0x3ad6c184	0.0016384576
37	0xbd1561b1	-0.03647012
38	0xbd208ba6	-0.03919568
39	0xbd1de258	-0.038545936
40	0xbaa19938	-0.0012328988
41	0x3cb36c21	0.021902146
42	0xbb5814a8	-0.0032971296
43	0xbcb6e88e	-0.022327688
44	0x3c72e3c7	0.014824814
45	0x3cfe67a1	0.031055273
46	0xbae68c60	-0.0017589442
47	0x3d03bb25	0.032160897
48	0x3b310bce	0.0027015093
49	0x3ba275b3	0.0049578785
50	0xbb9d17bc	-0.004794089
51	0x3d0c8773	0.034308862
52	0x3a434117	0.0007448359
53	0xbd366fc1	-0.04454017
54	0x3d25e585	0.04050209
55	0x3cf19232	0.029488657
56	0xbd058ce8	-0.03260508
57	0x3ca97ab1	0.020688387
58	0xbae197ae	-0.0017211342
59	0xbd0cd002	-0.03437806
60	0xbc60070e	-0.013673557
61	0xbccf0fb5	-0.025276044
62	0x3c65bf47	0.014022655
63	0x3a07bb40	0.0005177744
64	0x3d1e3b91	0.038631026
65	0xbb73207b	-0.0037098217
66	0x3d15c92d	0.03656881
67	0x3c0e2f8b	0.008678327
68	0x3d40063d	0.04688095
69	0x3c5affb8	0.013366632
70	0x3be63dbd	0.0070264027
71	0x3d38b550	0.045094788
72	0x3d25c22d	0.040468384
73	0xbc389fb2	-0.011268543
74	0xbca68809	-0.020328538
75	0x3cbeacfe	0.023275848
76	0x3c8f0625	0.017458985
77	0xbd1abd71	-0.03777832
78	0x3b447856	0.0029978952
79	0x3c3eaf56	0.011638483
80	0xbc932d6f	-0.017966
81	0x3c9550af	0.01822695
82	0x3d150eef	0.036391195
83	0xbd16641a	-0.036716558
84	0xbb2a4486	-0.0025980785
85	0x3ca6d278	0.020364031
86	0x3cf36099	0.029709147
87	0x3cc20740	0.023685098
88	0x3d320278	0.043459386
89	0xbc08ae99	-0.008342409
90	0xbc1892eb	-0.009312372
91	0x3ce65e5a	0.028121162
92	0x3bb9c46c	0.0056691673
93	0x3cf04f6a	0.029334743
94	0x3ccaa474	0.02473662
95	0xbcaa6e8e	-0.02080467
96	0x3bbb308d	0.005712575
97	0xbb458757	-0.0030140483
98	0xbd1f3c2b	-0.03887574
99	0xbce5846e	-0.028017249
100	0xbc223bba	-0.009901935
101	0xbd25feeb	-0.04052631
102	0xba504887	-0.0007945378
103	0xbc9389e9	-0.018010097
104	0x3ba91607	0.0051600966
105	0x3c0b6de4	0.008510087
106	0xbc105798	-0.0088099465
107	0xbbbca34a	-0.0057567703
108	0x3cb38d02	0.021917824
109	0x3ce9f5e8	0.02855964
110	0x3c3f9aa2	0.011694582
111	0x3c878a2d	0.01654538
112	0xbc06c8e8	-0.008226611
113	0xbcb08a85	-0.021550426
114	0xbbbfb5d8	-0.005850535
115	0x3cff0179	0.031128632
116	0x3c2a83c2	0.01040739
117	0x3cfba0c4	0.030716307
118	0xbcbec813	-0.023288762
119	0x3be7278f	0.0070542763
120	0x3d1b7c8c	0.037960574
121	0xbb449810	-0.0029997863
122	0xbc809b95	-0.015699187
123	0x3cbdfc3f	0.02319157
124	0x3d1537bd	0.03643011
125	0xbca88bce	-0.020574477
126	0x3c879f63	0.016555494
127	0x3d0a6b5c	0.033793792
128	0x3d1ebc28	0.03875366
129	0xbc66e4ed	-0.014092666
130	0x3c7222c9	0.014778801
131	0xbbac1de0	-0.005252585
132	0x3d36c724	0.04462351
133	0xbd1f04d8	-0.03882298
134	0xbc916889	-0.017750042
135	0xbbe14052	-0.0068741227
136	0x3d08107c	0.033218846
137	0x3cc5c898	0.024143502
138	0x3ca669f0	0.020314187
139	0x3d079411	0.03310019
140	0xbc8c9ba7	-0.017164065
141	0xbc430bc5	-0.011904662
142	0x3d084a7e	0.033274166
143	0xbcab4a6c	-0.02090951
144	0xbb4f3e43	-0.0031622804
145	0x3c49ca79	0.01231634
146	0x3d051b08	0.032496482
147	0xbc026c6a	-0.007960418
148	0xbd0c1b04	-0.03420545
149	0xbd07d76b	-0.033164423
150	0x3d0bfbd2	0.0341757
151	0xbb84a0ce	-0.0040474897
152	0xbc8c80f7	-0.017151339
153	0x3d1aae7f	0.03776407
154	0x3cf18140	0.029480577
155	0xbb90c512	-0.004418024
156	0x3c172b32	0.009226607
157	0x3ccabc80	0.024748087
158	0xbbc3dd74	-0.005977327
159	0xbd07f1c3	-0.033189546
160	0xbd0be9c4	-0.034158483
161	0xbcdff270	-0.027337283
162	0x3c838f95	0.016059676
163	0x3d3ce3d8	0.046115726
164	0xba8901a6	-0.0010452762
165	0xb9f8d785	-0.0004746282
166	0x3d23ca1d	0.039987672
167	0x3c1061b5	0.008812358
168	0x3d401879	0.04689834
169	0xbcf0fd20	-0.029417574
170	0x3cce03f0	0.025148362
171	0xbc435749	-0.011922666
172	0xbc8bcd25	-0.017065594
173	0xbd0b71d3	-0.034044098
174	0x3c5a2419	0.01331427
175	0x3b8dd6d1	0.0043285866
176	0xbc7071fd	-0.014675614
177	0x3d13ad7f	0.03605413
178	0xbd054b9f	-0.03254282
179	0x3cc9f69a	0.024653722
180	0x3cd9d6a2	0.026591603
181	0xba6f4a07	-0.00091281574
182	0x3cea0f48	0.02857174
183	0x3ca2dcf8	0.019880757
184	0x3c4c4469	0.012467482
185	0xbd24bcf9	-0.04021928
186	0x3be1def1	0.0068930318
187	0x3cdb8fe6	0.026802015
188	0x3cbf8f81	0.023383858
189	0xbd1ad6b7	-0.037802424
190	0xbcf65f22	-0.03007466
191	0x3cad4bfb	0.021154394
192	0x3d17b0e5	0.037033934
193	0xbc157a55	-0.0091234045
194	0x3b65b999	0.0035053252
195	0x3b9fa810	0.0048723295
196	0xbd183d71	-0.03716797
197	0x3c3c38cb	0.01148815
198	0x3c142bc7	0.00904364
199	0xbc757e59	-0.014983737
200	0x3be63006	0.007024768
201	0xbd05d8e0	-0.03267753
202	0x3cb3772d	0.021907413
203	0xbcb27270	-0.021783084
204	0xbcf1c3cf	-0.029512314
205	0xb9878f76	-0.00025856093
206	0xbce92d2d	-0.028463924
207	0x3bfe690e	0.0077639883
208	0xbce30e3a	-0.027716745
209	0x39860ddc	0.00025568798
210	0xbd18ccf3	-0.03730483
211	0x3c96cde5	0.018408725
212	0xbb5fc60c	-0.0034145145
213	0x3cd7a99d	0.026325995
214	0xbcba032e	-0.022706594
215	0xbb8771b7	-0.004133429
216	0x3d209535	0.039204795
217	0x3d1b904c	0.03797941
218	0xbcc1a746	-0.023639333
219	0x3c0ea1fa	0.00870561
220	0xb9e33c1e	-0.00043341605
221	0xbd279ddb	-0.040922027
222	0x3c493e00	0.012282848
223	0x3c07bb8e	0.008284463
224	0xbb578eed	-0.0032891587
225	0x3c0f92f2	0.008763062
226	0xbd123d74	-0.035703138
227	0x3c8f39f1	0.017483683
228	0x3d2507b5	0.040290553
229	0xbc2eaca6	-0.01066128
230	0xbcc4e02b	-0.024032673
231	0x3c76cfce	0.015064193
232	0xbc11c948	-0.008898087
233	0x3c91d467	0.017801477
234	0xbd2d4826	-0.042305134
235	0xbcfdc58d	-0.030977989
236	0x3c6a67a5	0.014306937
237	0x3d22ac97	0.039715376
238	0xbbdb8650	-0.006699361
239	0xbc675f12	-0.014121788
240	0x3beebbbf	0.0072855647
241	0xbb89d277	-0.0042059976
242	0x3ab76825	0.001399283
243	0xbc9a571c	-0.018840365
244	0x3c93255d	0.017962152
245	0x3d19f075	0.037582833
246	0x3cf2720c	0.029595397
247	0x3c0696c2	0.008214654
248	0x3a7e5278	0.000970162
249	0xbd2b49bd	-0.04181837
250	0xbd0cc9c8	-0.03437212
251	0xbc7d4669	-0.015458682
252	0xbd1c53cd	-0.038165856
253	0x3cbbc5a2	0.022921387
254	0xbd09a28a	-0.033602275
255	0xbc5ec13a	-0.0135958735

discriminator.6.weight f4 [128, 64, 4, 4]
0	0xbcb5e55e	-0.022204097
1	0xbb449f53	-0.0030002191
2	0x3cf77884	0.030208834
3	0x3bacfb53	0.0052789836
4	0x3cc176a3	0.02361614
5	0xbb977e04	-0.0046231765
6	0x3cf3efd8	0.029777452
7	0xbc902974	-0.017597891
8	0xbc98707c	-0.018608324
9	0x3cbeb51a	0.023279715
10	0x3c5a34de	0.013318269
11	0x3c63d74d	0.013906312
12	0x3cb1121f	0.021615086
13	0x3ced2ff2	0.028953526
14	0x3c530b4a	0.0128811095
15	0xbb3fe86f	-0.0029282828
16	0xbbe15c08	-0.006877426
17	0x3af01b95	0.0018318767
18	0x3c8bb159	0.01705234
19	0xbc8191e9	-0.015816646
20	0x3ce7e319	0.02830653
21	0xbcc77196	-0.024346154
22	0xbc7a83f3	-0.015290248
23	0xbcc169d7	-0.023610039
24	0xbacafb81	-0.0015486331
25	0xbcdc5d09	-0.026899831
26	0xbb9820e1	-0.0046425913
27	0xbccd055f	-0.025026975
28	0xbb0f016e	-0.002182092
29	0x3c3db481	0.01157868
30	0xbce3d3bf	-0.02781093
31	0xbcd4d085	-0.025978336
32	0x3c56dee5	0.013114666
33	0x3cf32da8	0.029684857
34	0x3c6536a0	0.013990074
35	0xbcb69fc2	-0.022292975
36	0x3cdb54d1	0.026773842
37	0xbbef67fc	-0.007306097
38	0xbc843ee8	-0.016143277
39	0xbc09be9c	-0.008407261
40	0x3cda5f8d	0.02665689
41	0x3c66ab5a	0.014078939
42	0xbcb1dd21	-0.021711888
43	0x3ccd4b53	0.025060331
44	0x3b2aff7a	0.0026092217
45	0xbc9b2c9f	-0.018942175
46	0xbba42379	-0.0050091115
47	0xbc32f76c	-0.010923248
48	0xbb97caeb	-0.004632344
49	0xbc3b3402	-0.011425974
50	0x3ce37cbb	0.027769437
51	0x3b40d406	0.002942325
52	0xbc835908	-0.016033664
53	0x3c729c7e	0.014807818
54	0x3c51fddb	0.0128168715
55	0x3cb44aff	0.022008417
56	0xbcac56a5	-0.02103741
57	0xbcbccdc2	-0.023047332
58	0xbc992b77	-0.018697483
59	0x3bdf16f8	0.006808158
60	0x3caec988	0.021336332
61	0x3c0e3233	0.008678961
62	0xbcf6ecff	-0.030142305
63	0x3ced5e3c	0.028975599
64	0x3c2aacce	0.010417176
65	0xbbabb027	-0.005239505
66	0xbb8d323f	-0.0043089683
67	0x3cbc575e	0.022990879
68	0xbd00dc1e	-0.03145992
69	0xbcfc52eb	-0.030801257
70	0x3c638edf	0.013889044
71	0xbb9bc358	-0.0047535114
72	0xbcd06489	-0.025438564
73	0x3cc1c903	0.02365542
74	0x3c085fbd	0.008323607
75	0xbce83acd	-0.02834835
76	0xbb299146	-0.0025873943
77	0x3bb98976	0.0056621386
78	0xbd030325	-0.03198542
79	0x3c105cec	0.008811217
80	0xbbeab715	-0.0071629384
81	0xbc76a459	-0.015053832
82	0x3c13c9fe	0.009020327
83	0x3cbdd88f	0.023174552
84	0x3c8ea3df	0.017412124
85	0xbc35a3af	-0.0110863885
86	0xbcb10f35	-0.021613697
87	0x3ca410c2	0.020027522
88	0x3c828fe9	0.015937762
89	0xbca7182f	-0.020397274
90	0x3d0dac03	0.03458787
91	0xbcae3ece	-0.021270182
92	0xbc482358	-0.012215458
93	0x3c70728c	0.014675748
94	0x3ce7e5f0	0.028307885
95	0xbc49937d	-0.01230323
96	0x3cbf04f9	0.0233178
97	0x3cc360c6	0.023849856
98	0xbcb4ce21	-0.022070946
99	0x3cfdb6f8	0.030971035
100	0x3bacb733	0.0052708625
101	0x3c33f710	0.010984197
102	0x3d0019e4	0.03127469
103	0xbb8f4c4e	-0.00437311
104	0x3ba0b20f	0.0049040387
105	0x3d03732b	0.032092255
106	0xbc130287	-0.008972771
107	0xbc5726fb	-0.013131852
108	0x3cee21d3	0.029068863
109	0xbc793568	-0.015210487
110	0x3cf58617	0.029971166
111	0x3c8066e3	0.01567406
112	0x3cabc911	0.0209699
113	0xbc52d29d	-0.012867597
114	0x3d080ee2	0.03321732
115	0x39c7cbb9	0.00038108023
116	0x3c466f3c	0.012111481
117	0xbb577f87	-0.0032882409
118	0x3cb28b01	0.021794798
119	0x3c94716b	0.018120488
120	0x3c90a69e	0.017657574
121	0xbcaafa85	-0.02087141
122	0x3cf4591e	0.02982765
123	0x3ce46867	0.027881814
124	0x3baa83b9	0.005203691
125	0x3beece7f	0.0072878
126	0x3caa4822	0.020786349
127	0xbcbf7639	-0.023371803
128	0xbcd772dc	-0.026299886
129	0x3ce4f1bf	0.027947305
130	0xbc2ab587	-0.010419256
131	0xbba09cbd	-0.004901497
132	0x3c0fcf2a	0.008777419
133	0xbc31d536	-0.010854056
134	0x3c146fca	0.009059856
135	0xbbfe752b	-0.0077654324
136	0xbc182d8e	-0.009288205
137	0xbc632d7d	-0.013865826
138	0x3b558570	0.0032580756
139	0x3b45cd1d	0.0030182071
140	0x3c10b294	0.008831639
141	0x3c1021d0	0.008797124
142	0x3c381572	0.011235582
143	0xbb34a3ba	-0.002756341
144	0xbcd315f9	-0.025767313
145	0xbc56642d	-0.013085407
146	0xbc2dad6f	-0.010600432
147	0x3cc74dab	0.024329027
148	0x3d08121f	0.033220407
149	0x3bb3f48e	0.0054917997
150	0xbcd60ca7	-0.02612908
151	0xbcaf7954	-0.021420158
152	0x3ce0accc	0.027426146
153	0x3ba2d9b5	0.0049698004
154	0xbcb88aff	-0.022527216
155	0x3cf39457	0.02973382
156	0x3ce768cd	0.028248215
157	0xbc7bd164	-0.015369747
158	0xb944d77f	-0.00018772295
159	0xbc934b75	-0.017980317
160	0xbc737c67	-0.014861203
161	0xbc7ad284	-0.01530898
162	0x3bdcb4cc	0.00673542
163	0xbce8930f	-0.028390436
164	0xbcb32281	-0.021867039
165	0x3b909dab	0.0044133267
166	0xbb9f9ebb	-0.004871217
167	0x3cf7d59c	0.030253224
168	0x3ca95c8b	0.02067401
169	0x3b83e5ab	0.0040251813
170	0x3c07ac2e	0.008280797
171	0x3c3b5267	0.0114332205
172	0x3c9df782	0.01928306
173	0x3ca1c71c	0.019748263
174	0xbcfb5a81	-0.030682804
175	0xbbf5e5df	-0.0075042094
176	0x3bda5af0	0.0066636726
177	0x3b83f9ec	0.0040275957
178	0xbb171044	-0.0023050467
179	0xbbc12927	-0.0058947983
180	0xbc7bd602	-0.015370848
181	0xbce05c07	-0.027387632
182	0x3c49757b	0.012296076
183	0xbc4c53f3	-0.012471187
184	0xbcf6b852	-0.030117188
185	0x3ca14248	0.019684926
186	0x3959a309	0.00020755468
187	0x3cace3bf	0.021104692
188	0xbce22ebf	-0.02761018
189	0x3c137193	0.008999246
190	0x3c29c66a	0.010362247
191	0xba525b59	-0.0008024476
192	0x3cc0b388	0.023523107
193	0xbc85b9bd	-0.016323918
194	0x3c5d59e2	0.013510199
195	0x3c47b761	0.012189717
196	0xbbebe786	-0.0071992306
197	0x3c7c1bdb	0.015387501
198	0xbcae58d3	-0.021282589
199	0x3cf629f1	0.030049296
200	0x3c636f69	0.013881543
201	0xbb80b3c9	-0.003927682
202	0x3c7c6b8b	0.0154065
203	0x3cb39ba7	0.021924807
204	0x3b52236b	0.0032064568
205	0x3ce39c5a	0.027784515
206	0x399463e2	0.00028303178
207	0xbcd80d8d	-0.026373649
208	0xbc821913	-0.015881097
209	0x3cb2e06e	0.021835532
210	0xbc56ac2e	-0.013102574
211	0xbca81263	-0.02051658
212	0xbb55633c	-0.003256037
213	0x3ce51eb7	0.027968748
214	0xbc4d2483	-0.012520912
215	0xbb993fa0	-0.004676774
216	0xbc062633	-0.008187818
217	0x3cdcd7f7	0.026958449
218	0xbc7181c1	-0.014740408
219	0x3c73707f	0.014858364
220	0xbccb044e	-0.024782326
221	0xbc9e197c	-0.019299261
222	0xbc8ddd62	-0.017317478
223	0x3d008a3f	0.03138184
224	0x3d03213f	0.032014128
225	0x3cf93eed	0.030425513
226	0x3c2a7d8e	0.010405911
227	0x3d005ea0	0.03134024
228	0xbbbb1838	-0.005709674
229	0xbb931730	-0.004488848
230	0xbbe2a3ed	-0.006916514
231	0x3c9573e0	0.01824373
232	0x3cc54c61	0.024084272
233	0xbc0e6b72	-0.008692609
234	0x3c215500	0.009846926
235	0x3cff2794	0.031146802
236	0xbcaad3ac	-0.020852886
237	0x3cb91c9f	0.022596655
238	0x3ce48a59	0.027898
239	0xbcf0a4d6	-0.029375475
240	0x3bef316e	0.0072995936
241	0xbc65d07c	-0.014026757
242	0xbc490923	-0.012270245
243	0xb8bf6f62	-9.1283364e-05
244	0x3ca65a9a	0.020306874
245	0x3cf3576a	0.029704768
246	0x3c93a077	0.018020852
247	0x3ce56af4	0.0280051
248	0xbc140731	-0.009034918
249	0x3cba8c75	0.022772053
250	0xbc6697bd	-0.014074263
251	0xbc928208	-0.01788427
252	0x3ba5be3a	0.005058077
253	0x3b5d6aa2	0.0033785482
254	0xbac77ee1	-0.0015220308
255	0xbc9c9a2c	-0.019116484

adv_layer.0.weight f4 [1, 32768]
0	0x3af16e20	0.0018419661
1	0x3b28bf9f	0.002574898
2	0xbb50b9ef	-0.0031849106
3	0xbb9a6afa	-0.0047124596
4	0x3b428f46	0.0029687448
5	0xbbae2a48	-0.005315099
6	0xba060639	-0.00051126216
7	0xbabd1386	-0.0014425374
8	0x3bc8e7b6	0.0061311377
9	0x3acfcca3	0.0015853833
10	0x3bc1672a	0.0059021907
11	0x3bbf4b0b	0.0058378032
12	0x3a798bc6	0.0009519424
13	0xbabc941d	-0.0014387403
14	0x3ba3ab68	0.0049947985
15	0x3b423e83	0.002963931
16	0x398bb126	0.00026644132
17	0x3b840f9b	0.0040301806
18	0xbb7a3c3a	-0.003818287
19	0x39ead88d	0.000447933
20	0x3ba88b2c	0.0051435437
21	0xbb7fa1bb	-0.003900631
22	0xbb116976	-0.0022188104
23	0xbb8c7ae3	-0.00428711
24	0xbbaa287d	-0.005192815
25	0x3bcf0736	0.0063179983
26	0xbb786331	-0.003790092
27	0x3bd05b60	0.006358549
28	0x3b92a76f	0.004475526
29	0x3b8f68f4	0.004376525
30	0x3b94c968	0.004540611
31	0x3b4d0bd6	0.0031287572
32	0x3b3ff010	0.0029287376
33	0xbb16a665	-0.0022987362
34	0x3a790f1d	0.0009500848
35	0x3b94857a	0.004532513
36	0xbb8dc7e0	-0.0043268055
37	0xba65a0d9	-0.0008759625
38	0x3b195f29	0.0023402667
39	0xbbb7b385	-0.005606117
40	0x3ba82795	0.0051316717
41	0xbb53e5a5	-0.0032332924
42	0xbb0d7190	-0.002158258
43	0xba98fa76	-0.0011671323
44	0xbb999911	-0.0046874364
45	0x3b8bdff2	0.0042686397
46	0x3b50de7b	0.003187089
47	0x3b69bd61	0.0035665857
48	0xba6741b5	-0.0008821742
49	0x3b8057d7	0.0039167213
50	0x39afe9a7	0.00033552686
51	0xbbacb5c2	-0.0052706907
52	0x3b1c54d8	0.0023854282
53	0xbb3824df	-0.0028098149
54	0x3a64f092	0.00087333575
55	0x3b76d846	0.003766553
56	0x3acc3b7e	0.0015581695
57	0xbbd69a5c	-0.006549163
58	0xbb1afab6	-0.002364797
59	0x3af8ea85	0.0018990791
60	0x3b771a71	0.003770497
61	0xbb83c8c7	-0.0040217373
62	0xb86d96b0	-5.6645542e-05
63	0xbb78bb82	-0.003795356
64	0x3c0529cc	0.008127641
65	0x3aded61b	0.0017001064
66	0xbb75d685	-0.0037511897
67	0x3b3ddddc	0.002897135
68	0xb780b32e	-1.5342226e-05
69	0xbb9c25df	-0.004765257
70	0x3b1a1f9b	0.0023517373
71	0xb9e2307f	-0.00043142212
72	0x3bb0371a	0.0053776624
73	0xb9d796f6	-0.0004112047
74	0xbae096d7	-0.0017134798
75	0xbac7c7ae	-0.0015242004
76	0xbb4254a6	-0.0029652505
77	0x3a8f9666	0.0010954856
78	0x3a5e094d	0.0008470014
79	0x3b1d4f67	0.0024003626
80	0x3be8eed2	0.0071085477
81	0x3b9ca617	0.0047805416
82	0x3b02741c	0.0019905632
83	0x3b446822	0.0029969295
84	0x3bbe3f9b	0.005805922
85	0x3bab0017	0.0052185166
86	0x3b434c66	0.0029800176
87	0x3ba8f035	0.005155588
88	0xb960a7fd	-0.00021424885
89	0xbb1f9888	-0.002435239
90	0xbaab15de	-0.0013052782
91	0xbb3f8ce9	-0.0029228276
92	0xbaec9b95	-0.0018051738
93	0xbb9f6c9c	-0.004865242
94	0x3a7dfd62	0.0009688941
95	0x3b469f81	0.0030307474
96	0x3aeb54c6	0.0017954342
97	0x3b459137	0.003014637
98	0xbb9fb66d	-0.004874042
99	0x3b7e8ed7	0.0038842463
100	0x3bdfbd81	0.0068280105
101	0xbb7dbf1a	-0.0038718642
102	0xbb2b51e9	-0.0026141352
103	0xba807041	-0.0009799079
104	0xbb079674	-0.0020689042
105	0xbb82fbf0	-0.0039973184
106	0x3b9c8928	0.0047770925
107	0xbb84992a	-0.004046579
108	0xbb919aa8	-0.0044434853
109	0x3955f86a	0.00020405804
110	0xbb13289a	-0.002245462
111	0xbb5fcf6a	-0.0034150728
112	0x3b3283a7	0.0027239115
113	0xbb12683c	-0.002233996
114	0xbb9c37ee	-0.0047674095
115	0xbb54197d	-0.0032363825
116	0x3b09f686	0.002105148
117	0xbb427df5	-0.0029677127
118	0xb999156a	-0.0002919839
119	0xbbc3e44e	-0.005978144
120	0xba266689	-0.00063476764
121	0xbb3c83c8	-0.0028765071
122	0x3b6230f6	0.0034514046
123	0x3b27d096	0.0025606505
124	0x3bb40d2d	0.0054947347
125	0x3b98966d	0.004656604
126	0xbbc2ea49	-0.005948339
127	0x3ba488bb	0.0050211824
128	0x3b51bee8	0.0032004658
129	0x3a826c6d	0.0009950526
130	0xba06d455	-0.0005143334
131	0x3b8163d0	0.003948666
132	0x3bbfcda5	0.005853372
133	0xbb09721b	-0.0020972553
134	0x3b302efb	0.0026883471
135	0xb953db47	-0.00020204215
136	0xbb4abe7a	-0.0030936287
137	0x3a3bfed6	0.00071714574
138	0xbb581630	-0.003297221
139	0xbb90e151	-0.004421391
140	0x3b85d480	0.00408417
141	0x3b7ec071	0.0038872028
142	0x3b8f0b69	0.004365374
143	0xbadf5b3f	-0.0017040743
144	0xbb3c471c	-0.0028728908
145	0xb9b48107	-0.00034428408
146	0xbb30d65a	-0.0026983232
147	0xba4068c7	-0.0007339832
148	0x3b845799	0.0040387628
149	0xba8ba048	-0.0010652626
150	0xbba718d9	-0.0050993976
151	0x3ae5d43f	0.0017534568
152	0x3bbc3b5f	0.0057443823
153	0x381f7df2	3.802585e-05
154	0x3bba739d	0.0056900517
155	0xbb9836e9	-0.0046452177
156	0x3b173d3c	0.002307727
157	0x3b117a58	0.0022198167
158	0xbba1a0a1	-0.0049324785
159	0xbb6994a6	-0.003564158
160	0x3be9d4e6	0.007135975
161	0xb9b4461d	-0.00034384514
162	0xb8a6483b	-7.928951e-05
163	0x3b1fef00	0.002440393
164	0x3a27cb69	0.0006400855
165	0xbba46526	-0.0050169406
166	0x3b775088	0.003773721
167	0x3b619ee3	0.003442698
168	0x3b2fbc6a	0.0026815184
169	0xbbb1119c	-0.0054037105
170	0x3a9a43cd	0.0011769474
171	0xbb86b4e1	-0.004110918
172	0x3b8191c5	0.0039541447
173	0xba48967a	-0.0007651817
174	0x3b9f0961	0.004853413
175	0xbbb90fba	-0.0056476267
176	0x3b9bc3b5	0.0047535547
177	0xbbbaf075	-0.0057049342
178	0xbb92e67c	-0.0044830423
179	0x3b98ad61	0.0046593403
180	0x3b77900f	0.0037775075
181	0xbb94d531	-0.004542016
182	0x3b4a96e3	0.003091269
183	0x3ae4e1fc	0.0017462368
184	0xbb648740	-0.0034870654
185	0xbaa71fa4	-0.0012750519
186	0xbab60f27	-0.0013890014
187	0xbb19d6bf	-0.0023473946
188	0xbbba653e	-0.0056883385
189	0xbade8efd	-0.001697987
190	0x3b20537e	0.0024463828
191	0x3a05bd29	0.00051017344
192	0x3b34d21a	0.002759105
193	0xba860344	-0.0010224362
194	0xb9dc4c46	-0.00042018498
195	0xbb948b00	-0.0045331717
196	0x39ee52b4	0.00045456516
197	0xbbbed45f	-0.0058236565
198	0xbac6d6f9	-0.0015170268
199	0x3aab4c48	0.0013068998
200	0xb7684d79	-1.3846316e-05
201	0xbb83871d	-0.0040139095
202	0xbae57c60	-0.001750838
203	0xb9ea306e	-0.0004466804
204	0xba40d118	-0.0007355376
205	0xbb98e89d	-0.0046664015
206	0xb96dc69f	-0.00022676073
207	0x3a800bcc	0.0009769141
208	0x3ba62e1a	0.0050714137
209	0xbb9cd6d5	-0.004786352
210	0xbb4b407d	-0.003101378
211	0x3b723fa7	0.003696421
212	0x3acf3d2e	0.001581108
213	0x3b615a10	0.0034385957
214	0xbb8a3cc4	-0.0042186696
215	0xbbcba415	-0.0062146285
216	0xb91419dc	-0.00014124013
217	0x3aa15226	0.0012307807
218	0xbbc92a4c	-0.0061390754
219	0x3aac4d7c	0.0013145651
220	0x3ad39cc5	0.0016144743
221	0xba66028c	-0.0008774183
222	0x3b3b8f0c	0.0028619198
223	0x3ba3554f	0.004984535
224	0xbb5defcd	-0.0033864856
225	0x389756da	7.2164185e-05
226	0xbbb5b6ae	-0.0055454588
227	0xbbd6397e	-0.0065376153
228	0x3b56c1d0	0.003276933
229	0xbbb6b961	-0.005576298
230	0xbb4413ac	-0.0029918952
231	0x3b33cc92	0.0027435166
232	0x3b16ff02	0.002304018
233	0xbaa37839	-0.0012471742
234	0xbb62bd3d	-0.0034597658
235	0xba655570	-0.0008748388
236	0x3b9ac670	0.0047233626
237	0xb96c9922	-0.0002256376
238	0xbb182556	-0.0023215613
239	0xbb9c7ebd	-0.0047758506
240	0x3af5fb09	0.0018766831
241	0x3b2cef18	0.0026387628
242	0xbb416c88	-0.0029514153
243	0x3a621a81	0.0008625165
244	0xbb9dc4b1	-0.004814707
245	0xbb8675e2	-0.004103408
246	0x38d1ff95	0.000100135025
247	0x3b9080e5	0.0044098967
248	0xbb8c8853	-0.004288712
249	0x39e65e9a	0.00043939502
250	0xbbe04ce9	-0.006845106
251	0x3a79afc2	0.0009524786
252	0xbace9c5c	-0.0015763151
253	0xbb2f0f5a	-0.002671203
254	0xbbab130a	-0.0052207755
255	0x3aa3f0b9	0.0012507654
