model/Discriminator_finetuned_Final_shtech.pt (torch, 825215 bytes, 5 tensors)

discriminator.0.weight f4 [16, 3, 4, 4]
0	0xbe0657dc	-0.13119453
1	0x3dd3233d	0.103094555
2	0xbc1ef08f	-0.009700908
3	0xbd69a467	-0.057041552
4	0xbd87316e	-0.06601225
5	0x3daedff3	0.08538809
6	0x3da864e7	0.082223706
7	0xbe02b454	-0.12764102
8	0x3dbfccf2	0.09365262
9	0x3dbbddac	0.0917314
10	0x3dd3d8e4	0.10344103
11	0x3da2343e	0.07920121
12	0xbd9c18c0	-0.07621908
13	0x3de204ce	0.11036073
14	0x3d3f79ca	0.046747006
15	0xbd5ffd6b	-0.054685038
16	0xbde1a8c3	-0.11018517
17	0xbcd902ec	-0.026490651
18	0x3e009103	0.12555318
19	0xbd206be2	-0.039165385
20	0x3cff4024	0.031158514
21	0xbd43b148	-0.04777649
22	0xbdbb7da8	-0.091548264
23	0xbd797fa4	-0.060912743
24	0x3dc42c8d	0.0957881
25	0xbc2fec20	-0.010737449
26	0xbd350426	-0.04419341
27	0xbd8ac1e8	-0.06775266
28	0x3ba8a78e	0.005146927
29	0xbe01008f	-0.1259787
30	0xbd089a5e	-0.03335034
31	0xbe02cec2	-0.12774184
32	0xbdd32c77	-0.10311215
33	0x3d933bc7	0.07189136
34	0x3de32d45	0.11092619
35	0x3e110e25	0.14165552
36	0xbc832cf0	-0.016012639
37	0xbdc46a96	-0.09590642
38	0x3d8e323d	0.06943176
39	0x3cace0a1	0.021103205
40	0x3e04fdf6	0.12987503
41	0xbd03d39e	-0.032184236
42	0xbd985c71	-0.07439507
43	0xbd86c216	-0.06579988
44	0x3e08de46	0.1336604
45	0x3d09db3e	0.03365635
46	0xbd3af3b8	-0.045642585
47	0xbd382622	-0.04495824
48	0x3dd0bee9	0.10192663
49	0xbdb2a470	-0.0872277
50	0xbdbabbdf	-0.09117865
51	0xbda9a393	-0.082831524
52	0xbd6b911d	-0.057511438
53	0xbdef678e	-0.11689673
54	0xbe0cffb7	-0.13769422
55	0x3d24da67	0.040247347
56	0xbe060f27	-0.13091718
57	0xbdb9da89	-0.090748854
58	0x3d69e354	0.057101563
59	0xbc9ca134	-0.019119836
60	0xbd95c4ad	-0.073129036
61	0x3d6d0bc0	0.057872534
62	0xbdef5d08	-0.11687666
63	0x3d9d8771	0.07691849
64	0x3aea891c	0.0017893645
65	0xbd594a04	-0.053049102
66	0xbd35842e	-0.04431551
67	0xbd4bb814	-0.049736097
68	0xbe199f6e	-0.15002224
69	0xbd9067dc	-0.070510596
70	0xbdb5545d	-0.08853982
71	0xbd0b8184	-0.034059063
72	0xbde23e71	-0.11047066
73	0xbe143c2d	-0.1447608
74	0x3d022afc	0.031779274
75	0xbd9d26c6	-0.07673411
76	0x3d8627ba	0.06550546
77	0x3dcc94a6	0.0998929
78	0xbc4700fb	-0.01214623
79	0xbdc4c6f4	-0.0960826
80	0xbd0e0eea	-0.034682192
81	0x3de03bb7	0.1094889
82	0xbdd81173	-0.10550203
83	0x3db6433f	0.08899545
84	0xbd0a4df5	-0.033765752
85	0xbc6dd5c1	-0.014516295
86	0x3aa20494	0.0012360984
87	0x3b1d7c97	0.002403056
88	0xbe00163e	-0.12508485
89	0xbdd12eb8	-0.10213989
90	0x3cfb348a	0.030664701
91	0x3cb50c8d	0.022100711
92	0x3d91906e	0.07107626
93	0xbda61f09	-0.08111388
94	0xbd3d0865	-0.046150584
95	0x3dbe9c62	0.093071714
96	0xbd48358b	-0.048879188
97	0x3df5e1b8	0.12005943
98	0x3d849f61	0.064757116
99	0xbd622b0b	-0.05521683
100	0x3db2476e	0.087050304
101	0x3d52deaf	0.0514819
102	0x3df077b9	0.11741585
103	0x3d369801	0.044578556
104	0x3ca4ac27	0.02010162
105	0x3df78330	0.12085569
106	0x3b5cd552	0.0033696485
107	0x3e08732c	0.13325185
108	0x3d3c2e3a	0.045942523
109	0x3d87308b	0.06601056
110	0x3dc06711	0.09394658
111	0x3d40f1fb	0.04710577
112	0x3d51bc36	0.051204883
113	0xbd874d67	-0.0660656
114	0x3ce14770	0.027499884
115	0x3daeb285	0.08530144
116	0x3db9df2e	0.09075771
117	0x3d142d0f	0.036175784
118	0x3d152044	0.036407724
119	0x3dbc60f9	0.091981836
120	0xbcec429b	-0.028840354
121	0xbd9a4bdd	-0.07534001
122	0xbd03a38b	-0.03213839
123	0x3e04c7a9	0.1296679
124	0x3e0f9a9f	0.14023827
125	0xbe0bd1e8	-0.13654292
126	0xbd16cfba	-0.036819197
127	0x3ddc180d	0.10746775
128	0x3d838ed6	0.06423728
129	0xbc962348	-0.01832737
130	0x3d073ca9	0.033016834
131	0x3d7352ee	0.05940526
132	0x3d3838a9	0.04497591
133	0xbe0d727d	-0.13813205
134	0x3e0e0e8e	0.1387274
135	0xbdcd6368	-0.10028726
136	0xbe04b9fa	-0.1296157
137	0x3da5fc1d	0.081047274
138	0xbdead27e	-0.114659294
139	0x3d1df9ab	0.03856818
140	0xbc04f520	-0.008115083
141	0x3d092bcf	0.033489045
142	0xbdce13db	-0.10062381
143	0x3d11a9d9	0.03556237
144	0xbe080e53	-0.13286714
145	0x3e03c07c	0.12866396
146	0x3dc565de	0.0963857
147	0x3da0eaf5	0.078573145
148	0x3b2e91a9	0.0026637113
149	0x3de3d148	0.111239016
150	0x3cf7a3f3	0.030229544
151	0xbd8c6449	-0.068550654
152	0xbd6c9f2c	-0.057768986
153	0x3cbcf44a	0.023065705
154	0x3db42ab9	0.08797211
155	0x3d3a8f79	0.045546982
156	0x3d82a7aa	0.06379636
157	0x3d42b805	0.047538776
158	0xbd889412	-0.06668867
159	0xbd731d82	-0.059354313
160	0x3d888ec6	0.06667857
161	0xbdef0634	-0.11671105
162	0xbe0a53fb	-0.13508599
163	0xbd0e2fc3	-0.034713518
164	0xbd8570c9	-0.06515653
165	0xbdd1ce06	-0.10244374
166	0xbdac08fb	-0.084001504
167	0xbddae9d9	-0.10689134
168	0xbdc12170	-0.09430206
169	0x3d38edd8	0.0451487
170	0xbd9b6459	-0.07587499
171	0xbdfe7a3b	-0.12425657
172	0xbdc98ff4	-0.0984191
173	0xbd8fba82	-0.070179954
174	0xbbc3dfd0	-0.0059776083
175	0xbc91b653	-0.017787134
176	0x3d0ba19e	0.034089677
177	0x3ca89a0d	0.02058127
178	0x3d8d64c2	0.06903984
179	0xbe0aa738	-0.13540351
180	0xbca1c328	-0.019746378
181	0x3dc9df1c	0.09857008
182	0x3ce8e393	0.028428828
183	0x3d83c328	0.064337075
184	0x3e10eece	0.14153597
185	0x3ded1b95	0.115775265
186	0x3e055631	0.1302116
187	0x3dff9451	0.12479461
188	0x3d8c8ae1	0.068624265
189	0x3d362448	0.044468194
190	0xbd81a9e5	-0.06331233
191	0xbc8ff6af	-0.017573683
192	0xbbe7582b	-0.007060071
193	0xbdbef788	-0.093245566
194	0x3e035d98	0.12828672
195	0xbc30e75d	-0.010797349
196	0xbdbbf11d	-0.09176848
197	0x3d3dd1bd	0.0463426
198	0xbdad789d	-0.08470271
199	0xbd9ebb44	-0.07750562
200	0x3e014ab9	0.1262616
201	0x3dcb968b	0.09940823
202	0xbdca2920	-0.09871125
203	0xbd73bd85	-0.05950691
204	0xbe07446c	-0.13209695
205	0xbd4dcc80	-0.050243855
206	0x3de09e19	0.10967655
207	0xbd16287f	-0.036659714
208	0x3ce0513b	0.027382484
209	0x3de856cb	0.113446794
210	0xbddf23c5	-0.10895494
211	0x3da937ce	0.08262597
212	0xbc8da480	-0.017290354
213	0x3d61831b	0.055056673
214	0x3d66c498	0.05633983
215	0xbd3718b6	-0.0447013
216	0x3e041d78	0.12901866
217	0x3df061d4	0.11737409
218	0xbc8bf180	-0.01708293
219	0x3c0c0f5b	0.008548583
220	0xbd41b2ad	-0.04728954
221	0x3ddc0f89	0.107451506
222	0xbdc978f2	-0.098375216
223	0x3de0a321	0.10968614
224	0x3a3870cb	0.00070358504
225	0xbcf31b29	-0.029676037
226	0x3e11d131	0.14239956
227	0x3df98fa3	0.121856
228	0x3dd9cf06	0.1063519
229	0xbcdb9c43	-0.02680791
230	0x3ddc7577	0.10764592
231	0xbd8a0aaa	-0.06740315
232	0x3abde0ae	0.0014486515
233	0x3dcb575b	0.09928771
234	0x3d9c6da3	0.07638099
235	0xbcbef1e8	-0.02330871
236	0x3d951e92	0.072812214
237	0xbdbdd27f	-0.092686646
238	0xbdfea4bb	-0.124337636
239	0xbdd10de1	-0.10207725
240	0x3dea9cba	0.114556745
241	0xbdad9c83	-0.08477118
242	0x3dc4ffed	0.096191265
243	0xbc9c703a	-0.019096483
244	0x3d8bdeb2	0.06829585
245	0xbc838339	-0.016053783
246	0x3d3aa374	0.045566037
247	0xbe1054c7	-0.1409484
248	0xbc58902b	-0.013217966
249	0x3e02eca1	0.1278558
250	0x3dc3d536	0.09562151
251	0xbc28603c	-0.01027685
252	0xbdf1a380	-0.11798763
253	0x3def3390	0.11679757
254	0x3d3f082c	0.046638653
255	0x3e0cc9ee	0.13748905

discriminator.2.weight f4 [32, 16, 4, 4]
0	0x3ccb818b	0.024842044
1	0x3c08dc2c	0.008353274
2	0x3c8e84b8	0.01739727
3	0x3d0b8b87	0.03406861
4	0xbc69a20b	-0.014259825
5	0xbd532774	-0.051551297
6	0x3d25982e	0.040428333
7	0xbc6e8ae6	-0.014559483
8	0x3cbaed56	0.022818249
9	0x3ca45605	0.020060549
10	0x396b8a39	0.00022462838
11	0x3d61ca18	0.055124372
12	0x3b815e07	0.0039479765
13	0x3cd5521c	0.02604013
14	0xbce81601	-0.028330805
15	0x3d1f9b30	0.038966358
16	0xbcaff0e7	-0.021477176
17	0xbd5ec3c5	-0.05438592
18	0xbd624a64	-0.055246726
19	0xbd399868	-0.04531136
20	0x3b317351	0.002707679
21	0x3c02a5df	0.007974117
22	0xbcbf1c57	-0.023328943
23	0xbc770f5c	-0.015079346
24	0xbd5724dc	-0.052525386
25	0xbd681f7d	-0.056670655
26	0xbd5da57a	-0.05411289
27	0x3d517d5c	0.051144943
28	0xbcecf3c7	-0.028924836
29	0xbd274e2a	-0.040846027
30	0x3bde3cba	0.0067821415
31	0x3ca25edf	0.019820629
32	0xbd6e495e	-0.058175437
33	0x3c9e723e	0.019341584
34	0x3bbc9652	0.0057552243
35	0xbcae50f2	-0.021278832
36	0x3a45fe44	0.0007552842
37	0xbd5c2d76	-0.053754292
38	0x3b97a543	0.004627855
39	0x3d8080c7	0.06274562
40	0x3cce41d6	0.025177877
41	0x3cd1a602	0.025591854
42	0x3cc4a930	0.024006456
43	0xbd2c50d1	-0.04206926
44	0xbd3f7814	-0.046745375
45	0xbd5262a6	-0.05136361
46	0x3d81648e	0.063180074
47	0x3cfaab80	0.030599356
48	0xbd26f87c	-0.040764317
49	0x3d188572	0.03723664
50	0x3d095daa	0.03353659
51	0x3d35dede	0.044401996
52	0x3c33b1a0	0.010967642
53	0x3d263c28	0.040584713
54	0xbd19ca64	-0.03754653
55	0x3d30f6a6	0.043203972
56	0x3cd08de8	0.025458291
57	0xbc6dcb51	-0.014513806
58	0x3d1245cb	0.03571109
59	0xbd4c085e	-0.049812667
60	0x3bf7cde0	0.007562384
61	0x3d1b7d0a	0.037961043
62	0x3d25649c	0.04037915
63	0xbd06c960	-0.03290689
64	0x3c439283	0.011936787
65	0x3d128405	0.035770435
66	0x3bde52ef	0.006784789
67	0x3b1a1681	0.0023511949
68	0xbcff6f13	-0.031180894
69	0x3d07fb30	0.033198535
70	0x3d4b6f74	0.049666837
71	0x3c7c454d	0.015397382
72	0xbd42db03	-0.047572147
73	0x3c2b579c	0.010457899
74	0xbc7c80eb	-0.015411596
75	0xbc338b9b	-0.0109585775
76	0x3d42fcd6	0.047604404
77	0xbb028465	-0.001991534
78	0xbc6e373f	-0.014539539
79	0x3d38a6b4	0.045080855
80	0x3d7097c8	0.0587385
81	0xbcc1752f	-0.023615448
82	0xbc88b9ae	-0.016690101
83	0x3d0bfd44	0.03417708
84	0x3d3c23b1	0.045932475
85	0xbd6ed685	-0.05831005
86	0xbca94d30	-0.020666689
87	0xba948d18	-0.0011333553
88	0xbd0b1efa	-0.03396509
89	0x3c2825d2	0.010262923
90	0xbca4b1ac	-0.020104252
91	0x3baa93b7	0.0052055973
92	0x3d6772fd	0.056506146
93	0x3cd08b9e	0.0254572
94	0x3cbc99f4	0.02302263
95	0xbd697497	-0.056995954
96	0xbcd3853f	-0.025820373
97	0xbaf0a174	-0.0018358664
98	0x3cdf4764	0.027255721
99	0x3cb1115c	0.021614723
100	0xbcd49c5a	-0.02595346
101	0x3d422ec9	0.0474079
102	0xbc3abb29	-0.0113971615
103	0xbd67457a	-0.056462742
104	0xbc86a5d8	-0.016436502
105	0xbd019964	-0.031640425
106	0x3cbda5eb	0.023150405
107	0x3d3bfedc	0.04589735
108	0xbc680f21	-0.014163763
109	0x3c53ef70	0.012935504
110	0x3d7dd609	0.061971698
111	0x3c817a13	0.01580528
112	0x3cb09490	0.021555215
113	0xbd2b1374	-0.0417666
114	0xbc82bb25	-0.015958378
115	0xbc6ce659	-0.014459216
116	0xbc664ee2	-0.014056893
117	0xbd3d68ba	-0.046242453
118	0xbd35f428	-0.0444223
119	0x3d46ae4a	0.04850606
120	0x3b5061fa	0.003179668
121	0x3c1e1b1b	0.009650017
122	0xbd04b0da	-0.03239522
123	0xbd3ad7d0	-0.04561597
124	0xbb8aa440	-0.004231006
125	0xbd646499	-0.05576
126	0x3cb6b615	0.02230362
127	0x3d67607e	0.056488506
128	0xbd330145	-0.043702383
129	0xbd3a1d8a	-0.045438327
130	0x3bb8a463	0.005634831
131	0x3ca86d36	0.020559888
132	0x3ba3ee3d	0.0050027655
133	0xbd216caf	-0.03941029
134	0x3d0f1f26	0.034941815
135	0x3d09b83e	0.033622973
136	0x3cf98272	0.030457709
137	0x3d0a6148	0.03378418
138	0x3d21f1c0	0.03953719
139	0x3d78727d	0.06065606
140	0xbd3aad0e	-0.045575194
141	0x3d67357e	0.0564475
142	0xbd033f20	-0.032042623
143	0xbc956f92	-0.018241677
144	0xbd04c8ee	-0.032418184
145	0x3b3a1e84	0.0028399536
146	0x3d192667	0.03739014
147	0xbd2fda03	-0.04293252
148	0xbd1babd8	-0.03800568
149	0xbcb94d3a	-0.022619832
150	0xbcdb3079	-0.026756512
151	0x3d69b710	0.057059348
152	0x3d4f0115	0.05053814
153	0x3d4306a2	0.047613747
154	0xbcad75fd	-0.021174425
155	0x3d5815b7	0.052755084
156	0xbd1ffd47	-0.039059903
157	0xbd458b66	-0.048228644
158	0x3c72dedc	0.014823642
159	0xbcd99470	-0.026560038
160	0xbd063f6e	-0.032775335
161	0xbd8f8f5a	-0.07009764
162	0xbcda6df2	-0.026663754
163	0xbca3ec13	-0.02001003
164	0x3d45915d	0.048234332
165	0x3c0f314c	0.008739781
166	0xbc3e8b23	-0.0116298525
167	0xbd3bd883	-0.04586078
168	0xbc3fa981	-0.011698128
169	0xbd06d50d	-0.032918025
170	0x3c3eb7c7	0.011640496
171	0xbc99ce15	-0.018775025
172	0xbd3e28ac	-0.046425506
173	0x3d0f89da	0.035043575
174	0x3c8f14cb	0.01746597
175	0xbc8b0e5d	-0.016974622
176	0x3d454aa8	0.0481669
177	0xbcc1aa53	-0.023640787
178	0xbd41cf31	-0.047316734
179	0xbcfdb051	-0.030967863
180	0xbd41ef16	-0.04734715
181	0xbd868a42	-0.06569339
182	0xbcd91a55	-0.026501814
183	0x3d3b858b	0.045781653
184	0x3b4293bb	0.0029690105
185	0x3c693f0c	0.014236223
186	0x3ccf3eb1	0.025298448
187	0xbd66d442	-0.05635477
188	0xbc4be13c	-0.012443837
189	0x3c790766	0.015199518
190	0x3d203e20	0.039121747
191	0xbd7a62f6	-0.061129533
192	0xbba15df3	-0.0049245297
193	0x3d2002e9	0.039065275
194	0x3d75cfac	0.060012504
195	0xbc6fb24f	-0.014629914
196	0x3d3637ac	0.044486687
197	0xbc5bb5e2	-0.013410063
198	0xbd778465	-0.060428996
199	0x3bc35aa3	0.0059617325
200	0xbcccf213	-0.025017774
201	0x3c428ff2	0.01187514
202	0x3c2f3344	0.010693375
203	0x3d2da132	0.042390056
204	0xbcd996bf	-0.02656114
205	0xbd63be26	-0.05560126
206	0x3c19d5df	0.00938937
207	0x3cb66f29	0.022269802
208	0xbccbe943	-0.024891501
209	0xbd4652d0	-0.04841882
210	0xbd24cf9a	-0.040237047
211	0xbd54f056	-0.051987015
212	0xbcef9ebd	-0.029250497
213	0x3d245bda	0.04012666
214	0xbc20d235	-0.009815742
215	0xbcc7ea8e	-0.024403837
216	0x3cb54c3f	0.022131084
217	0x3cce452f	0.025179474
218	0x3d53e7e3	0.051734816
219	0x39fffa00	0.00048823655
220	0xbd5e1237	-0.05421659
221	0x3d6663c0	0.056247473
222	0x3d21dd37	0.039517608
223	0xbd086da1	-0.033307675
224	0xbd2770d0	-0.04087907
225	0xbd15a21c	-0.036531553
226	0x3c952276	0.018204909
227	0x3acd0963	0.0015643056
228	0xbb73bc34	-0.0037191035
229	0x3b964930	0.0045863613
230	0xbc0fea65	-0.008783911
231	0xbd605503	-0.054768573
232	0xbd65fae3	-0.056147467
233	0x3ccfc876	0.025364142
234	0xbd315570	-0.04329437
235	0xbd67a1a5	-0.05655064
236	0xbd21ff19	-0.03954992
237	0xbc21671c	-0.009851243
238	0x3c2ed442	0.010670723
239	0x3d741cd4	0.059597805
240	0xbd5118c7	-0.05104902
241	0xbcc4d1c7	-0.02402581
242	0xbc4be218	-0.012444042
243	0xbd5fff6d	-0.054686952
244	0xbd6dc95f	-0.05805337
245	0xbc2b9b4f	-0.01047404
246	0x3cbc77dd	0.023006374
247	0x3ce05fd1	0.027389439
248	0xbd00476d	-0.031318117
249	0x3b7b3fbb	0.0038337547
250	0x3d6aa110	0.057282507
251	0x3c76a4ce	0.015053941
252	0x3c67c6e8	0.014146544
253	0x3d65132c	0.055926487
254	0xbd366600	-0.04453087
255	0x3d5a4a86	0.053293727

discriminator.4.weight f4 [64, 32, 4, 4]
0	0x3b91071e	0.0044258973
1	0x3c17d618	0.0092673525
2	0xbd170368	-0.036868483
3	0xbcbbb4aa	-0.022913296
4	0x3c94d680	0.018168688
5	0xbc8da521	-0.017290654
6	0xbceb0abe	-0.028691646
7	0x3c6563e5	0.0140008675
8	0x3cc47345	0.023980746
9	0x3d078508	0.033085853
10	0xbcad8846	-0.021183144
11	0xbc12eaff	-0.00896716
12	0xbcb38b6a	-0.021917064
13	0x3ce9d054	0.028541721
14	0x3cd9d630	0.02659139
15	0x3c9554b6	0.01822887
16	0xbcc950e8	-0.024574712
17	0x3c87eb2a	0.016591627
18	0xbbf2f796	-0.0074147684
19	0xbcf7d499	-0.030252742
20	0xbd219e54	-0.039457634
21	0x3b6a85d1	0.0035785327
22	0xbbfd306a	-0.0077267187
23	0xbcef2c61	-0.029195966
24	0xbc975e9b	-0.018477729
25	0x3ce29174	0.027657248
26	0xbc297bd5	-0.010344465
27	0x3caf05ee	0.021365132
28	0x3b7a4fe7	0.0038194598
29	0x3c820e87	0.015876068
30	0xbbb3bdab	-0.0054852567
31	0x3d155cd8	0.036465496
32	0xbd28d5c7	-0.0412195
33	0xbce2ec5e	-0.0277006
34	0xbcf855d1	-0.030314358
35	0x3ae6e319	0.0017615288
36	0x3b359436	0.0027706749
37	0xbd0ee06c	-0.034881994
38	0xbd17eb62	-0.037089713
39	0xbd1638ae	-0.036675148
40	0xba3c9b93	-0.0007194813
41	0x3cb1c698	0.021701142
42	0xbb3009ec	-0.0026861383
43	0xbcabfbe8	-0.020994142
44	0x3c82f633	0.015986538
45	0x3d0600d5	0.032715637
46	0xbabe10a2	-0.0014500807
47	0x3d096f52	0.03355343
48	0x3b453859	0.00300934
49	0x3c169f33	0.0091932295
50	0xbb291b1a	-0.0025803507
51	0x3d13661f	0.035986062
52	0x3b71f9d0	0.0036922581
53	0xbd1ada1b	-0.037805658
54	0x3d2fad4c	0.04288988
55	0x3d0d62b7	0.03451797
56	0xbcf222ce	-0.029557612
57	0x3cb69b51	0.022290858
58	0xba9d4c5c	-0.0012000906
59	0xbd0282c3	-0.031862985
60	0xbc3038f5	-0.010755767
61	0xbcb55bd5	-0.022138515
62	0x3c8f1268	0.017464831
63	0x3be626a2	0.0070236484
64	0x3d133525	0.035939354
65	0xbbac8026	-0.0052643
66	0x3d0894be	0.033344977
67	0x3bee0985	0.0072643184
68	0x3d37b118	0.044846624
69	0x3c2e9f82	0.010658147
70	0x3b859901	0.0040770774
71	0x3d2db836	0.042412005
72	0x3d159280	0.036516666
73	0xbc512d68	-0.012767173
74	0xbcbcb6dd	-0.023036415
75	0x3cb4990a	0.022045631
76	0x3c733f1a	0.014846588
77	0xbd25514d	-0.040360738
78	0x3a869d17	0.0010270205
79	0x3c19947a	0.0093737785
80	0xbc9e00f0	-0.019287556
81	0x3c852e38	0.01625739
82	0x3d0720c6	0.03299024
83	0xbd19a9e2	-0.03751553
84	0xbb49c85f	-0.0030789596
85	0x3cab7459	0.020929502
86	0x3cf1fde4	0.02954001
87	0x3cbde280	0.023179293
88	0x3d294f60	0.041335464
89	0xbc2d8844	-0.01059157
90	0xbc441fc7	-0.011970467
91	0x3cd9063d	0.026492232
92	0x3bc08bb3	0.0058760284
93	0x3ce831cf	0.028344063
94	0x3cb06aca	0.021535296
95	0xbcb1db07	-0.021710886
96	0x3beaa73d	0.0071610496
97	0xba28bcc9	-0.00064368226
98	0xbd10cc20	-0.03535092
99	0xbcd201bb	-0.02563559
100	0xbc15616a	-0.009117464
101	0xbd1eda23	-0.03878225
102	0x3b7b1585	0.0038312387
103	0xbc83ee69	-0.016104894
104	0x3c2dc778	0.010606639
105	0x3c48e6a7	0.012262023
106	0xbbc41a06	-0.0059845475
107	0xbb84f35b	-0.0040573305
108	0x3cdf3962	0.027249042
109	0x3d079bce	0.03310757
110	0x3c76ff5e	0.015075533
111	0x3c98443a	0.01858722
112	0x3aefcb0e	0.0018294768
113	0xbc21d735	-0.0098779695
114	0x3a0dce2d	0.0005409446
115	0x3d26b16c	0.040696546
116	0x3ca7afd0	0.020469576
117	0x3d2144eb	0.039372366
118	0xbc53398d	-0.012892139
119	0x3c83f5ff	0.016108511
120	0x3d383bb5	0.044978816
121	0x3c2dff3f	0.010619937
122	0xbbf07827	-0.007338542
123	0x3d1215d3	0.035665344
124	0x3d40545b	0.046955448
125	0xbc1d3d4c	-0.009597134
126	0x3ce72cb0	0.02821955
127	0x3d384aac	0.044993088
128	0x3d17d71a	0.03707037
129	0xbc6b33ba	-0.014355594
130	0x3c5eabc4	0.013590757
131	0xbb9c9bb2	-0.0047793025
132	0x3d37aabb	0.044840556
133	0xbd15a2cf	-0.03653222
134	0xbc911f8c	-0.017715238
135	0xbbb8ec1e	-0.0056433817
136	0x3d04e367	0.03244343
137	0x3cc5afc3	0.024131661
138	0x3c9f6ca5	0.019460985
139	0x3d08423b	0.033266287
140	0xbc8920b3	-0.016739225
141	0xbc2fd880	-0.01073277
142	0x3d0817fe	0.033226006
143	0xbc960f89	-0.018317955
144	0xbb81d7d9	-0.0039624986
145	0x3c4c9fbd	0.012489256
146	0x3d027779	0.03185222
147	0xbbfc7ec8	-0.007705543
148	0xbd093a28	-0.033502728
149	0xbd05c0a4	-0.03265442
150	0x3d087468	0.03331414
151	0xbb53c8f5	-0.0032315825
152	0xbc930128	-0.017944887
153	0x3d1bfa5e	0.038080566
154	0x3cf032ed	0.029321158
155	0xbb5e4d95	-0.0033920754
156	0x3c0e527b	0.008686657
157	0x3ccb1eac	0.024794899
158	0xbbc25669	-0.005930711
159	0xbd04862f	-0.03235453
160	0xbd057512	-0.03258235
161	0xbce08ccb	-0.027410885
162	0x3c84b9f6	0.016201954
163	0x3d3ef964	0.046624556
164	0xbaaf50d6	-0.0013375531
165	0xb9741496	-0.00023277322
166	0x3d190ac6	0.03736379
167	0x3c18f662	0.009336086
168	0x3d42db0a	0.047572173
169	0xbcf249a5	-0.029576132
170	0x3cdc8ce9	0.02692266
171	0xbc289974	-0.010290492
172	0xbc93cdaa	-0.018042404
173	0xbd07f113	-0.03318889
174	0x3c503ef1	0.012710319
175	0x3ba61680	0.0050686
176	0xbc755505	-0.0149738835
177	0x3d0f22a9	0.034945164
178	0xbd052ea4	-0.032515183
179	0x3cc6ed91	0.024283202
180	0x3cde96e1	0.027171554
181	0xba2a4ddf	-0.0006496589
182	0x3cee1ed9	0.029067444
183	0x3ca45911	0.020062001
184	0x3c4996d7	0.012304029
185	0xbd272c29	-0.0408136
186	0x3bf29dcf	0.007404066
187	0x3cda2ddb	0.026633194
188	0x3cbe4ead	0.023230875
189	0xbd194f94	-0.037429407
190	0xbcf1524f	-0.029458193
191	0x3cb3dc05	0.0219555
192	0x3cfece6b	0.031104287
193	0xbc2c2645	-0.010507171
194	0xbb835cee	-0.004008881
195	0x3b059bae	0.0020386982
196	0xbd1e06ee	-0.038580827
197	0x3c1dbb57	0.009627185
198	0x3b39c8c8	0.0028348435
199	0xbca024f1	-0.019548865
200	0x38eb0f54	0.00011208528
201	0xbd05e459	-0.032688472
202	0x3c5a2ff9	0.013317102
203	0xbcce4774	-0.025180556
204	0xbcfd7e54	-0.030944027
205	0xbb760c09	-0.0037543795
206	0xbd0ea73d	-0.03482746
207	0x3b99e141	0.004696042
208	0xbcd04cc4	-0.02542723
209	0x3b00e69e	0.0019668709
210	0xbd1c4e36	-0.038160525
211	0x3c9f1358	0.019418404
212	0xbb0818f5	-0.0020766829
213	0x3cf4c1c2	0.029877547
214	0xbcb9e669	-0.022692876
215	0xba95833a	-0.0011406906
216	0x3d24beba	0.040220954
217	0x3d1e4ab2	0.038645454
218	0xbcbed5f5	-0.023295382
219	0x3c2e8c41	0.010653556
220	0x3a60c993	0.0008574959
221	0xbd1ca86e	-0.038246565
222	0x3c488b98	0.012240313
223	0x3c3625bd	0.011117396
224	0xbb7e9c55	-0.0038850505
225	0x3bd0c540	0.0063711703
226	0xbd151fcc	-0.036407277
227	0x3c792450	0.0152064115
228	0x3d1e3fef	0.03863519
229	0xbc395aea	-0.0113131795
230	0xbcce92af	-0.025216429
231	0x3c67bc7f	0.014144062
232	0xbc1875ca	-0.009305427
233	0x3c74794e	0.014921499
234	0xbd2edcf6	-0.042691194
235	0xbd08f528	-0.033436924
236	0x3c5d038d	0.013489616
237	0x3d1f2aa7	0.038859036
238	0xbbfa92fd	-0.007646917
239	0xbc7067e0	-0.014673203
240	0x3be4ed41	0.0069862907
241	0x3aef809e	0.0018272584
242	0x395f4000	0.00021290779
243	0xbc909e63	-0.01765365
244	0x3c952ac4	0.018208869
245	0x3d1c4cd3	0.038159203
246	0x3ce4f548	0.02794899
247	0x3c000cfc	0.007815596
248	0x3ac83086	0.001527325
249	0xbd1cb988	-0.038262874
250	0xbd157da5	-0.036496777
251	0xbc51993c	-0.012792882
252	0xbd178fb0	-0.037002265
253	0x3cbf6fcf	0.023368744
254	0xbd08e79a	-0.033423997
255	0xbc419854	-0.011816103

discriminator.6.weight f4 [128, 64, 4, 4]
0	0xbc9754ce	-0.018473055
1	0xbb4b6e61	-0.0031041133
2	0x3d02d38c	0.031940028
3	0x3be88382	0.007095755
4	0x3cc24761	0.023715677
5	0xbb2cd0a1	-0.002636947
6	0x3ce65d81	0.028120758
7	0xbc85a4dc	-0.016313963
8	0xbc94b29c	-0.018151574
9	0x3cc0bb4d	0.023526812
10	0x3c4b1d34	0.012397099
11	0x3c817400	0.015802383
12	0x3cb6de3f	0.022322772
13	0x3ce65c4d	0.028120184
14	0x3c549117	0.012974045
15	0xba88f597	-0.0010449168
16	0xbbc44340	-0.005989462
17	0x3be47220	0.0069716126
18	0x3c399db3	0.011329102
19	0xbc8b2d95	-0.016989509
20	0x3cd78e58	0.026312992
21	0xbc985f74	-0.018600203
22	0xbc54c9cc	-0.012987565
23	0xbcb4d54a	-0.02207436
24	0xbbe8a3cb	-0.007099604
25	0xbcb8621d	-0.022507722
26	0xbb812a28	-0.003941793
27	0xbcb623fb	-0.022233954
28	0x396cf32a	0.000225973
29	0x3c499c29	0.012305298
30	0xbcdf4546	-0.027254712
31	0xbcb63a34	-0.02224455
32	0x3c926f3c	0.017875306
33	0x3cf5f4c4	0.03002394
34	0x3c573dc2	0.013137283
35	0xbc83bd87	-0.016081585
36	0x3cd7ca8b	0.026341697
37	0xbb7e37e7	-0.0038790645
38	0xbc7483ab	-0.01492397
39	0xbbd46683	-0.006481947
40	0x3ce7ae47	0.028281344
41	0x3c9defe0	0.01927942
42	0xbc8ed42f	-0.017435161
43	0x3cdfea12	0.027333293
44	0x3bdc9d02	0.006732584
45	0xbc8b542b	-0.017007908
46	0x3a3af409	0.0007131701
47	0xbc13a6d8	-0.009011947
48	0xbbd92d49	-0.006627713
49	0xbc2a329e	-0.010388045
50	0x3cc78193	0.024353778
51	0x390e0f96	0.00013547982
52	0xbc90bda5	-0.017668555
53	0x3c6323ac	0.013863485
54	0x3c256649	0.010095187
55	0x3c9c1d93	0.01905707
56	0xbcbd58d7	-0.023113651
57	0xbcb89dc5	-0.022536168
58	0xbcb1ba54	-0.021695293
59	0x3bafa23e	0.005359917
60	0x3ca69a43	0.02033723
61	0x3bd14148	0.006385956
62	0xbd015509	-0.031575236
63	0x3ce11e58	0.02748029
64	0x3c076b90	0.008265391
65	0xbc02589c	-0.007955696
66	0xbbe2ce75	-0.0069215843
67	0x3cb3f3fe	0.02196693
68	0xbd0ae43c	-0.033909068
69	0xbd07e616	-0.03317841
70	0x3c4ab1dc	0.012371507
71	0xbba7e65e	-0.0051238975
72	0xbce568d1	-0.028004082
73	0x3ca6ac03	0.020345693
74	0x3bdb2d52	0.006688752
75	0xbcf2cc9e	-0.029638585
76	0xbba8e514	-0.0051542614
77	0x3b7ba7e0	0.0038399622
78	0xbd05bd3c	-0.03265117
79	0x3bfd33b9	0.007727113
80	0xbc818106	-0.015808593
81	0xbc993545	-0.018702159
82	0xba37a3fc	-0.00070053316
83	0x3c921aae	0.017834987
84	0x3c322ee5	0.010875438
85	0xbc434394	-0.011917967
86	0xbc9c78f0	-0.019100636
87	0x3c88e5b9	0.016711103
88	0x3c16cb2d	0.009203714
89	0xbcb7b410	-0.022424728
90	0x3d00db3f	0.03145909
91	0xbcb48f18	-0.022040889
92	0xbc011766	-0.007879114
93	0x3c579b6b	0.013159613
94	0x3cc7a530	0.02437076
95	0xbc727e66	-0.014800644
96	0x3cca1278	0.02466701
97	0x3c8942f7	0.016755564
98	0xbcd0b886	-0.025478613
99	0x3cd1eec8	0.025626555
100	0x3bf266b8	0.007397499
101	0x3ba883aa	0.0051426487
102	0x3cff1cd5	0.031141678
103	0xbbe58f04	-0.007005574
104	0xbb1e25c8	-0.0024131406
105	0x3cb6d990	0.022320539
106	0xbc342e35	-0.010997345
107	0xbcac7d7a	-0.021055926
108	0x3ce46b13	0.027883088
109	0xbc931fef	-0.017959563
110	0x3ce047a8	0.027377918
111	0x3c7a537b	0.015278692
112	0x3ca835b5	0.020533422
113	0xbc346573	-0.0110105155
114	0x3d0b106b	0.033951204
115	0x3bb340d5	0.005470375
116	0x3c2d21ae	0.010567112
117	0xbb9ce34a	-0.004787837
118	0x3cad3b99	0.021146582
119	0x3ca39ba9	0.019971685
120	0x3c93f4f1	0.018061133
121	0xbca2d4c5	-0.019876847
122	0x3ce6d1cd	0.028176213
123	0x3ce92008	0.028457657
124	0x3ba00313	0.004883179
125	0x3b8a94d1	0.004229166
126	0x3ca2d6c6	0.019877803
127	0xbcb32824	-0.021869726
128	0xbcd70ffa	-0.026252735
129	0x3cfb1b4a	0.03065266
130	0xbbb2d287	-0.0054572257
131	0xbaaa484e	-0.0012991519
132	0x3c2f1063	0.010685059
133	0xbc351d38	-0.01105433
134	0x3c0fc620	0.008775264
135	0xbbb4015c	-0.005493326
136	0xbc109f7b	-0.008827086
137	0xbc3cd52a	-0.011525432
138	0x3bda44a1	0.0066610132
139	0x3bc5de9d	0.0060385005
140	0x3bfe05f0	0.0077521726
141	0x3c18cbfa	0.009325976
142	0x3c569526	0.013097083
143	0x37a5a5d3	1.974675e-05
144	0xbccbe6fc	-0.024890415
145	0xbc504130	-0.012710854
146	0xbc297a44	-0.010344092
147	0x3ca83566	0.020533275
148	0x3ce603a5	0.02807791
149	0x3bff9187	0.0077993306
150	0xbcb5802b	-0.022155842
151	0xbc915a58	-0.017743275
152	0x3cb5deb5	0.022200922
153	0x3bc04b18	0.005868327
154	0xbcc87c84	-0.024473436
155	0x3cea3afa	0.028592575
156	0x3ce81f16	0.028335135
157	0xbc8cf969	-0.017208772
158	0x3ad756e0	0.0016429089
159	0xbc7d0837	-0.015443853
160	0xbc6ae7fb	-0.014337535
161	0xbc3bdae2	-0.01146576
162	0x3bbdf8c9	0.00579748
163	0xbc87d20f	-0.016579656
164	0xbc770672	-0.01507722
165	0x3c0d51aa	0.008625427
166	0xbb640edf	-0.0034798903
167	0x3d0b1a7a	0.033960797
168	0x3c946ac4	0.018117316
169	0x3b7823b8	0.0037863087
170	0x3c2406b1	0.010011361
171	0x3c523900	0.012830973
172	0x3cb3982b	0.021923145
173	0x3cbfc3e7	0.023408843
174	0xbcca7a4e	-0.024716523
175	0xbb737d89	-0.0037153682
176	0x3c86b923	0.016445702
177	0x3c615f0c	0.013755571
178	0x3a644e84	0.00087092095
179	0x3b547a8c	0.0032421676
180	0xbc2b775d	-0.01046547
181	0xbca6d9e8	-0.020367578
182	0x3c4e36a9	0.012586274
183	0xbc3e3bbc	-0.0116109215
184	0xbcae420c	-0.021271728
185	0x3cdf9adb	0.02729552
186	0x3b28c02a	0.0025749304
187	0x3cd5d1a5	0.026100943
188	0xbcc10a53	-0.023564493
189	0x3c454a5c	0.012041654
190	0x3c13d883	0.009023788
191	0x3b8ecaf5	0.0043576905
192	0x3cbe1fcb	0.02320852
193	0xbc781379	-0.015141361
194	0x3c84e049	0.016220229
195	0x3c79214b	0.015205692
196	0xbbd66a99	-0.006543469
197	0x3c7fe7d8	0.015619241
198	0xbc9d0235	-0.019166091
199	0x3cf4ea83	0.02989698
200	0x3c6f589a	0.014608527
201	0xbb25b4ff	-0.0025284884
202	0x3c7d13cc	0.0154466145
203	0x3cc4dc04	0.024030693
204	0x3af1ce8f	0.00184484
205	0x3ce8d341	0.028421046
206	0x3af04aa9	0.0018332797
207	0xbcc41cb7	-0.023939474
208	0xbc867317	-0.016412301
209	0x3c9c04d7	0.019045277
210	0xbc2542da	-0.010086739
211	0xbc9d0c31	-0.019170852
212	0xbb8f2c7a	-0.0043693157
213	0x3cbe4a82	0.023228887
214	0xbc420361	-0.011841626
215	0xbb8c9ab2	-0.004290902
216	0xbc051d0f	-0.008124604
217	0x3ccfa2a5	0.02534611
218	0xbc54236f	-0.012947901
219	0x3c61358c	0.013745677
220	0xbcba3ee9	-0.022735076
221	0xbc945907	-0.018108858
222	0xbc867626	-0.01641376
223	0x3cf9e8d1	0.030506523
224	0x3d018a43	0.031625997
225	0x3d03a8ee	0.032143526
226	0x3c680f6f	0.014163836
227	0x3d08ec7a	0.033428647
228	0xbb5aa1bb	-0.003336056
229	0xbb0e3c52	-0.0021703434
230	0xbb860b5b	-0.004090709
231	0x3c9b992d	0.018993938
232	0x3cde3768	0.02712603
233	0xbc034606	-0.0080123
234	0x3c3a629c	0.011376049
235	0x3d0b9325	0.034075875
236	0xbc9f1acd	-0.01942196
237	0x3cb2f259	0.021844076
238	0x3cecb166	0.028893184
239	0xbcea7d14	-0.028624095
240	0x3bf0350f	0.007330544
241	0xbc197a75	-0.009367575
242	0xbbd4ff32	-0.006500148
243	0x39e4b74d	0.0004362412
244	0x3c9a435f	0.018830953
245	0x3d0b1f3b	0.03396533
246	0x3c9e9742	0.019359235
247	0x3cf1652f	0.029467193
248	0xbc024771	-0.007951603
249	0x3cd57d4f	0.026060728
250	0xbc02e19e	-0.007988362
251	0xbc54be78	-0.012984864
252	0x3be5a0ed	0.0070077092
253	0x3c264462	0.01014814
254	0x3a825677	0.0009943981
255	0xbc92d034	-0.017921545

adv_layer.0.weight f4 [1, 32768]
0	0x38f3e5f8	0.00011629978
1	0x3b6efafc	0.0036465516
2	0xbb20d4ad	-0.0024540827
3	0xbb5ae230	-0.0033398978
4	0x3b85e9bd	0.0040867017
5	0x3a03149a	0.0005000323
6	0x3b80a8e8	0.003926385
7	0x39c171c4	0.0003689659
8	0x3b9c1a5a	0.0047638835
9	0x3afa240d	0.001908423
10	0x3bc5dc49	0.006038223
11	0x3ba3e195	0.0050012567
12	0x38c1c458	9.239529e-05
13	0xb957bbeb	-0.00020574003
14	0x3ae0c866	0.0017149567
15	0x3a45091c	0.0007516311
16	0xba3c7948	-0.0007189703
17	0x3b9f3747	0.0048588845
18	0xbb0b6468	-0.0021269564
19	0xb724efaf	-9.830967e-06
20	0x3bae1bb7	0.0053133625
21	0xb94c59a4	-0.0001948835
22	0xbb259d64	-0.0025270814
23	0xbaf6fe0a	-0.001884402
24	0xbb829836	-0.00398543
25	0x3bc785f8	0.0060889684
26	0xbb6340e3	-0.0034676127
27	0x3b955951	0.0045577665
28	0x3b842ee7	0.0040339115
29	0x3b87a4c7	0.004139516
30	0x3b41ea3e	0.0029589082
31	0x3b1f7c76	0.002433566
32	0x3ad5afdf	0.0016303024
33	0xbac8eab2	-0.0015328734
34	0x3b065d51	0.0020502398
35	0x3afbe487	0.0019217887
36	0xbb23b1e7	-0.0024977864
37	0xbae4ae2b	-0.0017446926
38	0x3aec53b0	0.0018030312
39	0xbb9c6cfb	-0.0047737337
40	0x3b5fb682	0.0034135883
41	0xbb82def7	-0.0039938646
42	0xbaf9064a	-0.0018999067
43	0xb98699b8	-0.00025673
44	0xbacdcea2	-0.001570184
45	0x3b55ff19	0.003265327
46	0x3b41f4ed	0.002959545
47	0x3ae4adf5	0.0017446863
48	0x3a438407	0.0007458333
49	0x3ac3feff	0.0014953314
50	0xb9ad5c52	-0.00033065915
51	0xbb89de58	-0.0042074136
52	0x3ac676fb	0.001514166
53	0xba03c850	-0.00050271023
54	0x384eb070	4.9278548e-05
55	0x3b1e7766	0.0024180054
56	0xb8157f64	-3.564301e-05
57	0xbbac470d	-0.0052574934
58	0xbb0ffbac	-0.0021970076
59	0x39e4580d	0.00043553152
60	0x3b861a19	0.0040924666
61	0xbb49aeb0	-0.0030774288
62	0x3abc8285	0.001438216
63	0xbaf9be39	-0.0019053883
64	0x3b61747d	0.0034401708
65	0xb999c6db	-0.00029330593
66	0xbb169e5e	-0.0022982578
67	0x3b4076bc	0.0029367646
68	0xb98eb41e	-0.00027218548
69	0xbb507d62	-0.0031813015
70	0x3a95f811	0.0011441727
71	0xba4e9ccf	-0.00078816427
72	0x3b6e665f	0.0036376936
73	0x39e9c9f4	0.0004459169
74	0xbaf963e3	-0.0019026961
75	0x3a0cd722	0.00053726335
76	0xbb225bf0	-0.0024774037
77	0x39104d58	0.00013761723
78	0x3ab6b271	0.0013938678
79	0x3a883a35	0.0010393324
80	0x3b8638fd	0.004096149
81	0x3b8c5ccd	0.0042835237
82	0x3ad3402e	0.001611715
83	0x3b2b8214	0.0026170062
84	0x3b724e49	0.003697293
85	0x3b79421c	0.003803379
86	0x3b213ee6	0.002460414
87	0x3b6b7290	0.003592644
88	0xb9aebbaf	-0.000333277
89	0xbaab4bae	-0.0013068819
90	0xba5d3401	-0.000843823
91	0xbae11541	-0.0017172472
92	0xbabf50e1	-0.0014596247
93	0xbb58e8e4	-0.0033097798
94	0xba0c2be2	-0.0005347115
95	0x3ad8c5f4	0.0016538487
96	0xb896dbde	-7.193511e-05
97	0x3ae047af	0.0017111207
98	0xbb800991	-0.0039073904
99	0x3b058691	0.0020374397
100	0x3bcc726f	0.0062392275
101	0xbb07bca2	-0.00207118
102	0xbabf32b5	-0.0014587255
103	0x383baa0a	4.4742636e-05
104	0xbad966d1	-0.0016586428
105	0xba3ec7fb	-0.0007277724
106	0x3b8642e0	0.0040973276
107	0xbb1798c0	-0.0023131818
108	0xbb4b3cc4	-0.003101156
109	0x3a878c6d	0.0010341533
110	0x38f40e45	0.000116374846
111	0xbab3ccf1	-0.0013717694
112	0xba87a914	-0.0010350072
113	0xbaa5b3de	-0.0012642106
114	0xbb8619eb	-0.004092445
115	0xbb03fd84	-0.002014012
116	0x3b1e311f	0.0024138165
117	0xbad71193	-0.0016408436
118	0xb8b06711	-8.4115316e-05
119	0xbba10b6d	-0.004914692
120	0x39e7bfe9	0.00044202738
121	0xbae1669b	-0.0017196717
122	0x3b4cf66f	0.0031274816
123	0x3adaeebf	0.0016703232
124	0x3b641912	0.0034804982
125	0x3b9913bd	0.0046715424
126	0xbb670b2f	-0.0035254469
127	0x3b9b477e	0.004738747
128	0x39cbbd4f	0.00038860223
129	0x3aee61f2	0.0018187149
130	0x37a7fb03	2.0024838e-05
131	0x3b4711a4	0.0030375505
132	0x3ba7c6e0	0.0051201433
133	0xbb102b0f	-0.0021998321
134	0x3b34e89d	0.0027604469
135	0x3a17620b	0.00057748024
136	0xbac19941	-0.0014770405
137	0x3ad9cf8b	0.0016617639
138	0xbacd4394	-0.0015660399
139	0xbb97373b	-0.0046147383
140	0x3b2e1b08	0.0026566405
141	0x3b4cc968	0.0031247977
142	0x3b8f16c1	0.004366726
143	0xb9c9fab2	-0.0003852449
144	0xbb2ed01f	-0.0026674343
145	0xb96cb1d7	-0.00022572964
146	0xbaa32291	-0.0012446215
147	0x38d64a49	0.00010218152
148	0x3b63cae5	0.0034758386
149	0xb94c6b0c	-0.00019494834
150	0xbae6dd0b	-0.0017613483
151	0x3b00427a	0.0019570873
152	0x3bf45b88	0.0074572004
153	0x3a9a4d91	0.0011772384
154	0x3b94794c	0.0045310613
155	0xbb89e9f3	-0.004208797
156	0x3b10c4d5	0.0022089977
157	0x3a108fcf	0.0005514593
158	0xbb23235b	-0.00248929
159	0xbb653364	-0.0034973258
160	0x3b7b4a7b	0.0038343954
161	0xb94d3126	-0.00019568633
162	0x393101b4	0.0001688067
163	0x3ad31d02	0.0016106667
164	0x3a97e1b3	0.0011587649
165	0xbade9357	-0.0016981167
166	0x3b802299	0.0039103744
167	0x3b83740a	0.0040116357
168	0x3b934c73	0.0044951974
169	0xbb3607fb	-0.0027775753
170	0x3b4ad9c5	0.0030952555
171	0xbaaa7487	-0.0013004699
172	0x3b561ec1	0.003267214
173	0x3986e77e	0.00025730947
174	0x3b56e812	0.0032792133
175	0xbb6cb1c7	-0.0036116706
176	0x3ad44690	0.0016195346
177	0xbb258e0f	-0.0025261675
178	0xbb1adb40	-0.0023629218
179	0x3b5b19ac	0.003343205
180	0x3b91cb69	0.004449297
181	0xbaf4e216	-0.0018683102
182	0x3b83e318	0.0040248744
183	0x3b93edba	0.004514423
184	0xbacf3fa5	-0.0015811814
185	0xb964b537	-0.00021811282
186	0xb91a2d80	-0.00014703535
187	0xba129eb9	-0.00055931095
188	0xbb2f472f	-0.002674531
189	0x3a78c7dc	0.00094902306
190	0x3b724f8e	0.0036973688
191	0x39446e02	0.00018732998
192	0x3b022316	0.0019857339
193	0x3a9407c5	0.0011293819
194	0x3a633562	0.00086673175
195	0xbb593a2f	-0.0033146252
196	0x3b1bafc5	0.002375589
197	0xbb5ba92f	-0.003351759
198	0x3a954c36	0.001139051
199	0x3b59f831	0.0033259506
200	0x3b33eaec	0.0027453257
201	0xbad81cf5	-0.0016488122
202	0xba875685	-0.0010325467
203	0x38c963e3	9.603032e-05
204	0x3a5785c8	0.0008221534
205	0xb9db8848	-0.00041872473
206	0x3aa3a579	0.0012485228
207	0x3a446d16	0.0007493062
208	0x3b3094bd	0.0026944124
209	0xbb25f01c	-0.0025320118
210	0xba85f9d9	-0.0010221555
211	0x3b681259	0.0035411327
212	0x3a21c927	0.00061716366
213	0x3b94ac5c	0.0045371484
214	0xbb6d06ca	-0.0036167377
215	0xbb7088ab	-0.0036702554
216	0x3aec01cd	0.0018005908
217	0x3ad78136	0.0016441706
218	0xbb4a263a	-0.0030845539
219	0x3b1c891a	0.002388543
220	0x3b41ade1	0.0029553103
221	0x3ac89889	0.0015304248
222	0x3b321fe0	0.0027179644
223	0x3b1c330e	0.0023834142
224	0xbaec9d8c	-0.0018052324
225	0x3a844a21	0.0010092893
226	0xbb33ae27	-0.0027417035
227	0xbb3b8bd5	-0.0028617282
228	0x3b887273	0.004164034
229	0xbb4418c9	-0.0029922
230	0xb99765df	-0.00028876864
231	0x3b5c8890	0.0033650734
232	0x3b7e7ef0	0.0038832985
233	0xb8aa8642	-8.131239e-05
234	0x39cea244	0.0003941228
235	0x39a7b9a0	0.00031991024
236	0x3bca07f8	0.0061655007
237	0x3a29c686	0.00064764207
238	0x380bbbd1	3.33151e-05
239	0xbb009ed0	-0.001962591
240	0x3b1e655a	0.0024169297
241	0x3b6eb64d	0.0036424578
242	0x39d84dc4	0.0004125667
243	0x3aad9479	0.0013243101
244	0x3a587d08	0.0008258377
245	0xbab0a47f	-0.0013476758
246	0x3aea547e	0.0017877964
247	0x3ba8bea6	0.00514968
248	0xbb081ce1	-0.0020769166
249	0x3b0b9169	0.0021296388
250	0xbad7109b	-0.0016408147
251	0x3ac2a73b	0.0014850864
252	0xbaff4300	-0.0019474924
253	0xba993c10	-0.0011690874
254	0xbb4afa68	-0.0030972008
255	0x3b54c2e6	0.0032464801
