model/Discriminator_fps15_1000epoch.pt (torch, 825023 bytes, 5 tensors)

discriminator.0.weight f4 [16, 3, 4, 4]
00000000: 4577 00be b8ae da3d 1872 f6bb 2ab0 5dbd
00000010: b0a1 77bd ba38 b73d fb29 ae3d c4e7 febd
00000020: 77aa c93d a982 c33d 9dda d93d dfb0 a73d
00000030: 6ba6 91bd aae8 e93d 889a 4b3d 5a29 55bd
00000040: c78c d1bd f0e7 abbc c35c 043e 5bc8 0cbd
00000050: 78e5 1e3d a5ad 2dbd 725b b4bd e376 68bd
00000060: 1c8a d13d 17a2 d7bb 9604 2abd 91bb 84bd
00000070: 9499 3b3c 3186 fabd f878 febc 7ee2 ffbd
00000080: 3776 ccbd ade2 963d 0533 e53d 6607 133e
00000090: b525 54bc 74dd c0bd 6eb1 8f3d 63eb b63c
000000a0: c385 073e 6eec ffbc 098b 98bd 2ae3 86bd
000000b0: 9b73 0b3e 4747 0c3d 275e 3dbd 36e1 39bd
000000c0: b2ad e43d c4c6 9fbd 508e a2bd 0788 96bd
000000d0: 1f9d 39bd aeca d5bd a034 00be 5dbe 4c3d
000000e0: 9015 f0bd 9a21 9dbd 0c70 8e3d e138 1abc
000000f0: 728c 6cbd f6f0 943d 7b90 d2bd 5b91 b33d
00000100: 9bb5 1c3c be7f 3fbd 089e 13bd bf4e 35bd
00000110: 0d2a 10be 5e3e 74bd b9cd 9ebd a641 e6bc
00000120: dbb6 cbbd 3648 08be c5c3 293d 0e9d 98bd
00000130: 2bac 9f3d 97a8 e23d 24a2 b6bb dff2 c1bd
00000140: 74ac 42bd d1f8 c63d 0a1f edbd b119 9f3d
00000150: 052e 39bd 421d c9bc a6a2 06bc 6d60 09bc
00000160: 023f 09be 9fcc e2bd 8e1c b33c d811 3f3c
00000170: 8a1f 8d3d 237a abbd 4593 4bbd 9378 b53d
00000180: f21a 43bd 0b21 fa3d db84 883d 719c 5dbd
00000190: 7b3f b43d 3313 593d 52c6 f33d 9b8d 3c3d
000001a0: 734b a73c c949 f93d 2ac0 993b bd39 0a3e
000001b0: d777 3c3d c969 883d c893 c23d 2982 463d
000001c0: 7143 4d3d 58fb 88bd 9d6c db3c fb24 ac3d
000001d0: dfef b63d 9f31 0e3d cc79 103d 2237 ba3d
000001e0: a2c3 fbbc c850 9ebd 6539 09bd 35d7 033e
000001f0: 7b88 0d3e 5d04 0ebe db65 1dbd b72f d93d
00000200: 553d 833d e0b8 97bc 1708 053d 8d2e 713d
00000210: 28ec 353d 3f42 0ebe 41f9 0c3e 10e0 cebd
00000220: 149e 05be 62d7 a33d 4f34 edbd 6487 1b3d
00000230: 1807 11bc f792 053d 432d d0bd c418 0f3d
00000240: 55e6 0bbe 0d86 ff3d b4b4 bd3d 68d2 993d
00000250: 36c7 90ba 8701 dc3d e7d7 da3c d54d 93bd
00000260: fd98 7cbd f989 9c3c 3597 ac3d 3942 2c3d
00000270: 2ddd 743d 6df2 303d d2a4 91bd 78cd 81bd
00000280: 20fe 803d 5f9b f7bd aac7 0ebe 1117 20bd
00000290: f2c3 8cbd cec9 d9bd 8fe1 b3bd 7147 e3bd
000002a0: 7e95 c8bd 4f54 293d 25f8 a2bd 6b4b 03be
000002b0: f2c8 d1bd bba7 98bd 3cc3 2bbc 1b66 b6bc
000002c0: 4b1e fd3c 6553 8c3c 104c 853d 1714 0fbe
000002d0: 25d1 babc 4179 c33d 1edc cc3c e468 773d
000002e0: 3fdd 0d3e 9e04 e73d ed04 023e 74f7 f73d
000002f0: 33c1 853d 9ade 273d 87b6 89bd dc89 b1bc
00000300: 403d d3bb 38cc bebd 04d0 033e d294 22bc
00000310: 82fa b7bd f824 433d 2750 abbd 3069 9dbd
00000320: 0414 043e bc0b cf3d 7e29 c8bd e5b5 72bd
00000330: 777d 04be f055 47bd 7365 e23d 910c 14bd
00000340: 099a ef3c cd19 ed3d baaa d9bd 40e9 ae3d
00000350: eb7c 69bc c7f3 6e3d a01e 733d 6e2f 2dbd
00000360: 6d7a 073e 6e45 f63d 7c8a 73bc 244d 263c
00000370: 7acb 36bd ca36 e03d 4070 c6bd 7f8c e33d
00000380: a009 523b f2a2 dbbc 7e86 153e 1e93 003e
00000390: ec4e e03d 99d8 bebc 593d e43d 9336 83bd
000003a0: 27c3 9d3b 6fc2 d13d 4c80 a23d 0dff a9bc
000003b0: 325e 9a3d 66a8 b9bd 968f fabd 4a96 ccbd
000003c0: 90d0 f03d f301 a9bd 95b9 c23d 3032 a4bc
000003d0: fc7a 933d ec65 57bc 2c88 3a3d 3c45 10be
000003e0: 9bb3 1fbc 7566 063e 09f0 c73d 5b9e 0abc
000003f0: 597d edbd 2aa7 f53d 280b 4c3d a23a 103e
-0.12545498 0.10677856 -0.0075209253 -0.05412308 -0.06045693 0.089463666 0.08504101 -0.124465495
0.09846967 0.09546406 0.106374 0.08188032 -0.0711182 0.1142133 0.04970792 -0.05204139
-0.10231929 -0.02098462 0.12926011 -0.03437076 0.038793057 -0.04240193 -0.08806504 -0.056754004
0.102314204 -0.006580602 -0.04150828 -0.06481088 0.01145019 -0.12232626 -0.031063542 -0.12494372
-0.09983485 0.07367454 0.11191372 0.14358291 -0.012948443 -0.09417239 0.07016264 0.022329038
0.1323462 -0.031240668 -0.07448394 -0.06586297 0.13618319 0.034247663 -0.04623237 -0.045380794
0.11165942 -0.078015834 -0.079373 -0.07350164 -0.045315858 -0.10439049 -0.12520075 0.049986232
-0.11722863 -0.076724246 0.06954965 -0.009412975 -0.057751127 0.07272522 -0.10281464 0.08767959
0.0095647825 -0.046752684 -0.036039382 -0.04426455 -0.14078541 -0.05962979 -0.07754082 -0.028107475
-0.09946986 -0.13308796 0.041446466 -0.07451831 0.0779651 0.11067312 -0.005573528 -0.09470152
-0.047527745 0.09715427 -0.11578186 0.07768572 -0.045209903 -0.024550084 -0.008217489 -0.008384806
-0.13402942 -0.110741846 0.021864202 0.011661969 0.06890781 -0.08372905 -0.049700994 0.08860888
-0.04763312 0.12213334 0.06665965 -0.054104272 0.088011704 0.052996825 0.11903061 0.046033483
0.02042172 0.121722765 0.004692097 0.13498588 0.046012726 0.06660802 0.09500843 0.048463974
0.050113145 -0.06688565 0.02678519 0.08405491 0.089324705 0.03471529 0.035272405 0.09092547
-0.030732933 -0.077302516 -0.033502 0.12875064 0.13821594 -0.13868852 -0.038427215 0.10604804
0.064081825 -0.018520772 0.03247842 0.058882285 0.04441467 -0.13892458 0.13766958 -0.1010133
-0.13048583 0.080000654 -0.11582243 0.037970915 -0.008851789 0.03261086 -0.10164883 0.034935728
-0.13662083 0.1247674 0.09262982 0.07510835 -0.0011045698 0.10742479 0.026714278 -0.0719258
-0.06166934 0.01910876 0.08427278 0.042055342 0.059781242 0.043199945 -0.07111515 -0.06338018
0.062984705 -0.120901816 -0.13943353 -0.039084498 -0.06873311 -0.10634194 -0.08783256 -0.11097611
-0.09794138 0.04134017 -0.07957486 -0.12821738 -0.102434054 -0.07453867 -0.010483559 -0.022265485
0.030898234 0.01712961 0.065086484 -0.13972507 -0.022804806 0.09544612 0.025007304 0.060402766
0.1385393 0.112801775 0.12697192 0.12107745 0.065309905 0.040983774 -0.067242675 -0.021672182
-0.0064465106 -0.093162954 0.1287232 -0.009923177 -0.089833274 0.047642678 -0.08364897 -0.076860785
0.1289826 0.1010966 -0.09773539 -0.0592555 -0.12938486 -0.04866594 0.11054506 -0.036144797
0.029248254 0.11577187 -0.10628267 0.08540583 -0.014250974 0.058337953 0.05935538 -0.04228156
0.13230295 0.120249614 -0.01486456 0.010150228 -0.044627644 0.1094795 -0.09689379 0.11110782
0.0032049194 -0.026811097 0.14602086 0.12556121 0.10952553 -0.023296641 0.11144514 -0.064068936
0.0048145237 0.102421634 0.07934627 -0.0207515 0.075374976 -0.090653226 -0.12234418 -0.09989603
0.1175853 -0.08252325 0.09508053 -0.020043463 0.07201192 -0.013146859 0.04554002 -0.14088911
-0.009747411 0.13125022 0.0976258 -0.008460606 -0.11596174 0.11994775 0.049815327 0.14084867

discriminator.2.weight f4 [32, 16, 4, 4]
00000000: afac b13c 8a46 b43b e9fa 2f3c dad5 f13c
00000010: 8c33 a2bc 6b06 5ebd 0647 1c3d cf45 94bc
00000020: f35c 923c b715 893c 24f5 70bb 63ae 5c3d
00000030: 5bdd 7cb9 5f59 bd3c ebc9 08bd 4f04 0f3d
00000040: 18ae 25bc f9d7 35bd 3b87 3abd 245c 16bd
00000050: 28bf 293c 73f0 713c 85a3 91bc 67db 21bc
00000060: 255d 36bd b293 4ebd a180 4cbd 98bd 5f3d
00000070: 7c37 99bc 91f2 03bd 6941 663c 8169 db3c
00000080: 1079 66bd b716 b53c 65cb 203c a10e 88bc
00000090: 443a 373b af6a 52bd 3726 0c3c c367 8a3d
000000a0: ba02 e33c dab2 eb3c 9b89 e63c ecf3 19bd
000000b0: d74b 35bd a423 45bd a2c5 8a3d 9ac9 103d
000000c0: ca0b 46bd f12b f23c 9bcb d13c 61e1 183d
000000d0: e7e1 6c3b a30e 0a3d 7d83 3bbd 96a0 133d
000000e0: 9d6a 953c 2d80 a9bc 1c22 ea3c 20ca 67bd
000000f0: 5e65 1939 6180 ff3c 1164 083d 6e00 21bd
00000100: 9ac7 2c3c dbbc 103d 783a d93b 16dd 4c3b
00000110: ecb5 06bd 81ac 063d 9078 4b3d fddf 7d3c
00000120: 9f09 48bd 4264 253c c37c 7fbc 22a5 27bc
00000130: e491 3f3d 77f7 2fbb c75f 73bc 0f12 3a3d
00000140: a4cb 763d cfd7 a2bc ea22 4fbc ad13 293d
00000150: a79b 443d 39c3 5cbd cb77 92bc 82d8 833b
00000160: 6c54 03bd 7c05 6f3c c396 85bc 3fcc 253c
00000170: 2d45 723d a57d f53c 74d3 db3c 9a9c 51bd
00000180: bbe9 05bd f867 dcbb b8f7 b23c 5bff 8c3c
00000190: 9753 07bd e7ab 2d3d 9080 87bc 03bc 79bd
000001a0: 7cb1 b0bc 2735 13bd f0cc 913c 00d3 2e3d
000001b0: 3024 98bc 42e8 0d3c c0ad 693d c7a0 3a3c
000001c0: 1423 ed3c a70d 07bd 97ee 80bb 722d b4bb
000001d0: 8b7d d6bb 009c 22bd cf02 14bd 8a5b 723d
000001e0: 9bac 563c ea8e a13c 1910 b9bc 2907 1cbd
000001f0: 4d98 7a3b f0d9 3ebd c25f 073d 33f9 873d
00000200: 4e62 39bd 4160 39bd 7a44 c83b d35a ad3c
00000210: 9eb3 873b 88bf 22bd f401 113d 0606 0d3d
00000220: 1adf f53c 3000 0c3d 5f23 233d 1041 7a3d
00000230: 2dc6 3dbd 0bf2 683d 2769 00bd ba71 92bc
00000240: b40c 01bd b7e0 173c 9d9a 2c3d 2e14 12bd
00000250: 7e78 0fbd 681d 85bc b6d8 afbc 9c5a 823d
00000260: b86a 613d 56e7 623d 7a7f 74bc 1db5 703d
00000270: a8ec 0cbd c6c0 20bd 4de9 af3c b5ae 9cbc
00000280: 9787 adbc 7032 65bd 36cb 5cbc 7af2 e4bb
00000290: 14bd 7d3d 8651 cd3c 3edc dd3a 520d 13bd
000002a0: 29cc fd3a 21a4 a5bc 26f1 dd3c 4199 aeba
000002b0: 24ca 09bd c1c0 463d 3658 003d 2d67 06bb
000002c0: 9f3f 833d 3a72 0ebc 9571 0ebd 00db 99bc
000002d0: fe33 05bd 5a58 50bd 397b 6dbc 2321 6b3d
000002e0: 8164 8f3c 0aad e43c 45bd 1d3d 68ce 36bd
000002f0: 5a2d 223b 0de1 f03c bc58 533d a1aa 46bd
00000300: cb9c 5638 2510 2e3d 928c 893d 326d c5bb
00000310: 42b3 503d fd62 fbbb 72a2 5abd 83f2 843c
00000320: c3da 95bc b603 9d3c 308f a33c a89b 593d
00000330: 5f40 a6bc 4de8 4abd 6c29 973c 7a33 0b3d
00000340: 8d6b 8ebc d292 34bd dfbc 11bd 5e53 3cbd
00000350: 09e6 b7bc 8290 3d3d 38ac 9fbb 48b4 9dbc
00000360: 0fce e53c e906 033d 88c9 713d b6b2 183c
00000370: c6dd 45bd ef02 813d 4e58 3b3d 46ea c7bc
00000380: c5f3 2abd 55be 17bd a450 a13c 5d78 6f3b
00000390: 3a29 3cbb 9ae3 bc3b 3813 febb 5452 5cbd
000003a0: baaa 65bd 94a8 dc3c 8674 27bd 4667 62bd
000003b0: c527 21bd 66a0 12bc 8e48 4a3c 0fa9 7b3d
000003c0: 5854 41bd 60de a4bc 5a06 d0bb 1828 46bd
000003d0: 16fb 5ebd 7ebb e0bb 1a47 e03c c8ad 033d
000003e0: f4a3 e5bc 0667 063c 610c 823d 350f a53c
000003f0: 5b2e 923c 37b8 7a3d ca5e 1ebd e0bb 773d
0.021688787 0.005501573 0.010740974 0.029520918 -0.01979997 -0.05420534 0.03815367 -0.018099694
0.017866587 0.016733987 -0.003676721 0.053877246 -0.00024115054 0.023113905 -0.03339569 0.03491622
-0.010112308 -0.04439542 -0.045539122 -0.036708966 0.010360517 0.0147668 -0.017778168 -0.00987897
-0.044522423 -0.050433822 -0.049927358 0.05462417 -0.018703215 -0.03221375 0.014053681 0.026783707
-0.056267798 0.022105558 0.009814118 -0.016608538 0.0027958313 -0.051371273 0.008554033 0.06758072
0.027711261 0.028771807 0.028141787 -0.037586138 -0.04426178 -0.048129693 0.06775977 0.035348512
-0.048351087 0.029561969 0.025609782 0.037324313 0.003614539 0.033705365 -0.045779694 0.03604182
0.018239314 -0.020691002 0.028580718 -0.056589246 0.00014628979 0.031189146 0.033298556 -0.03930705
0.010545636 0.035336357 0.0066292845 0.0031259707 -0.032888338 0.032879356 0.049675524 0.0154952975
-0.0488373 0.010094704 -0.01559371 -0.010232242 0.04676999 -0.0026850381 -0.014854378 0.04542738
0.0602528 -0.019878296 -0.0126426015 0.04127853 0.048000004 -0.053897116 -0.017879387 0.0040236125
-0.032062933 0.01458871 -0.01630724 0.010119497 0.059148002 0.029967139 0.026834227 -0.051174738
-0.032693606 -0.006726261 0.021846637 0.017211607 -0.0330387 0.042400267 -0.016540796 -0.060970318
-0.021569006 -0.035939362 0.017797917 0.042681694 -0.018571943 0.008661332 0.057050467 0.011390871
0.02894739 -0.032972004 -0.003934692 -0.0054985816 -0.0065457276 -0.039699554 -0.03613549 0.05916933
0.013102676 0.019721467 -0.022590684 -0.038092766 0.003823775 -0.04659456 0.033050306 0.06639328
-0.045259766 -0.04525781 0.0061116787 0.021161472 0.004141285 -0.03973344 0.035402253 0.034429573
0.03001361 0.034179866 0.039828654 0.061097205 -0.046331573 0.056871455 -0.03135028 -0.017876495
-0.031506255 0.009269885 0.04213964 -0.035663776 -0.03502702 -0.016249374 -0.02146564 0.063649386
0.055033416 0.0553964 -0.014922971 0.058766473 -0.03440538 -0.039246343 0.021473551 -0.019126276
-0.021182818 -0.055956304 -0.013476184 -0.0069869133 0.061947897 0.025063287 0.0016926599 -0.035901375
0.0019363213 -0.020219864 0.027092528 -0.001332082 -0.033640042 0.04852367 0.031334125 -0.0020508275
0.06408619 -0.008694226 -0.03477629 -0.018781185 -0.032520287 -0.05086551 -0.014494711 0.05740465
0.017503979 0.027914543 0.03851058 -0.044630438 0.002474627 0.029404188 0.051598296 -0.04850257
5.11676e-05 0.042495865 0.06716265 -0.00602498 0.050952204 -0.0076717124 -0.053377576 0.01622892
-0.01829279 0.019166809 0.019965738 0.05312696 -0.020294366 -0.049537946 0.018452369 0.03398464
-0.017385269 -0.04408533 -0.035580512 -0.045977943 -0.022448556 0.04628039 -0.004872825 -0.019251004
0.028052358 0.031989012 0.059030086 0.009319952 -0.048307203 0.06299388 0.04573851 -0.024403702
-0.041736383 -0.03704675 0.019691773 0.0036540248 -0.0028711096 0.005764437 -0.007753756 -0.05378945
-0.05607102 0.026935853 -0.04088261 -0.05527427 -0.039344568 -0.008949375 0.0123464 0.061440524
-0.047199577 -0.020125568 -0.0063484134 -0.04837808 -0.054438673 -0.0068582883 0.027377654 0.032148153
-0.02803228 0.008203274 0.06350017 0.020148853 0.01784437 0.061210837 -0.038664617 0.060481906

discriminator.4.weight f4 [64, 32, 4, 4]
00000000: 7695 dd3b a582 0d3c c733 16bd 7583 babc
00000010: 234e 7f3c af3d 8dbc 133b f4bc 8b43 893c
00000020: ccd8 d63c 7d8d 013d cee9 acbc 3eb2 17bc
00000030: 4768 acbc 08ae eb3c bc26 ce3c 4f45 a33c
00000040: b5ac bbbc 47bb 913c 81e1 98bb e0d9 f3bc
00000050: 5962 24bd 3368 733b 4e89 e2bb e554 e9bc
00000060: 1ed7 87bc 141a f13c 84b2 04bc 077a b23c
00000070: 272a 8f3b 52d3 883c 84a7 72bb b96c 153d
00000080: 0f54 28bd 7a80 e4bc d171 ebbc 480c 133b
00000090: 83b7 343b 2b3c 0fbd 4800 1abd 7e27 17bd
000000a0: 50ca 1cb9 0397 be3c 7da2 eaba 01c7 a8bc
000000b0: d24b 823c 7543 063d 4808 aeb9 15a1 0a3d
000000c0: 245e 8f3a e707 5c3b c6d7 a5bb e4a3 093d
000000d0: 3f29 86ba f1e0 3fbd 8286 243d 7cb2 ed3c
000000e0: 6d57 09bd fcc6 9d3c 9c4e eaba 6e3e 0dbd
000000f0: f970 6cbc bdb7 d9bc 0e6c 6a3c 5c2c 2439
00000100: 1d80 1d3d a5e3 68bb 3c51 173d 4e97 143c
00000110: 3ced 3e3d b3ad 5c3c ad91 f43b a469 3a3d
00000120: c4a6 233d ec16 3bbc e934 a3bc 7f29 c23c
00000130: 4371 8b3c 891e 1bbd cfb7 583b 7814 433c
00000140: ae48 8bbc 6c1b 9e3c c93a 173d 7b70 13bd
00000150: d58e 11bb 7310 ab3c 82b0 f43c 8b74 c43c
00000160: 2b52 333d c98e fabb 76cc 12bc 6d66 eb3c
00000170: 7406 c53b 5161 f43c 1f48 cd3c c552 a3bc
00000180: 6ff3 083c 4241 1cb9 5a19 14bd e276 cabc
00000190: 967b f4bb bae9 19bd c114 0f3b 78eb 6dbc
000001a0: 0ab8 033c a6a8 393c d7ad c0bb 42e8 f2ba
000001b0: f7ba cd3c 977f 013d 8dc8 7c3c 0d46 a63c
000001c0: 340e 46bb c82f 8dbc 34b2 44ba 1870 0d3d
000001d0: 4d44 893c 857b 123d 9ea1 8dbc f05c 463c
000001e0: 85db 313d 1e03 403b 7a62 48bc b90a d73c
000001f0: 9a5c 313d ed0b 89bc 04c5 b73c f9f9 1a3d
00000200: e9aa 203d 81aa 5dbc 7d67 7a3c b8da 8fbb
00000210: 1ea9 393d 553a 1cbd 9e32 8cbc 4247 c0bb
00000220: 5a54 0a3d 3cbf cb3c 6c4c ac3c 370a 0c3d
00000230: 1424 86bc f363 36bc a91b 0c3d f995 a1bc
00000240: bd80 b6ba 6ed2 6b3c 6fee 0c3d 0a78 c8bb
00000250: 0756 04bd 0c08 ffbc dfb7 133d 3e3c 04bb
00000260: 420a 79bc b0fe 233d 2bcc 013d 8226 13bb
00000270: c188 373c 6464 dd3c 02d2 79bb dc6a febc
00000280: 0b92 0cbd eb66 e0bc 32e5 843c bcbc 3e3d
00000290: bbc4 d5ba f995 93b9 e645 243d 2fba 153c
000002a0: c561 3e3d 15d9 f0bc 0381 d13c d5aa 3abc
000002b0: 0452 90bc 44b2 0abd 818f 633c 586f a13b
000002c0: 8cfa 64bc 95c0 163d 0537 02bd 31e2 cf3c
000002d0: 0ed5 e03c 1c20 4138 0972 f03c 2604 aa3c
000002e0: 2256 5c3c 7f2b 20bd 13ae 023c 5733 e33c
000002f0: 65a9 c73c e039 16bd fad4 ecbc 8f17 b73c
00000300: edb7 0c3d 2ca3 3bbc ed00 0dbb 8ca7 9c3a
00000310: bc36 26bd 64f6 313c 10a7 503b 1341 93bc
00000320: d099 a63b 2fb3 10bd 1a0a 853c 3485 d7bc
00000330: a201 00bd 287c 57bb d7b3 11bd c8ea af3b
00000340: 0bb5 dfbc 94e1 5738 6404 1cbd c516 973c
00000350: f188 7abb ad9a d33c 04bd c2bc a0c5 8ebb
00000360: 39f9 203d 3c6f 183d 7697 c6bc b67c 113c
00000370: 9170 e1b9 00eb 28bd 6d2c 433c 55b3 0e3c
00000380: 17de 19bb 8148 223c 42a5 0cbd ec20 9a3c
00000390: 6a45 2a3d 9711 1abc acdd b8bc ed35 883c
000003a0: 92c2 00bc f7ad 9b3c e6da 27bd 72b3 f1bc
000003b0: 7b3c 7e3c e1a9 273d e352 acbb 2c15 4dbc
000003c0: d2e3 de3b e7e0 4abb 3770 483a 4298 9ebc
000003d0: a6a6 933c 1f23 1c3d 5d50 e83c 4286 023c
000003e0: e998 033a b58b 28bd a188 11bd 75d3 84bc
000003f0: ea84 1bbd 06b2 c13c 12d1 0bbd c67d 58bc
0.006762202 0.008637105 -0.036670472 -0.022767762 0.015582594 -0.017241327 -0.029813325 0.01675584
0.026226424 0.031629074 -0.02110758 -0.009258805 -0.021045817 0.028769508 0.025164954 0.01993051
-0.022909502 0.017789496 -0.004665554 -0.029766977 -0.040132854 0.0037140965 -0.0069133407 -0.028482864
-0.016582068 0.02943138 -0.008099202 0.021786703 0.0043690386 0.016702328 -0.0037026117 0.03648064
-0.04109579 -0.027893294 -0.028740795 0.002243774 0.0027575202 -0.03496949 -0.037597924 -0.036902897
-0.00014952687 0.023265367 -0.0017901208 -0.020602705 0.015905295 0.032779176 -0.00033194036 0.033845026
0.001093809 0.0033574046 -0.0050611226 0.033603564 -0.0010235681 -0.04684538 0.04016734 0.029015772
-0.03353064 0.019259922 -0.0017876211 -0.034483366 -0.014431232 -0.026576871 0.014307989 0.00015656784
0.038452256 -0.0035536077 0.036942706 0.009069277 0.046612963 0.0134691475 0.007463655 0.045510903
0.039953962 -0.011419039 -0.01992269 0.023701428 0.01702178 -0.037870917 0.0033068543 0.011906736
-0.01700243 0.019300185 0.036921296 -0.03599594 -0.0022210379 0.020881867 0.029869322 0.023981353
0.043779533 -0.007646416 -0.00895988 0.028735364 0.006012732 0.02983156 0.025058804 -0.019936929
0.00835882 -0.0001490163 -0.03615699 -0.02471489 -0.0074610217 -0.037576415 0.0021832439 -0.014521472
0.008039484 0.011331713 -0.0058800983 -0.0018532353 0.025113566 0.03161582 0.015428674 0.020297075
-0.0030220868 -0.017234698 -0.0007503361 0.03453073 0.016756201 0.03576233 -0.01728898 0.012107119
0.04342224 0.0029298733 -0.01223051 0.02625023 0.043301202 -0.01672932 0.022432812 0.03783605
0.039225493 -0.013529421 0.015283463 -0.004390087 0.0453273 -0.038141567 -0.01711398 -0.0058678696
0.03377185 0.024871461 0.021032535 0.03418943 -0.016374625 -0.011132228 0.034206066 -0.019724833
-0.0013923865 0.014393432 0.034407075 -0.0061178254 -0.032308605 -0.031131767 0.036064025 -0.0020177509
-0.0152002 0.04003781 0.03168885 -0.0022453372 0.011202038 0.027025409 -0.003811956 -0.031056814
-0.034318965 -0.027392825 0.01622257 0.04656671 -0.0016309241 -0.00028149763 0.040105723 0.009138628
0.04647996 -0.029400388 0.025574213 -0.011393269 -0.017617233 -0.033861414 0.0138891945 0.0049266033
-0.013975751 0.036804754 -0.031790752 0.025376411 0.027445342 4.604469e-05 0.029351251 0.020753931
0.01344827 -0.03910398 0.007976073 0.027734442 0.024372766 -0.036676288 -0.028910149 0.0223501
0.034355093 -0.011452477 -0.0021515444 0.0011951788 -0.040579543 0.010861967 0.0031837858 -0.017975366
0.005084254 -0.035327133 0.016240168 -0.026308633 -0.031251557 -0.00328804 -0.0355719 0.0053685643
-0.027308008 5.147008e-05 -0.038090125 0.018443475 -0.0038228596 0.025830591 -0.02377177 -0.004357055
0.039300177 0.037215456 -0.024242144 0.008879831 -0.00042999213 -0.04123974 0.011912447 0.008709748
-0.0023478323 0.009904982 -0.03433729 0.018814526 0.041570105 -0.009403608 -0.022566639 0.016627276
-0.007858889 0.019003851 -0.040980242 -0.029504512 0.015517349 0.040933494 -0.0052589043 -0.012517255
0.0068020606 -0.0030956806 0.0007646116 -0.019359712 0.0180238 0.03811943 0.028358633 0.00796658
0.0005020039 -0.04114886 -0.03553069 -0.016214112 -0.037968554 0.023644459 -0.03413493 -0.0132135805

discriminator.6.weight f4 [128, 64, 4, 4]
00000000: 1570 b5bc fa21 0ebb 0e9e fa3c dfc4 b93b
00000010: 5cd0 c33c 1570 85bb aa03 fc3c a011 89bc
00000020: 2aec 94bc f27b c53c 73b6 743c 201d 743c
00000030: 5746 b03c 8124 ee3c 99bc 663c 178b e0ba
00000040: 463b e2bb 3105 0c3b 2165 8f3c 9940 71bc
00000050: 14db e53c 9d42 c4bc 4422 70bc 3673 bdbc
00000060: 613a 9aba e594 dabc 5c22 87bb d6e7 c7bc
00000070: 687d deba 1ad1 433c 975d dfbc 1245 ccbc
00000080: b243 6f3c 4a1a 033d 0e6e 793c 8288 a1bc
00000090: 9808 dd3c 7218 a5bb e8ee 73bc eb9e d9bb
000000a0: 1631 da3c d60d 833c 43d0 a6bc 7b10 d73c
000000b0: 1671 603b 2c28 88bc 94de 71bb afe6 10bc
000000c0: 8ad8 84bb 8ef3 34bc 5f90 e13c 812e 603b
000000d0: e580 81bc fcc1 763c 6b18 483c 4972 b63c
000000e0: cf79 a7bc 5266 babc 8978 9cbc 7231 f23b
000000f0: f1a1 b53c 1922 193c 317c f8bc 5726 f03c
00000100: 9191 213c 4f30 babb ba60 8cbb c6ec bc3c
00000110: 5200 febc 2f14 fcbc ae4d 713c caac 84bb
00000120: 79dd d2bc 73c8 bf3c c981 053c badd e5bc
00000130: 7d7c 17bb 4e06 c73b 3f87 fbbc cee2 1d3c
00000140: 9910 ecbb 13a2 33bc e03a 0e3c 19a7 b73c
00000150: c1ef 8f3c e9b7 01bc 64a2 a6bc 60cb aa3c
00000160: 90c5 863c f5dd 80bc 9757 133d 4fca 92bc
00000170: db9b 26bc 6d6e 983c 8488 f73c 1aef 21bc
00000180: 651d b03c dd94 af3c 40c3 c3bc 2d71 f33c
00000190: dd66 5c3b d88f 143c 49f6 f43c 658b b4bb
000001a0: 3a85 6a3b 6227 f63c e661 28bc ae44 6dbc
000001b0: e1d9 ea3c dd24 8abc 35c8 ec3c d337 743c
000001c0: 2bcd 983c b8e0 50bc c042 0a3d 61db 8a3a
000001d0: 4f03 3c3c 651a cab9 ea8a c33c 8868 9a3c
000001e0: c283 8c3c 667e 91bc a2a9 ff3c 3dc3 e33c
000001f0: f30c 8a3b 1e78 083c 9e4f af3c a716 b7bc
00000200: 9a7b cebc dea8 fe3c b780 ddbb c7de 98ba
00000210: b92c 1f3c 5cae 0abc 8dd7 3c3c 69b3 a0bb
00000220: 1c61 10bc d139 30bc c36a ba3b 83b9 b03b
00000230: 1a29 1c3c 59ea 473c 7be9 6f3c dc4d 593a
00000240: 02e0 dfbc e052 61bc 7605 31bc 7f67 c13c
00000250: 33c8 013d 8515 b23b c296 d8bc 2070 afbc
00000260: 92ea d73c 76e2 923b 5294 b1bc 30ed fd3c
00000270: ec58 df3c 2f76 83bc 18d4 6d3a 7524 8bbc
00000280: 7d6b 59bc c37b 6fbc 96bf ec3b da1a e1bc
00000290: 3d6f a5bc 6bbc b53b 21cf 8fbb 0cdd fa3c
000002a0: 891a b63c 1e3c ae3b 30e8 183c a7fd 473c
000002b0: 81a9 ad3c 68dc aa3c 6371 f4bc 8edc d6bb
000002c0: 81bf 043c 57b7 c73b ac0b 95ba 4e40 97bb
000002d0: 3865 64bc ed3d cebc 7a01 643c 0068 2ebc
000002e0: 6488 e8bc e0b8 b33c 34c9 d33a 3ded bc3c
000002f0: 8e91 d2bc 791f 393c dba7 413c 19c0 b53a
00000300: 599a c53c 881d 80bc 5790 723c 6076 573c
00000310: 110f d3bb d3d8 833c 01e8 a3bc a6d4 ff3c
00000320: bc52 6c3c 5867 4cbb 9dfd 873c e25f c13c
00000330: 38f6 823b 08b6 e73c 52ed d83a 10b4 cbbc
00000340: 9337 7abc 6f7a b53c 8b11 31bc ae21 9cbc
00000350: 0bf1 64bb d8d2 eb3c 595d 39bc 238e 88bb
00000360: 6594 f2bb 249a e33c 0629 4bbc 39d2 813c
00000370: 3798 c8bc e109 99bc b432 73bc 13af 043d
00000380: f5ce 083d 8209 043d c8a4 423c 47ca 043d
00000390: 9e09 8cbb 20e6 1fbb f4b8 a2bb cf5d a03c
000003a0: dcfc cc3c c912 e8bb 82e8 3f3c 6cee 053d
000003b0: c702 a0bc 1144 c43c c555 f43c 64cc ddbc
000003c0: 48e3 053c c4be 57bc 596c 3dbc 3785 cc39
000003d0: 2849 aa3c 7ab8 fa3c d503 9a3c 4feb eb3c
000003e0: 87da 06bc 6951 c13c 0ecb 63bc 7e65 8bbc
000003f0: 9222 a43b 767e 803b 3c33 afba 3759 96bc
-0.022148171 -0.0021687732 0.030592944 0.005669221 0.023903064 -0.004072199 0.030763466 -0.016732037
-0.018179018 0.024106953 0.014936077 0.014899522 0.021517916 0.02907014 0.014083051 -0.0017131296
-0.0069040386 0.00213654 0.017504277 -0.014724874 0.028058566 -0.023957545 -0.014656607 -0.023126226
-0.0011766666 -0.026682327 -0.004123969 -0.02440254 -0.001697463 0.011951709 -0.027266307 -0.024935279
0.014603542 0.032007493 0.015223993 -0.019718412 0.026981637 -0.0050383145 -0.014888503 -0.006641259
0.026634734 0.015997808 -0.020362979 0.026252976 0.0034247092 -0.016620718 -0.0036906349 -0.008844062
-0.004054134 -0.011044396 0.027534662 0.0034207406 -0.015808532 0.015060898 0.012212853 0.022271292
-0.020443825 -0.022753868 -0.019100444 0.0073911482 0.022171946 0.009346508 -0.030332657 0.029315157
0.009861366 -0.0056820284 -0.0042839916 0.023062121 -0.031006012 -0.030771343 0.014727993 -0.0040489184
-0.025740372 0.023411011 0.008148619 -0.028059829 -0.0023114972 0.0060737496 -0.030704139 0.009636594
-0.007204127 -0.0109639345 0.008681029 0.022418546 0.017570378 -0.007917383 -0.020341106 0.02084893
0.016451627 -0.015730837 0.035972204 -0.017918734 -0.010168995 0.018607343 0.030216463 -0.009883666
0.021498391 0.021433288 -0.023896813 0.029717052 0.0033630647 0.009067498 0.029902594 -0.005509781
0.0035784976 0.030048076 -0.010277247 -0.014481707 0.028668346 -0.01686328 0.02890406 0.014905888
0.01865252 -0.01274889 0.033755064 0.0010593944 0.011475398 -0.00038548108 0.02386995 0.018848673
0.01715267 -0.017760467 0.031208817 0.027803058 0.0042129694 0.008329419 0.02140027 -0.022349669
-0.025205422 0.031086382 -0.006759729 -0.0011663073 0.009715253 -0.008464422 0.011526001 -0.0049042
-0.008812215 -0.010755972 0.0056889965 0.0053932085 0.009531284 0.012201869 0.014643068 0.0008289495
-0.027328495 -0.013752669 -0.010804525 0.023608921 0.031685065 0.0054346942 -0.026439074 -0.02141577
0.026356969 0.0044825627 -0.02167717 0.030996889 0.027264081 -0.016047565 0.0009072437 -0.016985158
-0.013270256 -0.014616909 0.0072249873 -0.027478624 -0.020194644 0.005546143 -0.0043887054 0.030622981
0.02222945 0.005317225 0.009332702 0.0122064715 0.02119899 0.020857051 -0.029839223 -0.006557054
0.008102299 0.006094854 -0.0011371276 -0.00461582 -0.013940148 -0.025176013 0.013916368 -0.010644913
-0.028385349 0.021938741 0.0016157986 0.023062343 -0.025704172 0.011299008 0.011819805 0.0013866454
0.02412145 -0.015639082 0.014804921 0.013150781 -0.006441005 0.0160946 -0.020008089 0.031229328
0.014424022 -0.0031189527 0.016600424 0.02360529 0.0039966367 0.028285041 0.0016550219 -0.024866134
-0.015272039 0.022153107 -0.010807405 -0.019059028 -0.0034933712 0.028787062 -0.01131376 -0.0041673346
-0.007402944 0.02778346 -0.0123999175 0.015847312 -0.024486644 -0.018681468 -0.014843632 0.032393526
0.033400495 0.03223563 0.011880107 0.03241947 -0.0042736074 -0.002439864 -0.004965896 0.019575981
0.025022916 -0.0070823175 0.011713149 0.03269808 -0.019532574 0.023958238 0.029826054 -0.027075
0.008171864 -0.013168041 -0.011561477 0.00039009165 0.020786837 0.030605543 0.018800655 0.028798727
-0.008230812 0.02359839 -0.0139033925 -0.017016169 0.005009004 0.0039213253 -0.001336671 -0.018353088

adv_layer.0.weight f4 [1, 32768]
00000000: 6e68 0439 2f4e 163b c119 28bb f2f3 5dbb
00000010: 9f1c 8d3b e140 7dbb 3e27 a2ba 88e9 ffba
00000020: 1501 8c3b 3d68 833a 2cf7 d23b 2579 ac3b
00000030: 202e 5dba 6e3d f0ba 9b0b 6f3b f47c 3a3b
00000040: e917 fa39 67dd 9c3b 416b 3cbb 18fb 193b
00000050: bdc0 c63b 0c6a 2bbb 3743 e5ba fa41 9dbb
00000060: 87a5 d1bb 6b2e cc3b 5e75 4abb 8589 d13b
00000070: a281 943b c961 863b f531 803b a73d 533b
00000080: 2a87 803b af15 c4ba b18b ce3a bce7 a13b
00000090: e902 41bb 4333 82b9 eff4 533b 517d c6bb
000000a0: 8e8f 703b c120 51bb 9ae8 20bb 5c55 8dba
000000b0: 2948 95bb 0c5e 883b bd1e 3b3b 6de9 863b
000000c0: c1cd 53b9 84a0 6e3b 4569 3239 18df a5bb
000000d0: cff4 333b bd76 0bbb 508d 363a 8b3b 243b
000000e0: 6c60 003b cfb7 d2bb f88a c4ba 34d6 0c3b
000000f0: 11f2 6f3b 9da9 62bb 92f9 a8b8 aa29 53bb
00000100: 8658 d93b 4cd8 7b3a fe59 8dbb 5d6f 483b
00000110: f21a 5a37 0983 8bbb 6a8d d53a c8ac 2cba
00000120: a493 a43b c4c3 15ba fcaf c2ba b3c7 83ba
00000130: bcc0 0dbb 8c14 eb3a 7806 db3a 0ad0 5a3b
00000140: f4aa e33b 5430 ab3b dd97 163b 3448 833b
00000150: 9596 d13b 1f41 a93b 7250 3b3b 0500 ba3b
00000160: 15dc 393a 4dfd 1abb f703 2bba 8dbe 11bb
00000170: e032 63ba 1833 94bb f894 b83a 4a9d 3a3b
00000180: edc5 7d3b e02a 903b 1dd0 52bb 5082 763b
00000190: 7614 013c e1cf 42bb 0f68 95ba d382 163a
000001a0: b337 65b9 48af 49bb ec80 983b 5bde 57bb
000001b0: 90b5 7bbb b57a 8638 a89e 25bb 64c5 66bb
000001c0: 00d1 5d3b 45f8 4bba bd5f 65bb cbd2 feba
000001d0: bccd 583b 1c48 c6ba b0c8 793a 686b 62bb
000001e0: 201a 113b de52 8cb9 5b34 643b d3b5 443b
000001f0: f681 c43b 3e80 b63b 0694 b4bb f43a 9f3b
00000200: 553d 743b c85a 143b 8b14 513a f8ab b03b
00000210: cac0 d73b 4dbb 02bb 7ef0 4e3b b021 233b
00000220: c5ae cd39 671d 283b a68b 67bb 526e 5cbb
00000230: 0e80 ad3b 8675 a33b 37b7 913b cd94 a4ba
00000240: 04dc e4ba eb3f 1d3a da0c a5ba 14f4 e039
00000250: f4d8 6d3b 362d 9aba 3a7c 82bb 2dec 923b
00000260: da5a 0c3c 994e 343a 9838 af3b 363e 84bb
00000270: 43b8 7a3b 3ef1 623b 5276 88bb 6e5d 46bb
00000280: ebab ff3b 2cdc 0c3a 9623 9e3a ba29 0e3b
00000290: 2f46 6f3a 8ef6 97bb d4a4 a93b 52cb d13b
000002a0: 2dcd 953b 170a 96bb c37e 643a bc30 5dbb
000002b0: 4fba 923b 6e09 7c3a 8b6a b13b 367a 97bb
000002c0: 56a0 c53b e36b 94bb 5108 4cbb 8195 b13b
000002d0: a571 943b 7d51 27bb 82de ab3b 7d2d 713b
000002e0: 52fa bfba 106a 33ba ba9c 9dba 0500 94ba
000002f0: d9fb 8bbb 5ecb 383a c5ec 483b 2c8c be3a
00000300: c765 b13b ed7b 8039 1241 7d3a ac0a 80bb
00000310: 803a 703a 516b 95bb e172 863a db39 633b
00000320: 0636 ae3a e73f 57bb 09ae 76ba 56d0 6d3a
00000330: 8c18 f239 e05e 49bb 648a 94b9 c374 ea3a
00000340: 456a e63b 6bc5 36bb d534 a6ba 5d13 8b3b
00000350: cf59 0e3b 4509 943b e609 22bb fe27 85bb
00000360: 75ac d13a 3601 343b e545 77bb 9c26 303b
00000370: 054b 233b f225 4eb8 ab09 4e3b 3050 b33b
00000380: 01c6 19ba 2dfb 003b 2f03 7cbb 136c a3bb
00000390: 3e66 963b e264 8dbb ef2e efba dbab 723b
000003a0: 2db2 6f3b 403c b13a 9f3d c5b9 3d92 023a
000003b0: 3bf4 ba3b f1e6 7539 2f2c e7ba d8bb 6bbb
000003c0: 5268 1d3b caed 853b b8d8 d2ba bd73 fe3a
000003d0: ee22 77bb 286d 65bb cef2 c839 825f 823b
000003e0: b2ce 92bb 1512 003b 9bb2 cebb 6665 a63a
000003f0: 47f0 bbba 0b37 4cbb 4cde a4bb bcc9 013b
0.00012627404 0.0022934785 -0.0025650116 -0.0033867327 0.0043063904 -0.0038643407 -0.0012371314 -0.0019524554
0.00427259 0.0010025572 0.0064381566 0.005263465 -0.0008437354 -0.0018328854 0.0036475423 0.0028455826
0.0004770153 0.0047871354 -0.0028750452 0.002349561 0.0060654567 -0.0026155738 -0.0017491345 -0.004799125
-0.006397906 0.0062311194 -0.003089271 0.0063945674 0.004532055 0.0041010124 0.0039122053 0.0032232793
0.003922363 -0.0014960075 0.0015758184 0.004940955 -0.0029451197 -0.00024833725 0.0032342037 -0.0060574193
0.003670666 -0.0031910392 -0.0024552704 -0.0010782885 -0.0045557213 0.004161602 0.0028552257 0.004117182
-0.00020199177 0.0036411593 0.00017014619 -0.0050619952 0.002745915 -0.002128049 0.0006963806 0.0025059904
0.0019588722 -0.006430603 -0.0014995029 0.002148998 0.0036612789 -0.003458596 -8.05735e-05 -0.0032220879
0.0066328673 0.0009607121 -0.0043137064 0.0030583956 1.3000086e-05 -0.004257564 0.0016292755 -0.0006587026
0.005022483 -0.000571307 -0.0014853473 -0.0010054022 -0.0021629771 0.0017935201 0.0016710302 0.003338816
0.0069478694 0.005224267 0.00229787 0.00400641 0.0063961246 0.0051652337 0.0028581885 0.005676272
0.0007089985 -0.0023649514 -0.0006523723 -0.0022238821 -0.0008666944 -0.0045226924 0.0014082482 0.00284751
0.003872271 0.0043996423 -0.0032167502 0.0037614293 0.007878413 -0.0029725956 -0.001139881 0.000574154
-0.00021859891 -0.0030774642 0.0046540406 -0.003293893 -0.003840778 6.412474e-05 -0.0025271568 -0.0035212869
0.0033846498 -0.00077808305 -0.0034999691 -0.0019441483 0.0033081612 -0.0015127691 0.0009528501 -0.0034548882
0.0022140816 -0.00026764622 0.0034821245 0.0030015602 0.005996938 0.005569487 -0.00551081 0.0048593227
0.0037268002 0.0022637118 0.00079757784 0.005391594 0.0065842615 -0.0019948066 0.003157645 0.0024891905
0.0003923086 0.002565229 -0.003533104 -0.0033635092 0.0052948063 0.004988375 0.0044468897 -0.0012556553
-0.0017460589 0.0005998599 -0.0012592331 0.00042906462 0.0036292644 -0.0011762741 -0.003982094 0.0044837208
0.008566583 0.0006878167 0.0053473227 -0.0040357364 0.0038256801 0.0034628655 -0.0041644955 -0.003026809
0.0078024766 0.00053733843 0.0012065049 0.0021692351 0.00091275846 -0.004637546 0.0051771197 0.0064024115
0.004571578 -0.0045788395 0.0008716399 -0.0033750972 0.004477776 0.0009614442 0.0054143122 -0.004622723
0.0060310764 -0.0045294627 -0.0031132887 0.0054194336 0.004530149 -0.0025530749 0.005245031 0.0036800795
-0.0014646745 -0.00068441126 -0.0012024858 -0.001129151 -0.004271966 0.0007049347 0.0030658704 0.0014537624
0.005413744 0.00024506394 0.00096608803 -0.003907522 0.00091639906 -0.0045599123 0.0010257625 0.0034671936
0.0013291247 -0.0032844485 -0.00094100885 0.0009071877 0.00046176126 -0.0030726716 -0.0002833187 0.0017887581
0.0070317113 -0.0027888666 -0.001268054 0.0042442516 0.002172101 0.0045177066 -0.0024725138 -0.0040636053
0.0015996831 0.0027466542 -0.003773087 0.0026878482 0.0024916541 -4.9149567e-05 0.0031438868 0.0054722056
-0.00058659917 0.0019680962 -0.0038454046 -0.0049872487 0.004589825 -0.0043150047 -0.001824824 0.0037028703
0.0036574707 0.0013521984 -0.0003762068 0.00049808976 0.005705384 0.00023451053 -0.0017637069 -0.0035970118
0.0024018479 0.0040871846 -0.0016086316 0.0019413155 -0.0037710029 -0.003500769 0.00038327876 0.0039786706
-0.0044802064 0.0019542028 -0.0063079125 0.0012695014 -0.0014338576 -0.0031160738 -0.0050313827 0.001980408
