model/Discriminator_liyun1500.pt (torch, 825103 bytes, 5 tensors)

discriminator.0.weight f4 [16, 3, 4, 4]
000000 af 89 00 be 00 9a da 3d b1 52 f1 bb f8 b4 5c bd
       -0.12552522 0.106739044 -0.007364594 -0.053883523
000010 82 f3 77 bd 7e 11 b7 3d 80 5c ae 3d 4b a9 fe bd
       -0.06053496 0.08938883 0.08513737 -0.12434634
000020 78 e6 c9 3d 95 a8 c3 3d d9 19 da 3d 4a 28 a8 3d
       0.098584116 0.09553639 0.10649461 0.082108095
000030 03 28 91 bd 1c 5d ea 3d 5d d9 4c 3d 14 3f 53 bd
       -0.0708771 0.114435405 0.05001198 -0.051573828
000040 5e c0 d5 bd 6c 12 ba bc d0 37 03 3e f8 cf 10 bd
       -0.10437082 -0.022713862 0.1281426 -0.035354584
000050 34 04 17 3d 86 52 34 bd 71 93 b6 bd 5a d4 6c bd
       0.036869243 -0.044024013 -0.08914841 -0.0578197
000060 bb 50 ce 3d c8 26 02 bc 4a 52 2e bd e0 a8 86 bd
       0.10073992 -0.0079438165 -0.042558946 -0.06575179
000070 0a d8 23 3c 91 13 fd bd 75 06 03 bd 1e b5 00 be
       0.010000238 -0.123572476 -0.03198858 -0.1256909
000080 24 f9 ca bd 65 80 98 3d b1 82 e7 3d 8a 7b 14 3e
       -0.09910801 0.07446364 0.11304224 0.14500251
000090 f0 ee 48 bc 57 51 bf bd 3e ef 91 3d a9 17 c2 3c
       -0.012263998 -0.09341686 0.0712571 0.023692923
0000a0 70 67 08 3e 99 52 f8 bc 60 40 96 bd a4 d5 83 bd
       0.13320708 -0.030312823 -0.07336497 -0.06437233
0000b0 64 5a 0c 3e 51 84 10 3d e0 28 38 bd 55 04 33 bd
       0.13706356 0.035282437 -0.044960856 -0.043705303
0000c0 44 32 fd 3d ae 5a 84 bd ff 4a 85 bd 3b 94 75 bd
       0.12363103 -0.06462608 -0.06508445 -0.059955817
0000d0 df bb 0c bd c5 6c be bd 9c b8 e4 bd 17 89 82 3d
       -0.034358855 -0.0929809 -0.11168024 0.06373804
0000e0 00 bf df bd 18 36 8d bd f2 a7 a6 3d 3a 76 b1 3b
       -0.10925102 -0.06895083 0.08137502 0.005415705
0000f0 8b f7 5c bd da da 9c 3d b1 20 c8 bd b2 f3 c5 3d
       -0.053947013 0.0765893 -0.097718604 0.09665622
000100 54 0c be 3c 74 a0 03 bd ad 96 b8 bc 64 b8 00 bd
       0.023199238 -0.032135442 -0.022532785 -0.03142585
000110 ee 1c 03 be 31 45 47 bd 83 1f 86 bd 48 43 7d bc
       -0.12804005 -0.04864997 -0.06548979 -0.015457936
000120 88 83 be bd 85 fa 01 be 59 dc 52 3d a8 ff 78 bd
       -0.09302431 -0.12693222 0.05147967 -0.060790688
000130 3d d2 a6 3d 27 da e9 3d b9 5d 8e ba ff c1 b1 bd
       0.081455685 0.114185624 -0.0010861672 -0.0867958
000140 20 96 07 bd 2f 24 e3 3d dd fd d3 bd a4 d1 b8 3d
       -0.033102155 0.11090886 -0.10351155 0.09024361
000150 a2 3b fe bc 3c f5 49 bc ca bb 8b 3b de 48 8c 3b
       -0.031034295 -0.012326535 0.0042643296 0.0042811474
000160 76 40 01 be dd bc d2 bd e9 0f 06 3d ff 5e cf 3c
       -0.12622246 -0.10289929 0.032730017 0.025313852
000170 e6 cb 93 3d 93 c3 a4 bd 28 aa 39 bd 22 50 c5 3d
       0.07216625 -0.08045115 -0.04532829 0.09634425
000180 2f e5 39 bd 5f 5d fe 3d 6b 32 8d 3d d6 4e 53 bd
       -0.045384582 0.12420153 0.06894382 -0.051588856
000190 14 f7 b8 3d 18 de 61 3d a5 9a f8 3d c9 0b 47 3d
       0.090315014 0.055143446 0.12138871 0.048595224
0001a0 bf b7 ba 3c da 02 fe 3d ed 05 ef 3b 3f de 0c 3e
       0.022792695 0.12402888 0.0072944076 0.13756655
0001b0 fe 0e 46 3d ee 6d 8d 3d 7b 56 c8 3d 26 e3 51 3d
       0.04835414 0.06905733 0.0978212 0.051242016
0001c0 fc a5 53 3d 31 b8 85 bd d4 60 e9 3c 4f c7 af 3d
       0.051671967 -0.06529272 0.028488554 0.08582937
0001d0 7f 14 ba 3d 80 a2 14 3d fd 47 17 3d 9a bf bd 3d
       0.090859406 0.036287785 0.036933888 0.09265061
0001e0 42 39 ef bc 3d ff 9a bd d9 10 02 bd 3e 8f 05 3e
       -0.029202107 -0.07568214 -0.03175435 0.13042924
0001f0 d9 12 0f 3e 6f 45 0c be d9 d3 15 bd 18 cd dc 3d
       0.13972034 -0.13698362 -0.036578987 0.10781306
000200 15 59 86 3d a0 fd 8a bc 3c 13 0c 3d 53 7d 78 3d
       0.0655996 -0.016966641 0.03419803 0.060666393
000210 42 26 3c 3d 16 a2 0c be 5d c4 0e 3e 85 23 cb bd
       0.045934923 -0.13733706 0.13942094 -0.09918884
000220 c7 1a 04 be e2 09 a7 3d 25 90 e9 bd 52 b4 22 3d
       -0.1290084 0.08156182 -0.114044465 0.039722748
000230 7a f1 f2 bb 07 3b 0c 3d ee 70 cc bd eb 5d 16 3d
       -0.00741404 0.03423598 -0.09982477 0.03671066
000240 d5 bd 09 be f7 1d 02 3e 8b 73 c2 3d b3 f2 9e 3d
       -0.13451321 0.12706743 0.09494694 0.07761135
000250 e9 09 5b 3a 7f d1 e0 3d 33 40 ef 3c 2c bc 8d bd
       0.0008355664 0.10977458 0.029205417 -0.069206566
000260 13 63 74 bd b6 46 b1 3c 4b 59 b2 3d d9 b6 38 3d
       -0.059664797 0.021640163 0.087084375 0.045096252
000270 1e a3 7c 3d c5 b8 3a 3d b7 08 8c bd 32 62 77 bd
       0.061679 0.045586366 -0.068376 -0.06039638
000280 42 19 83 3d b4 85 f4 bd 34 fe 0c be 70 eb 18 bd
       0.06401302 -0.11939564 -0.13768846 -0.037333906
000290 29 de 8a bd 3c 5a d6 bd c3 d9 af bd 6e 5a df bd
       -0.06780655 -0.104664296 -0.085864566 -0.1090592
0002a0 b0 2a c6 bd fa d2 31 3d 5a 28 9e bd ec 00 01 be
       -0.09676111 0.043414094 -0.0772254 -0.12598008
0002b0 6d 76 cf bd 65 d2 94 bd fd f3 08 bc 0c 89 a5 bc
       -0.1013001 -0.07266692 -0.008358953 -0.02020695
0002c0 97 ad 04 3d 7c 14 9a 3c 50 c7 88 3d 6e 49 0d be
       0.03239211 0.018808596 0.06678641 -0.13797542
0002d0 0b eb af bc f0 18 c7 3d a3 70 dc 3c 4b 37 7f 3d
       -0.021474382 0.09721553 0.026909178 0.06230859
0002e0 d6 65 0f 3e b9 47 eb 3d 28 5b 04 3e a5 85 fc 3d
       0.14003691 0.114882894 0.12925398 0.12330178
0002f0 e8 a2 88 3d 8a c9 2f 3d 49 59 85 bd 15 67 a0 bc
       0.06671697 0.042916812 -0.065111704 -0.019580403
000300 30 09 f7 bb b4 ca c0 bd 9c b0 02 3e 70 f3 36 bc
       -0.007538937 -0.094136626 0.12762684 -0.011166438
000310 a9 60 ba bd ab 99 3e 3d f8 df ad bd c6 3f a0 bd
       -0.09100468 0.046533268 -0.08489984 -0.07824664
000320 4c c5 02 3e 16 71 cc 3d c6 11 cb bd dc db 78 bd
       0.12770575 0.09982507 -0.099154994 -0.06075655
000330 41 f1 05 be e5 42 4d bd 0f 38 df 3d 03 42 1a bd
       -0.13080312 -0.050112624 0.10899364 -0.03766061
000340 62 75 e9 3c fe 93 eb 3d 62 58 db bd c5 02 ad 3d
       0.028498355 0.11502837 -0.10710217 0.08447794
000350 f7 3e 76 bc d2 a5 6b 3d b7 92 6f 3d c8 17 31 bd
       -0.01502966 0.057531185 0.058489528 -0.04323557
000360 ce a6 06 3e f1 82 f4 3d 50 2b 81 bc f5 2b 16 3c
       0.13149568 0.119390376 -0.015767723 0.009165754
000370 91 4e 3a bd a5 53 de 3d 5e 5f c8 bd 81 94 e1 3d
       -0.045485083 0.10855798 -0.09783815 0.11014653
000380 9f 24 18 3b 4d 9f e2 bc 57 8a 14 3e 83 f0 fe 3d
       0.0023215187 -0.027663851 0.14505897 0.12448218
000390 e6 70 de 3d 26 5c c6 bc bf 20 e2 3d 04 91 85 bd
       0.108613774 -0.024213862 0.11041402 -0.065218
0003a0 b8 52 80 3b 14 d7 cf 3d d3 59 a0 3d d3 80 b3 bc
       0.003916111 0.10148445 0.078296326 -0.021912014
0003b0 02 70 98 3d 5d b5 bb bd 98 cb fc bd 80 e5 ce bd
       0.07443239 -0.09165452 -0.1234352 -0.101023674
0003c0 92 9e f2 3d 34 ce a6 bd 96 61 c5 3d ea 22 9a bc
       0.11846651 -0.08144799 0.09637754 -0.018815476
0003d0 08 37 95 3d ad c0 46 bc 6f 5c 3f 3d 43 13 0f be
       0.07285887 -0.012130898 0.04671901 -0.13972192
0003e0 12 2d 11 bc 1e 72 07 3e ca 3a ca 3d fb 7a f0 bb
       -0.008860843 0.13227126 0.098744944 -0.007338879
0003f0 df 5f eb bd 6b 01 f8 3d a1 ef 50 3d 94 4f 11 3e
       -0.11492895 0.121096455 0.051009778 0.14190513

discriminator.2.weight f4 [32, 16, 4, 4]
000000 3f 47 c0 3c a5 31 f2 3b 24 32 58 3c 60 ec 03 3d
       0.023471473 0.007391172 0.013195548 0.032207847
000010 2c 77 8f bc 13 9b 54 bd 39 c8 25 3d 1e da 7a bc
       -0.01751288 -0.051905703 0.04047415 -0.015310792
000020 2e e3 a5 3c f4 75 a0 3c ff f3 9b ba 33 45 65 3d
       0.02024993 0.019587494 -0.0011898278 0.055974197
000030 72 55 f0 3a 39 07 cd 3c 0c 65 00 bd 90 b1 17 3d
       0.0018336012 0.025027858 -0.031346366 0.03703457
000040 41 46 94 bb 1b 8b 24 bd 1e e6 23 bd 6f 81 00 bd
       -0.0045249765 -0.040171724 -0.04001438 -0.031373437
000050 b3 ed 6e 3c a6 ff 9a 3c ef 89 68 bc 15 e5 d1 bb
       0.014583039 0.01892073 -0.014193042 -0.0064054825
000060 4b 74 18 bd 97 ef 32 bd 65 2f 2d bd bc 70 7b 3d
       -0.03722028 -0.043685522 -0.042281527 0.06138681
000070 a4 1e 61 bc c1 76 f0 bc a3 c0 85 3c c2 31 ef 3c
       -0.013740215 -0.029353501 0.016327208 0.029198531
000080 e8 86 64 bd be ea b8 3c 5b 79 2d 3c 4f 8c 7e bc
       -0.05579272 0.022572871 0.010588015 -0.015536382
000090 20 e6 5d 3b 3c 06 50 bd 77 c0 17 3c 94 16 8c 3d
       0.003385909 -0.050787196 0.009262196 0.06840244
0000a0 b1 64 e9 3c 7e 0b f1 3c 96 5c ec 3c 91 0d 17 bd
       0.028490396 0.029424425 0.028852742 -0.036878172
0000b0 24 6f 32 bd f9 86 42 bd 0c fb 8b 3d 6f 4c 13 3d
       -0.043563023 -0.047492 0.06834993 0.035961565
0000c0 c4 44 3b bd 77 52 05 3d 4c 4d ea 3c 10 73 24 3d
       -0.045719877 0.032549348 0.028601311 0.040148795
0000d0 19 99 cd 3b 37 35 16 3d 76 d8 2f bd 4e 29 1f 3d
       0.006274354 0.036671843 -0.042931043 0.03885775
0000e0 c8 8c ab 3c 2c c2 90 bc f0 3e 00 3d 67 2b 5c bd
       0.020941153 -0.017670713 0.031310022 -0.05375233
0000f0 31 d3 43 3b 83 34 0c 3d 99 ce 13 3d 59 26 15 bd
       0.0029880519 0.034229767 0.0360857 -0.036413524
000100 8e 38 1a 3c b8 d3 09 3d fe fe 9d 3b 99 96 14 3b
       0.009412898 0.033649176 0.004821657 0.002267277
000110 73 6d 0c bd 29 ae ff 3c 3e df 44 3d f4 84 78 3c
       -0.034284066 0.031210976 0.048064463 0.015168417
000120 34 e5 4a bd 8d 11 1b 3c 43 8d 85 bc af db 2d bc
       -0.04953499 0.009464634 -0.01630271 -0.010611459
000130 25 02 3c 3d 28 99 5d bb 45 28 80 bc 97 0f 37 3d
       0.045900483 -0.0033813212 -0.015644202 0.044692602
000140 17 de 7e 3d dc fe 90 bc 13 d1 2c bc 1e 66 31 3d
       0.06222352 -0.017699651 -0.010547894 0.043310277
000150 84 18 4e 3d 1f 93 54 bd 4b 55 80 bc 3b d4 ba 3b
       0.05031635 -0.051898118 -0.01566567 0.0057015694
000160 ac fd f3 bc fc ef 86 3c 01 0b 6d bc 2e 0b 44 3c
       -0.029784046 0.016471855 -0.014467956 0.011965556
000170 6f 2b 79 3d c3 67 03 3d d1 65 eb 3c 3f e5 49 bd
       0.060832437 0.032081377 0.028735073 -0.04929089
000180 bb 10 0f bd d0 08 16 bc 91 0d 9b 3c ad 23 73 3c
       -0.034928065 -0.0091573745 0.018927367 0.014840049
000190 44 bd 0e bd aa 06 26 3d 69 92 9e bc 07 6f 81 bd
       -0.034848467 0.0405337 -0.019356923 -0.06320005
0001a0 d4 14 c3 bc 0e ec 1a bd ea 94 7a 3c f2 da 23 3d
       -0.023813643 -0.037822776 0.015294293 0.040003724
0001b0 3a 19 ae bc dc 37 c9 3b 24 32 5e 3d 35 44 16 3c
       -0.021252263 0.006140692 0.054247037 0.009171535
0001c0 4e b5 fd 3c 27 5b f8 bc 7e 5b da ba 97 fb 3d bb
       0.030970242 -0.030316902 -0.0016659347 -0.002898907
0001d0 93 ae ac bb 35 0b 1a bd 4c 23 0c bd f0 c8 76 3d
       -0.0052698343 -0.037608344 -0.03421335 0.060250223
0001e0 33 49 76 3c 95 d1 ac 3c 08 89 a8 bc bd 96 15 bd
       0.0150321005 0.02109603 -0.020573154 -0.03652071
0001f0 78 d7 ce 3b 18 03 35 bd 06 ec 0e 3d 06 5b 8a 3d
       0.006312307 -0.044192404 0.03489306 0.067556426
000200 1b d6 3b bd be 30 3c bd 5d 5f cd 3b 91 6a b3 3c
       -0.045858484 -0.04594492 0.0062674717 0.0219014
000210 72 23 6a 3b 03 4b 24 bd 46 89 11 3d af 09 0f 3d
       0.0035726693 -0.0401106 0.035531305 0.034921344
000220 95 61 f5 3c d0 c2 0a 3d 7b c3 23 3d 99 6f 7a 3d
       0.029953757 0.033877194 0.039981347 0.061141584
000230 db de 3e bd f9 19 67 3d 61 3e 01 bd 83 8b 92 bc
       -0.04659925 0.056421254 -0.03155363 -0.01788879
000240 bd 21 ee bc 8d 96 4b 3c 57 1f 3b 3d 7c 08 04 bd
       -0.029068822 0.012426031 0.045684185 -0.032234654
000250 b7 bc 02 bd 97 3b 51 bc af 4c 94 bc b1 ec 87 3d
       -0.031918254 -0.012770555 -0.018102972 0.06636942
000260 00 f3 6d 3d ec 37 6e 3d 7e fb 46 bc fd d4 79 3d
       0.05809307 0.0581588 -0.012144921 0.060994137
000270 de db 03 bd b9 d2 17 bd 50 79 c4 3c a1 c4 87 bc
       -0.032192104 -0.037066195 0.023983628 -0.016573252
000280 6c 76 97 bc 7a c5 5a bd 06 4e 3c bc 7b 1b b5 bb
       -0.018489085 -0.053410985 -0.011493212 -0.0055269576
000290 d8 10 85 3d ff 10 e3 3c 29 5f 48 3b a2 3e 09 bd
       0.06497353 0.027718065 0.0030574298 -0.033506997
0002a0 36 72 97 3b 79 f2 8f bc 96 45 ef 3c b0 be 34 3a
       0.0046217693 -0.017571675 0.029207986 0.000689487
0002b0 6d 9d fe bc af 80 54 3d c3 68 09 3d 4f 4e 53 39
       -0.031080926 0.051880535 0.033547174 0.000201517
0002c0 de c2 8f 3d 36 38 5a bb 28 b4 e3 bc d6 a2 58 bc
       0.0701959 -0.0033297664 -0.027795866 -0.013222417
0002d0 21 62 d7 bc 5f 58 38 bd 2f 87 fe bb cf 9f 82 3d
       -0.026291909 -0.045006152 -0.00776758 0.06378137
0002e0 a6 cb be 3c 42 84 0c 3d 29 ea 38 3d 60 c2 1c bd
       0.023290467 0.03430582 0.045145188 -0.038271308
0002f0 7f b6 11 3c 1c c8 13 3d 21 26 6d 3d de 0e 2a bd
       0.008893608 0.03607951 0.05789769 -0.041518085
000300 90 e3 1f 3b 3e ad 37 3d 6d 62 8c 3d 22 55 98 bb
       0.0024397112 0.04484295 0.06854711 -0.0046488205
000310 28 12 5a 3d a2 e5 b5 bb 6a e0 54 bd d1 e7 8e 3c
       0.05323997 -0.005551056 -0.05197183 0.017444523
000320 eb 8d 82 bc d5 56 af 3c 5d 41 ae 3c 28 6e 5e 3d
       -0.015936812 0.02140371 0.021271402 0.054304272
000330 15 5c 96 bc 92 de 43 bd ca 66 a1 3c 21 86 0f 3d
       -0.018354455 -0.04781968 0.019702334 0.035040025
000340 82 33 69 bc 9f b5 29 bd 75 5c 0e bd 75 7c 38 bd
       -0.014233472 -0.041432973 -0.034756143 -0.045040566
000350 2a c6 9b bc d1 59 47 3d 23 3c 76 bb e5 25 93 bc
       -0.01901539 0.04866964 -0.0037572465 -0.017962405
000360 e5 26 fb 3c e4 c3 0d 3d 86 8d 77 3d df f2 31 3c
       0.030658195 0.034610644 0.0604377 0.010861128
000370 e1 26 3e bd c9 8f 85 3d e0 d9 41 3d de bf be bc
       -0.046423797 0.065215655 0.047326922 -0.023284849
000380 99 03 30 bd 7e 9f 1c bd 8c a8 9d 3c 84 41 55 3b
       -0.04297218 -0.03823804 0.019245408 0.003254027
000390 cb 22 69 bb 37 55 a1 3b a5 a6 fd bb 3d 53 5d bd
       -0.0035573717 0.0049234885 -0.007740813 -0.05403446
0003a0 76 97 66 bd a0 51 d5 3c d2 b2 29 bd 40 fe 63 bd
       -0.05629679 0.026039898 -0.041430302 -0.055662394
0003b0 80 98 26 bd cd 99 24 bc e8 5c 40 3c 59 17 79 3d
       -0.04067278 -0.010046435 0.011740901 0.06081328
0003c0 11 27 35 bd 19 2f 8b bc f0 26 85 bb f0 16 3d bd
       -0.04422671 -0.016990231 -0.0040634796 -0.046164453
0003d0 29 03 54 bd c8 a2 98 bb 02 34 f1 3c 57 03 0c 3d
       -0.051760826 -0.004658077 0.029443745 0.034182873
0003e0 26 22 ce bc 6c 88 34 3c 0a 11 86 3d e3 44 b8 3c
       -0.025162768 0.011018854 0.06546219 0.022493785
0003f0 75 69 a7 3c f9 89 83 3d 6b 51 15 bd 91 c5 7f 3d
       0.020436028 0.064228006 -0.0364546 0.062444273

discriminator.4.weight f4 [64, 32, 4, 4]
000000 d7 c3 f6 3b 77 f5 17 3c c5 14 12 bd cf 87 ae bc
       0.00753067 0.009274832 -0.03566434 -0.021304993
000010 fb ed 85 3c 33 8a 84 bc be 78 e9 bc 16 24 99 3c
       0.01634883 -0.01617918 -0.028499957 0.018693965
000020 eb fd d8 3c a3 00 02 3d f9 d4 a7 bc 15 f7 07 bc
       0.026488265 0.03173889 -0.020487295 -0.008298655
000030 8e ac a7 bc 06 4a f1 3c bd f0 d2 3c f0 58 af 3c
       -0.020468023 0.029454242 0.025749559 0.021404713
000040 6c 3d b0 bc ef 0a 9b 3c 0c de 75 bb d0 65 ec bc
       -0.021513663 0.018926112 -0.0037516383 -0.028857142
000050 42 07 1f bd 29 8c 9f 3b 2d 09 c6 bb c8 c7 e2 bc
       -0.03882528 0.0048690033 -0.0060435743 -0.027683154
000060 7c 30 7b bc 56 b8 f8 3c e9 90 f1 bb 5a 58 b9 3c
       -0.015331384 0.030361336 -0.007372011 0.022625137
000070 b0 13 b5 3b 4d 61 8f 3c e0 80 4c bb 6a 02 18 3d
       0.0055260286 0.017502451 -0.0031204745 0.037111677
000080 a7 6e 27 bd 38 3e e4 bc 1c 15 eb bc 3b 9a 21 3b
       -0.04087701 -0.0278617 -0.02869659 0.002465858
000090 a3 ce 4d 3b c6 38 0f bd f2 69 1a bd fe c5 17 bd
       0.0031403683 -0.034966253 -0.037698694 -0.037054054
0000a0 28 82 8c 39 95 b9 bf 3c b0 ee eb ba a3 b6 aa bc
       0.00026799855 0.023403922 -0.0018000212 -0.020839041
0000b0 8f bf 85 3c aa 5f 05 3d 97 7e 88 b9 ea d7 09 3d
       0.016326694 0.032561935 -0.00026034258 0.033653177
0000c0 5d 54 88 3b 53 48 d2 3b 44 55 59 bb 81 75 12 3d
       0.0041604475 0.006417313 -0.0033162395 0.03575659
0000d0 94 d6 0e 3b 18 7d 30 bd 6f f6 2b 3d 93 65 fd 3c
       0.002179538 -0.04308805 0.041983064 0.030932223
0000e0 74 35 ff bc 14 91 b5 3c fa a4 84 b9 91 df 06 bd
       -0.031153418 0.022163905 -0.0002529992 -0.032928053
0000f0 3c 4a 48 bc b9 2d c3 bc b1 f0 7d 3c 6b aa 00 3b
       -0.01222473 -0.023825513 0.01549928 0.0019632827
000100 1e 0d 24 3d 7c 31 16 bb 91 99 1b 3d c5 63 25 3c
       0.040051572 -0.0022917679 0.03798825 0.010094588
000110 9b d3 45 3d 39 42 72 3c cb 74 0a 3c 56 83 3e 3d
       0.048297506 0.0147862965 0.008450697 0.04651197
000120 c6 93 2b 3d b5 7f 21 bc 38 ed 9a bc e1 3a ca 3c
       0.041888975 -0.009857108 -0.018911943 0.024686279
000130 35 a8 9a 3c 36 ed 14 bd 08 be 90 3b 77 f0 55 3c
       0.018879035 -0.036359034 0.0044171847 0.01305782
000140 df b2 88 bc d5 e8 9f 3c 91 54 1a 3d 1f 1f 11 bd
       -0.016686855 0.019520203 0.037678305 -0.03543007
000150 89 d5 ac ba 3b 50 b1 3c 55 f3 fd 3c a0 8a cc 3c
       -0.0013186197 0.021644702 0.030999819 0.024968445
000160 2f 4c 37 3d 3c 0d e7 bb a7 7f 03 bc c0 fe f0 3c
       0.04475039 -0.007051138 -0.00802604 0.02941835
000170 6e 42 e4 3b 33 e3 fa 3c d8 33 d5 3c 0f e2 9f bc
       0.006965927 0.030625915 0.026025698 -0.019516973
000180 ed 43 f8 3b 00 13 97 ba 82 ef 17 bd 0d 09 d6 bc
       0.0075764568 -0.0011526048 -0.037093647 -0.026127363
000190 d6 f2 04 bc b4 9d 1e bd 10 38 82 3a 04 c5 84 bc
       -0.008114537 -0.038724616 0.0009934921 -0.016207226
0001a0 5b c0 e0 3b ec eb 28 3c 59 64 e6 bb 33 f6 7f bb
       0.006858868 0.010310154 -0.0070310053 -0.0039056658
0001b0 1e 22 c2 3c 4e 20 f8 3c c5 5c 5c 3c d3 ac 96 3c
       0.023697909 0.030288842 0.013449852 0.018392956
0001c0 b1 db c8 bb 48 da 9f bc 47 93 75 bb 9f 0d 08 3d
       -0.006129705 -0.019513264 -0.0037471817 0.033216115
0001d0 bb 2e 4e 3c 70 fb 04 3d 56 4e af bc ec 67 16 3c
       0.012584384 0.032466352 -0.021399658 0.00918005
0001e0 13 85 22 3d 78 f6 5e ba 2b 3e 62 bc f1 e8 cd 3c
       0.03967769 -0.00085053546 -0.013808767 0.02513549
0001f0 ab 1d 1d 3d 96 90 98 bc ca 42 98 3c 66 3b 12 3d
       0.03835837 -0.018623631 0.018586535 0.035701178
000200 cb aa 24 3d b0 43 4f bc e5 d7 84 3c df 1a 7a bb
       0.040201943 -0.012650415 0.016216228 -0.003816299
000210 d1 b2 3c 3d 1a 1a 19 bd 43 93 85 bc 47 1f b2 bb
       0.04606897 -0.037378408 -0.016305571 -0.0054358575
000220 e0 ff 0d 3d 50 a3 d1 3c 9e 3c b2 3c 0d 78 0d 3d
       0.03466785 0.025590569 0.02175742 0.034538317
000230 59 be 80 bc 1b 6c 2b bc 94 30 0e 3d 1e 79 9f bc
       -0.015715765 -0.010462786 0.034714296 -0.019466933
000240 6a 28 d7 ba 83 9b 62 3c ca 46 0b 3d 00 be d3 bb
       -0.0016415243 0.013831022 0.034003057 -0.0064618587
000250 fe de 05 bd f7 a0 01 bd e9 25 12 3d 2b e2 26 bb
       -0.032683365 -0.03164765 0.035680685 -0.0025464396
000260 9a 03 80 bc 58 e4 20 3d f0 de fd 3c 37 23 3f bb
       -0.015626717 0.039280266 0.030990094 -0.0029165277
000270 9a 13 30 3c 7d 2b d7 3c ac 5c 92 bb 87 cc 01 bd
       0.010746861 0.026265854 -0.0044666138 -0.031689193
000280 61 fe 05 bd 51 1f d4 bc 39 5a 8f 3c a5 c8 42 3d
       -0.032713298 -0.02589384 0.017499076 0.04755463
000290 4d 03 d3 39 22 ad 7e 3a a9 af 29 3d 31 f6 27 3c
       0.00040247515 0.000971513 0.04142729 0.010251568
0002a0 da 09 46 3d b6 25 e5 bc 0d db d9 3c ce bd 2b bc
       0.04834924 -0.027972084 0.02659371 -0.010482265
0002b0 8b d4 7f bc bf 85 05 bd 82 ca 71 3c 0f d7 bc 3b
       -0.015614639 -0.032598253 0.014757754 0.0057629417
0002c0 4a 95 57 bc cf dd 19 3d 8f 45 fe bc c3 39 d6 3c
       -0.013158152 0.03756505 -0.031039027 0.02615059
0002d0 a5 47 e6 3c 7a d3 1d 3a 15 66 f6 3c ec 22 af 3c
       0.028110335 0.0006020587 0.030077973 0.021378957
0002e0 e1 2f 65 3c a8 87 1e bd c3 a6 09 3c 96 d7 e7 3c
       0.013988466 -0.03870359 0.0084015755 0.028301042
0002f0 7a 07 cc 3c 75 a2 14 bd fd 06 ea bc c0 97 b9 3c
       0.024905909 -0.036287744 -0.028567785 0.022655368
000300 38 a8 1d 3d b2 88 fc bb 66 ba a3 3b ff fa ce 3b
       0.038490504 -0.007706725 0.0049965857 0.006316542
000310 c0 69 12 bd 5e 02 54 3c 00 8d 2c 3c 3c f2 5e bc
       -0.035745382 0.0129400175 0.010531664 -0.013607558
000320 4e 46 0b 3c 0d 49 00 bd c9 c4 bf 3c 7d 27 a7 bc
       0.008500649 -0.031319667 0.023409264 -0.020404572
000330 7b 3e e6 bc a4 f4 9c 3a f6 ac dd bc be 2d 15 3c
       -0.028105965 0.0011974764 -0.027060013 0.009105144
000340 ee 28 d7 bc a3 b4 df 3a d9 d8 12 bd da 9d a2 3c
       -0.026264634 0.0017067384 -0.035851333 0.01985066
000350 58 03 01 bb 8c 93 e3 3c e1 19 ae bc b3 60 30 bb
       -0.001968583 0.027780317 -0.021252574 -0.0026913106
000360 66 89 26 3d 21 86 21 3d fb b8 b5 bc 4e 58 26 3c
       0.040658377 0.039434556 -0.022182932 0.010152889
000370 b9 1c 86 3a a0 a4 21 bd 0f 04 61 3c 44 63 1f 3c
       0.0010231949 -0.03946364 0.013733878 0.009728257
000380 34 a5 e9 ba 72 2d 28 3c ed 1e 0c bd 2c 6b 9b 3c
       -0.0017825724 0.010264741 -0.03420918 0.018972002
000390 fb 33 2b 3d cc 0f 16 bc 03 9b b8 bc cd 9a 87 3c
       0.04179762 -0.00915904 -0.022534853 0.016553307
0003a0 f0 43 f2 bb 2c 26 9e 3c fc 27 27 bd 71 93 f1 bc
       -0.0073933527 0.019305311 -0.040809616 -0.02948925
0003b0 c8 8e 81 3c 7a d6 28 3d 10 6b aa bb 10 ed 4e bc
       0.015815154 0.041220166 -0.005200751 -0.012629762
0003c0 b2 7b 0d 3c db 08 3b bb 55 5c 34 3b b0 43 8f bc
       0.008635448 -0.0028539214 0.0027520854 -0.01748833
0003d0 ba 38 9e 3c ae 7e 1f 3d 7c 8b fd 3c b8 d6 1c 3c
       0.019314159 0.03893917 0.0309503 0.009572677
0003e0 ac e6 17 3b 3a c3 25 bd 42 42 07 bd 93 32 67 bc
       0.0023178263 -0.040469386 -0.033022173 -0.014111179
0003f0 38 cf 16 bd c5 f3 c6 3c 10 25 04 bd 4d 9f 48 bc
       -0.036818713 0.02428616 -0.032261908 -0.0122450115

discriminator.6.weight f4 [128, 64, 4, 4]
000000 ac 11 aa bc 2d 59 cd ba 59 8c 01 3d 4b a8 db 3b
       -0.02076038 -0.0015666835 0.031627987 0.0067034117
000010 f7 27 cd 3c 8b 0d 52 bb 37 a5 ff 3c 54 8e 84 bc
       0.02504347 -0.003205153 0.03120671 -0.016181149
000020 06 fb 8c bc e3 4f ca 3c 85 66 71 3c 8a f0 7a 3c
       -0.017209541 0.024696296 0.014733915 0.015316138
000030 4c 7f bc 3c 99 9f f8 3c 0d dc 69 3c a9 e8 c9 ba
       0.023009919 0.03034954 0.014273656 -0.0015404421
000040 fb 98 b1 bb 40 95 57 3b 2c 91 97 3c 24 7d 6b bc
       -0.005419848 0.0032895356 0.01850184 -0.014373098
000050 b1 35 f4 3c 9b 65 bb bc b5 7d 62 bc a4 7f b5 bc
       0.029810758 -0.022875598 -0.013823916 -0.02215559
000060 df 7b 9e b8 3b 36 d0 bc c9 28 50 bb ad d3 c0 bc
       -7.5571e-05 -0.025416484 -0.003176259 -0.023538435
000070 f2 5e 31 ba 06 39 56 3c 51 b5 d7 bc af 81 c8 bc
       -0.0006766162 0.013075119 -0.026331576 -0.0244759
000080 bd 9c 6e 3c 64 05 ff 3c 87 02 7d 3c 85 b6 aa bc
       0.0145637365 0.0311305 0.015442497 -0.020838985
000090 cb 14 e7 3c d0 37 c0 bb 4a bc 70 bc e2 54 e4 bb
       0.028208157 -0.0058660284 -0.014693329 -0.0069681266
0000a0 30 28 e6 3c d7 3d 7e 3c fa f5 a5 bc 47 42 d9 3c
       0.028095335 0.015517673 -0.020258892 0.026520861
0000b0 00 c8 84 3b ec 7d 8f bc b7 5e 6a bb 8e 36 1b bc
       0.004052162 -0.017516099 -0.003576202 -0.009473456
0000c0 7d 02 51 bb 15 b6 23 bc 9a 34 ef 3c 26 23 8e 3b
       -0.0031892352 -0.009992142 0.029199887 0.004337686
0000d0 23 07 6e bc 99 2e 85 3c 39 96 6a 3c ab 54 c0 3c
       -0.014528069 0.016257571 0.014318042 0.023477873
0000e0 e1 e8 9f bc f2 d1 b0 bc d4 f9 8c bc 78 ba 08 3c
       -0.019520225 -0.021584485 -0.017208971 0.008345239
0000f0 48 d4 bb 3c 65 fe 26 3c b6 8f ea bc 91 01 fa 3c
       0.022928372 0.010192488 -0.02863298 0.030518325
000100 03 fe 41 3c 81 a8 7a bb de 67 3d bb 8d d3 c7 3c
       0.011840346 -0.0038247409 -0.002890102 0.024392867
000110 df fb f5 bc ca 85 f0 bc 30 14 7b 3c cb 4d 5a bb
       -0.030027328 -0.02936067 0.015324637 -0.0033310528
000120 23 a0 c4 bc 60 7d cd 3c 34 e2 1f 3c 2f 8c dc bc
       -0.02400214 0.025084198 0.009758521 -0.026922313
000130 32 f9 97 ba 66 0a e7 3b 17 7f fa bc c9 d4 27 3c
       -0.0011594652 0.0070508 -0.03057818 0.010243603
000140 8a 83 cc bb e5 2d 6a bc 03 47 1f 3c 74 30 c5 3c
       -0.0062412666 -0.014293169 0.00972152 0.024070956
000150 a1 98 94 3c 0e e6 31 bc 7b bb ac bc ad c0 a8 3c
       0.018139185 -0.010858072 -0.021085491 0.020599687
000160 0c 83 8a 3c bd 9f a0 bc 97 ab 11 3d a0 46 a6 bc
       0.016908191 -0.01960742 0.03556403 -0.020297348
000170 34 a8 39 bc 14 63 7c 3c 0d 16 f1 3c b6 95 3c bc
       -0.011331607 0.015404481 0.02942946 -0.011510303
000180 62 46 ca 3c 72 ae ce 3c e4 7a a9 bc 35 72 04 3d
       0.024691764 0.025229666 -0.020688482 0.03233548
000190 71 63 d8 3b 0a 04 4a 3c a1 a7 05 3d 0e ff 44 bb
       0.006603651 0.012330065 0.032630567 -0.003005925
0001a0 85 b4 cc 3b 1a 04 09 3d 93 6a f9 bb 90 84 41 bc
       0.0062471055 0.033451177 -0.0076115816 -0.0118113905
0001b0 58 4c f9 3c ee 61 63 bc 1f 67 00 3d e8 1d 8b 3c
       0.030431911 -0.013878329 0.031348344 0.016982034
0001c0 af 88 b7 3c c9 01 3b bc 99 00 0e 3d 9d 59 ed 3a
       0.022404043 -0.011414 0.03466854 0.0018108372
0001d0 c9 e0 5d 3c 0e d3 f1 ba a5 73 be 3c 27 3b a0 3c
       0.0135423625 -0.001844974 0.023248503 0.019559456
0001e0 85 51 9c 3c ca 56 9f bc 59 11 00 3d c4 14 f0 3c
       0.01908184 -0.019450564 0.031266544 0.029306777
0001f0 ae 13 d9 3b 10 5d 0e 3c 46 f5 b5 3c ea 9d b3 bc
       0.0066246605 0.00868918 0.022211682 -0.021925885
000200 04 94 cb bc a5 d8 f0 3c 45 03 13 bc 23 6f 62 bb
       -0.024850853 0.02940018 -0.0089729475 -0.0034551106
000210 49 81 27 3c 5b 4b 1a bc e0 0e 2c 3c 03 b1 ce bb
       0.010223695 -0.00941738 0.010501593 -0.0063077225
000220 1e d0 00 bc 25 ad 4b bc a7 cc 99 3b 16 fc 91 3b
       -0.007862119 -0.012431418 0.004693586 0.0044551
000230 c8 fe 27 3c 7b 87 27 3c b5 b5 4f 3c b8 b5 aa ba
       0.010253616 0.010225172 0.0126776 -0.0013024127
000240 f5 84 c7 bc 37 5b 3f bc bd c5 16 bc 08 cd d2 3c
       -0.024355391 -0.011679462 -0.009202418 0.025732532
000250 78 cf 0d 3d b2 b8 e1 3b ef b8 ca bc 15 14 a4 bc
       0.034621686 0.0068884725 -0.024746386 -0.020029107
000260 d1 00 ec 3c 61 6d d0 3b 9b 34 ad bc 7f 11 ff 3c
       0.028808983 0.006360695 -0.021143248 0.031136272
000270 c3 63 f2 3c 4c 17 65 bc 32 6e 99 3a 2f e7 87 bc
       0.029588586 -0.013982605 0.0011705814 -0.01658973
000280 9b c2 5b bc a1 57 63 bc 79 d7 05 3c 2d e7 dc bc
       -0.013413097 -0.013875873 0.0081690485 -0.026965702
000290 1b 18 a7 bc f3 fb bf 3b b7 26 60 bb 8c dd 01 3d
       -0.020397237 0.005858892 -0.0034202763 0.031705424
0002a0 fb 3b b5 3c fe 79 b3 3b 94 0e 1f 3c 76 e0 52 3c
       0.022123327 0.005477189 0.009708066 0.0128708985
0002b0 84 b8 a9 3c b9 a2 ad 3c 14 a0 ef bc fc 14 c7 bb
       0.020717867 0.021195756 -0.029251136 -0.0060754996
0002c0 2a cb 04 3c 6c 1a b3 3b 55 f1 62 ba a0 7d 92 bb
       0.008105079 0.005465796 -0.0008657177 -0.004470542
0002d0 19 55 64 bc 29 a1 d4 bc 8a f0 60 3c 2c c2 34 bc
       -0.0139363045 -0.025955753 0.013729224 -0.011032622
0002e0 65 eb ea bc 45 07 ad 3c e4 a1 d8 3a f9 b4 b8 3c
       -0.028676698 0.02112163 0.0016527739 0.022547232
0002f0 7b 75 d6 bc fa 9b 2a 3c 18 fe 40 3c 13 ed 28 3a
       -0.026179066 0.010413164 0.011779331 0.0006444018
000300 71 b2 cc 3c 39 8f 73 bc d3 49 75 3c 30 6e 5f 3c
       0.024987431 -0.01486569 0.014971214 0.013637111
000310 fb 3d bc bb 06 f6 89 3c d5 70 a2 bc bf 04 01 3d
       -0.0057446933 0.016840946 -0.019829193 0.031498667
000320 3a 27 7b 3c b0 21 22 bb 42 14 8a 3c 17 99 bf 3c
       0.015329177 -0.0024739318 0.016855363 0.023388429
000330 1f 93 98 3b b1 68 ef 3c bf 59 e2 3a 64 1f cc bc
       0.00465621 0.029224725 0.0017269178 -0.024917312
000340 8f 9b 6c bc e1 d2 be 3c c6 fb 3e bc 13 31 9c bc
       -0.014441385 0.023293914 -0.011656707 -0.01906637
000350 4c f3 ed ba 3b ff f0 3c 06 ad 35 bc fe 47 54 bb
       -0.0018154173 0.029418578 -0.011088615 -0.0032391544
000360 81 7d dd bb 1d 96 e8 3c 18 3f 5a bc ee 71 85 3c
       -0.006759346 0.028391892 -0.013320707 0.016289677
000370 6b 58 bf bc d7 64 92 bc 29 28 82 bc 9e 62 06 3d
       -0.02335759 -0.01787035 -0.01588829 0.032808892
000380 36 ff 08 3d 9c 86 02 3d bb 21 42 3c e3 42 06 3d
       0.033446513 0.031866655 0.011848862 0.032778632
000390 66 eb 8b bb 45 72 47 bb c0 85 b3 bb f5 3a a1 3c
       -0.004270005 -0.00304331 -0.0054785907 0.019681433
0003a0 73 24 d1 3c 5b 08 ee bb d7 ff 38 3c a6 70 05 3d
       0.025530076 -0.0072641796 0.011291466 0.032578133
0003b0 1c 4c 9f bc b9 be c4 3c 78 3b f0 3c 6f ea e4 bc
       -0.019445471 0.024016725 0.029325232 -0.027943818
0003c0 d9 85 10 3c 7e 57 4d bc 68 8d 30 bc 16 16 b8 3a
       0.008820974 -0.012533067 -0.010775901 0.0014044668
0003d0 08 ba b2 3c c0 b1 ff 3c db f8 9f 3c ca b6 f1 3c
       0.021817222 0.031212687 0.019527843 0.029506106
0003e0 96 34 f6 bb 27 cc c6 3c b8 f1 4d bc 32 17 86 bc
       -0.007513593 0.02426727 -0.012569837 -0.016368482
0003f0 62 4e d7 3b f7 ad 9f 3b 28 11 dc b6 71 fd 8f bc
       0.0065706233 0.004873033 -6.558508e-06 -0.017576905

adv_layer.0.weight f4 [1, 32768]
000000 73 86 fb 39 c6 a2 91 3a b0 ca 97 bb b6 a7 c9 bb
       0.00047974623 0.0011111132 -0.0046323165 -0.006154026
000010 28 74 c8 3a 87 a9 dd bb f8 b1 fd ba 1a ed 3c bb
       0.0015293406 -0.006764594 -0.0019355407 -0.0028827847
000020 7f 9b 98 3b 7a 8e b6 38 48 60 91 3b b3 42 90 3b
       0.0046572085 8.7049746e-05 0.0044365264 0.0044024824
000030 13 12 fc b9 51 6b 3d bb 36 86 67 3b 6c bf c7 3a
       -0.00048078652 -0.0028903077 0.0035327799 0.0015239543
000040 73 94 99 ba e5 ec 27 3b 89 4c ad bb cb 1e 84 ba
       -0.0011717215 0.0025623378 -0.0052886647 -0.0010079978
000050 c7 d0 70 3b b6 0d b0 bb 78 30 72 bb 28 e6 ba bb
       0.0036745535 -0.005372728 -0.003695516 -0.0057037063
000060 98 18 da bb 6d 78 9e 3b 3a cb ac bb c9 bf a0 3b
       -0.006655764 0.004836133 -0.00527325 0.004905675
000070 13 2a 46 3b c1 3f 3f 3b c6 07 49 3b b5 af de 3a
       0.003023748 0.0029182287 0.00306748 0.0016989621
000080 9a f2 c3 3a 23 de 74 bb 4f 90 03 ba 50 a0 49 3b
       0.001494962 -0.003736385 -0.0005018757 0.003076572
000090 15 2e be bb dd 25 19 bb c2 0c 62 3a 92 43 e6 bb
       -0.0058038332 -0.0023368516 0.0008623117 -0.007027098
0000a0 0c 58 73 3b bb 9f 99 bb de 58 6e bb 27 95 2d bb
       0.0037131337 -0.004688231 -0.0036368887 -0.0026486607
0000b0 a1 8a c9 bb 59 7a 37 3b 24 c0 e3 3a 11 3e 0c 3b
       -0.006150559 0.002799651 0.0017375988 0.00213993
0000c0 dd b9 15 bb 50 bc 21 3b cf 8b 91 ba 9f c2 dc bb
       -0.002284638 0.0024678893 -0.0011104288 -0.006737068
0000d0 5b b3 64 3a 63 c2 8b bb 53 ca 1d ba 1f b3 16 3b
       0.0008724236 -0.004265116 -0.00060192234 0.0022994948
0000e0 72 6b 09 39 12 74 02 bc 72 25 7a bb 63 8c d6 39
       0.00013105365 -0.007962244 -0.0038169292 0.00040921857
0000f0 53 d9 15 3b 40 c4 b3 bb c4 da c5 ba 5d 5f ab bb
       0.002286513 -0.0054860413 -0.0015095104 -0.005229874
000100 03 d1 dc 3b 38 55 ae 39 c2 38 a8 bb 13 54 ba 3a
       0.0067387833 0.0003325136 -0.005133719 0.001421573
000110 b0 4b c5 ba 93 97 cb bb c2 98 67 3a 97 53 fb ba
       -0.0015052464 -0.0062131374 0.00088347134 -0.0019174692
000120 b8 b7 80 3b ee d5 ef ba 52 a2 4d bb 36 c6 45 bb
       0.003928151 -0.0018298009 -0.0031377268 -0.0030177957
000130 84 e1 91 bb 85 0d c8 b9 35 ad 1c ba 06 01 7f 3a
       -0.0044519324 -0.00038157045 -0.00059767376 0.00097276305
000140 7a c9 bb 3b b3 81 5f 3b ac c5 2c 3a 73 54 c8 3a
       0.005730805 0.0034104406 0.00065907347 0.0015283957
000150 aa ee 8d 3b af 63 75 3b 0e b7 c6 3a 19 d7 6f 3b
       0.0043314295 0.003744345 0.0015160756 0.0036596714
000160 24 54 dd ba d4 e2 7e bb 8a 42 32 bb 16 26 90 bb
       -0.0016886038 -0.0038892524 -0.0027200305 -0.0043990714
000170 9f d4 57 bb 00 48 d0 bb 83 bf 02 ba 32 44 d4 3a
       -0.0032933129 -0.0063562393 -0.0004987644 0.001619464
000180 b1 ac cf 39 0b a9 d8 3a b4 ca cb bb aa 2b 1e 3b
       0.00039610782 0.0016529871 -0.0062192325 0.0024134913
000190 e9 d0 ae 3b 9d d1 ae bb 07 5c 85 bb 7d fb 21 bb
       0.0053349626 -0.0053350464 -0.0040698084 -0.002471655
0001a0 b7 45 69 bb 16 78 b2 bb 56 d2 59 3b 3b 85 b5 bb
       -0.0035594532 -0.0054464443 0.0033236942 -0.005539564
0001b0 cf 28 c2 bb ae b8 a8 ba 08 e8 74 bb cb 58 9f bb
       -0.005925275 -0.0012872422 -0.0037369747 -0.00486288
0001c0 0e df ac 3a df c8 6c bb 52 c7 c8 bb f0 e1 99 bb
       0.0013189034 -0.003613047 -0.0061272765 -0.0046961233
0001d0 b4 84 25 3a 36 d3 91 bb fe 19 e7 ba 21 83 f4 bb
       0.0006314025 -0.004450227 -0.0017631648 -0.007461921
0001e0 58 94 0b bb 5c 46 8e bb 36 ee 02 3b 55 a9 90 3a
       -0.0021298137 -0.0043418836 0.001997841 0.0011036793
0001f0 6c 65 84 3b 1f e7 51 3b 8c 9f f3 bb 2d 14 68 3b
       0.0040404107 0.0032028628 -0.007434791 0.0035412416
000200 6c 57 ef 3a c4 13 cd b9 72 30 f5 ba 73 7d 23 3b
       0.0018260307 -0.00039115374 -0.0018706454 0.00249466
000210 a1 43 8f 3b 56 bf 69 bb ce 8b a0 3a c5 2a db ba
       0.0043720757 -0.0035667024 0.0012248696 -0.001672112
000220 c3 2a 96 bb 51 3d 46 ba be f4 9b bb fe 85 c1 bb
       -0.0045827343 -0.00075622374 -0.0047594 -0.0059058657
000230 38 a6 2e 3b 0b 91 1e 3b d9 d3 3b 3b 34 2b 52 bb
       0.0026649367 0.002419534 0.0028660207 -0.0032069208
000240 01 79 8d bb 7c 7a db ba 99 e2 84 bb 80 0c 0f bb
       -0.0043174033 -0.0016744877 -0.004055333 -0.002182752
000250 26 7d 29 3b ea 6a 25 bb 41 d6 d6 bb e1 93 98 39
       0.0025861948 -0.0025240728 -0.006556303 0.00029101878
000260 a6 cb 8b 3b 7d a9 be ba 24 8f 8a 3b f0 ae c7 bb
       0.00426622 -0.0014546361 0.0042284895 -0.006093852
000270 02 75 64 3a a1 00 41 3a 7a 1f d2 bb 61 ec a4 bb
       0.0008714945 0.00073624594 -0.0064124437 -0.0050330614
000280 5f 20 bb 3b 7c 7b dd ba 9a 69 bb ba 62 70 83 3a
       0.005710646 -0.0016897763 -0.001429844 0.0010028
000290 1a fd 54 ba 66 00 d4 bb 25 e1 17 3b e1 22 02 3b
       -0.0008124873 -0.006469774 0.0023174968 0.0019857215
0002a0 e4 9e 9f 3a ac d0 e1 bb ac f7 98 b9 ca a1 b4 bb
       0.001217809 -0.0068913307 -0.0002917623 -0.005512451
0002b0 cc 00 26 3b 45 80 13 bb f5 9a 5c 3b d8 3a ea bb
       0.0025330065 -0.0022506875 0.0033661698 -0.007148128
0002c0 e0 77 60 3b 5d 68 e6 bb 9e 59 bf bb 45 cf 53 3b
       0.0034251139 -0.007031484 -0.0058395406 0.0032319587
0002d0 04 50 18 3b bc 88 c4 bb c2 29 d7 3a aa 5a 93 39
       0.0023241052 -0.0059977453 0.0016415643 0.00028105575
0002e0 a2 1a a2 bb 49 2d 35 bb e9 8b 3b bb 3d a0 78 bb
       -0.0049470225 -0.00276454 -0.0028617328 -0.0037937306
0002f0 f8 d7 e8 bb ad 24 4b bb 91 00 7f 3a 19 34 86 ba
       -0.0071058236 -0.0030997202 0.00097275624 -0.0010238915
000300 53 8e b7 3a c0 fe 18 bb 3a 01 e8 ba 39 7f c2 bb
       0.0014004208 -0.0023345202 -0.0017700561 -0.0059355763
000310 21 dd 80 ba bc 2f ee bb 4b 6d 42 bb 1a e7 1c b9
       -0.0009831527 -0.007268874 -0.0029667194 -0.00014963411
000320 5e d3 c0 ba 9f 8b b3 bb 0a 21 53 bb c6 07 fb ba
       -0.001471143 -0.0054792906 -0.0032215738 -0.0019152097
000330 d4 f5 0e bb f8 99 c7 bb 74 a8 d8 ba 75 db 04 ba
       -0.0021814005 -0.0060913526 -0.0016529695 -0.0005068102
000340 eb 9b 6e 3b e8 ff c8 bb 25 4f 91 bb 99 44 18 3b
       0.0036408852 -0.006134022 -0.0044344836 0.0023234247
000350 02 9b 51 39 ed c2 05 3b 5a 4b b9 bb 91 a9 fa bb
       0.00019989538 0.0020410374 -0.0056547346 -0.0076496084
000360 55 66 d1 ba dd 7e 83 b9 8d 00 fa bb 14 32 25 b9
       -0.0015975932 -0.00025080788 -0.00762946 -0.00015754282
000370 b2 60 24 39 c4 94 19 bb 07 be bc 3a c9 2f 62 3b
       0.0001567628 -0.0023434618 0.0014399894 0.0034513345
000380 dc b6 9d bb ed 97 a9 ba 76 0c e0 bb 00 bd 00 bc
       -0.0048130583 -0.0012938954 -0.006837423 -0.007857561
000390 5b a7 f9 3a d4 29 e3 bb 9f 5c 91 bb 32 24 a5 3a
       0.0019047068 -0.0069324765 -0.00443609 0.0012599288
0003a0 dd b4 61 3a fa 3a 31 bb 6c be a1 bb ab 0d 1a bb
       0.00086100196 -0.002704321 -0.00493603 -0.0023506682
0003b0 04 97 55 3b 18 d5 df ba ae 2c 77 bb 37 ee cb bb
       0.0032591233 -0.0017077057 -0.003771584 -0.006223466
0003c0 e6 90 13 3a e6 72 b2 3a 16 f3 87 bb 66 3c b0 b9
       0.00056291965 0.0013614565 -0.004148851 -0.00033614336
0003d0 f6 eb c5 bb 8b 1c b3 bb 83 ce b2 ba 12 d3 42 3b
       -0.0060400916 -0.005466049 -0.0013641868 0.0029727858
0003e0 34 b2 ba bb c3 d1 81 ba be b3 07 bc 46 27 07 ba
       -0.005697513 -0.0009904433 -0.0082826 -0.00051556935
0003f0 dc 41 47 bb 41 f1 87 bb eb 95 db bb b3 6c 6a b9
       -0.0030404245 -0.0041486328 -0.006701221 -0.00022356473
