model/Discriminator_finetuned_Final.pt (torch, 825159 bytes, 5 tensors)

discriminator.0.weight f4 [16, 3, 4, 4]
-0.13082685 0.10347409 -0.009318386 -0.056666512 -0.06564469 0.085766345 0.08260799 -0.12726508
0.09401771 0.09210784 0.10382554 0.07958133 -0.075859025 0.110732265 0.047126148 -0.05430941
-0.10982214 -0.026115306 0.12593116 -0.03879291 0.03151956 -0.047405396 -0.09116907 -0.060540106
0.096147284 -0.010368927 -0.043814708 -0.06737547 0.0055004205 -0.1256155 -0.03297855 -0.12737033
-0.10271289 0.072299555 0.1113367 0.14206053 -0.015614701 -0.09550234 0.06984363 0.021508828
0.13027096 -0.03178211 -0.07398343 -0.06538899 0.134051 0.034054827 -0.045235697 -0.044552505
0.10192663 -0.0872277 -0.09117865 -0.082831524 -0.057511438 -0.11689673 -0.13769422 0.040247347
-0.13091718 -0.090748854 0.057101563 -0.019119836 -0.073129036 0.057872534 -0.11687666 0.07691849
0.0017893645 -0.053049102 -0.04431551 -0.049736097 -0.15002224 -0.070510596 -0.08853982 -0.034059063
-0.11047066 -0.1447608 0.031779274 -0.07673411 0.06550546 0.0998929 -0.01214623 -0.0960826
-0.034682192 0.1094889 -0.10550203 0.08899545 -0.033765752 -0.014516295 0.0012360984 0.002403056
-0.12508485 -0.10213989 0.030664701 0.022100711 0.07107626 -0.08111388 -0.046150584 0.093071714
-0.04875398 0.12018448 0.064880796 -0.055096313 0.08717029 0.051602006 0.11753484 0.044694863
0.020223858 0.12098004 0.0034926685 0.13337207 0.046066344 0.066133514 0.09406607 0.04722436
0.051332228 -0.06593716 0.027628431 0.08542803 0.090881094 0.03630072 0.036532853 0.09210552
-0.028715657 -0.075211555 -0.03200971 0.12979563 0.1403661 -0.13641511 -0.03669289 0.10759518
0.064382635 -0.018182332 0.033160985 0.05954738 0.04511705 -0.1379901 0.1388693 -0.10014736
-0.12947398 0.08119171 -0.11451515 0.038711622 -0.007972578 0.03363047 -0.10048352 0.035705026
-0.13239071 0.12913501 0.09686773 0.079046026 0.0031422079 0.11171119 0.03070744 -0.06808089
-0.05728933 0.02353908 0.08844766 0.046016924 0.06427427 0.048010297 -0.06621516 -0.058886457
0.06711847 -0.11627434 -0.1346414 -0.034277488 -0.06471359 -0.10200648 -0.083561175 -0.10645804
-0.09385858 0.04558651 -0.07543817 -0.12382399 -0.09797616 -0.06974255 -0.0055417484 -0.017355153
0.03454794 0.021037716 0.06950422 -0.13494581 -0.01928499 0.09902754 0.028889293 0.06479242
0.14199577 0.116231754 0.130668 0.12524824 0.06908469 0.04492625 -0.06285528 -0.017119339
-0.0068523604 -0.09301002 0.12859535 -0.010446944 -0.09162721 0.046527386 -0.08444503 -0.077149004
0.1263248 0.099550836 -0.09847374 -0.05919567 -0.1320239 -0.050061323 0.10995159 -0.036364127
0.027259275 0.11336802 -0.108988024 0.082625076 -0.017446203 0.05495712 0.05628924 -0.044672746
0.12880324 0.11724311 -0.017151047 0.008548551 -0.04750507 0.10733244 -0.09843448 0.10965979
0.0005676616 -0.029737337 0.14237013 0.121837884 0.10618323 -0.026895318 0.107602544 -0.06737728
0.0012156317 0.099162295 0.07631051 -0.023313528 0.07257253 -0.09280944 -0.12442076 -0.102139145
0.114672676 -0.08466138 0.096301235 -0.018991586 0.06841761 -0.01593763 0.045684237 -0.14083757
-0.013097436 0.12796974 0.095730044 -0.010171934 -0.11786641 0.11691124 0.04674539 0.13759764
00000000: 79f7 05be 39ea d33d 25ac 18bc 251b 68bd
00000010: b970 86bd 44a6 af3d 612e a93d c751 02be
00000020: 5b8c c03d 09a3 bc3d 7ca2 d43d 89fb a23d
00000030: fa5b 9bbd 99c7 e23d 5907 413d 8b73 5ebd
00000040: 6eea e0bd c4ef d5bc 19f4 003e 50e5 1ebd
00000050: a71a 013d 292c 42bd d9b6 babd e7f8 77bd
00000060: dee8 c43d 6fe2 29bc 0d77 33bd 27fc 89bd
00000070: df3c b43b 5aa1 00be 8414 07bd 5e6d 02be
00000080: 235b d2bd ca11 943d 7f04 e43d 5178 113e
00000090: ced4 7fbc bb96 c3bd 2d0a 8f3d 4833 b03c
000000a0: c065 053e f52d 02bd a084 97bd aaea 85bd
000000b0: aa44 093e 137d 0b3d 1149 39bd b07c 36bd
000000c0: e9be d03d 70a4 b2bd dfbb babd 93a3 a9bd
000000d0: 1d91 6bbd 8e67 efbd b7ff 0cbe 67da 243d
000000e0: 270f 06be 89da b9bd 54e3 693d 34a1 9cbc
000000f0: adc4 95bd c00b 6d3d 085d efbd 7187 9d3d
00000100: 1c89 ea3a 044a 59bd 2e84 35bd 14b8 4bbd
00000110: 6e9f 19be dc67 90bd 5d54 b5bd 8481 0bbd
00000120: 713e e2bd 2d3c 14be fc2a 023d c626 9dbd
00000130: ba27 863d a694 cc3d fb00 47bc f4c6 c4bd
00000140: ea0e 0ebd b73b e03d 7311 d8bd 3f43 b63d
00000150: f54d 0abd c1d5 6dbc 9404 a23a 977c 1d3b
00000160: 3e16 00be b82e d1bd 8a34 fb3c 8d0c b53c
00000170: 6e90 913d 091f a6bd 6508 3dbd 629c be3d
00000180: 41b2 47bd 4823 f63d 39e0 843d acac 61bd
00000190: 5686 b23d a05c 533d 1bb6 f03d f611 373d
000001a0: 81ac a53c 62c4 f73d 41e5 643b b092 083e
000001b0: 10b0 3c3d 0271 873d b6a5 c03d 556e 413d
000001c0: be41 523d 100a 87bd 0555 e23c e4f4 ae3d
000001d0: de1f ba3d 10b0 143d 79a3 153d d2a1 bc3d
000001e0: 193d ebbc 8408 9abd 9d1c 03bd 25e9 043e
000001f0: 22bc 0f3e 67b0 0bbe 494b 16bd dd5a dc3d
00000200: 0bdb 833d 1df3 94bc d0d3 073d f4e7 733d
00000210: a8cc 383d 474d 0dbe c133 0e3e 0f1a cdbd
00000220: d494 04be d747 a63d eb86 eabd 1490 1e3d
00000230: 6a9f 02bc 1bc0 093d 4eca cdbd 6f3f 123d
00000240: 6e91 07be f83b 043e 9762 c63d e2e2 a13d
00000250: 80ed 4d3b d6c8 e43d 2b8e fb3c fe6d 8bbd
00000260: 37a8 6abd 07d5 c03c 0c24 b53d 3e7c 3c3d
00000270: 3aa2 833d 72a6 443d d09b 87bd ed32 71bd
00000280: 6975 893d 3e21 eebd 6fdf 09be 8d66 0cbd
00000290: 8f88 84bd c6e8 d0bd 1f22 abbd ac06 dabd
000002a0: ed38 c0bd ecb8 3a3d 547f 9abd 6f97 fdbd
000002b0: baa7 c8bd 2fd5 8ebd 8e97 b5bb 652c 8ebc
000002c0: 2482 0d3d 4a57 ac3c 3a58 8e3d 3c2f 0abe
000002d0: 8efb 9dbc f3ce ca3d 3da9 ec3c e3b1 843d
000002e0: 5767 113e ea0a ee3d d5cd 053e 1341 003e
000002f0: 467c 8d3d 9604 383d 45ba 80bd db3d 8cbc
00000300: c489 e0bb 0a7c bebd 80ae 033e a929 2bbc
00000310: 0ca7 bbbd 8093 3e3d 84f1 acbd 4c00 9ebd
00000320: 4a5b 013e 4fe1 cb3d 9aac c9bd 2977 72bd
00000330: 4631 07be 1a0d 4dbd 4d2e e13d 8df2 14bd
00000340: d84e df3c 7e2d e83d 1d35 dfbd 5637 a93d
00000350: 57eb 8ebc b81a 613d 8c8f 663d c5fa 36bd
00000360: ffe4 033e 281d f03d 5a80 8cbc 390f 0c3c
00000370: ad94 42bd 1cd1 db3d 0498 c9bd 5095 e03d
00000380: 20cf 143a b79b f3bc 7ac9 113e 2486 f93d
00000390: 9876 d93d 9253 dcbc b95e dc3d 19fd 89bd
000003a0: d555 9f3a 9a15 cb3d af48 9c3d 03fc bebc
000003b0: e8a0 943d e012 bebd 50d0 febd 542e d1bd
000003c0: 82d9 ea3d f262 adbd 9539 c53d 3e94 9bbc
000003d0: 881e 8c3d a28f 82bc 651f 3b3d b937 10be
000003e0: a196 56bc 800a 033e 1d0e c43d 2fa8 26bc
000003f0: f263 f1bd 296f ef3d 1878 3f3d 65e6 0c3e

discriminator.2.weight f4 [32, 16, 4, 4]
0.024523508 0.007972498 0.016753277 0.0335564 -0.014838266 -0.05190689 0.0402993 -0.014926499
0.022379475 0.019877441 0.00028673492 0.055414308 0.003501672 0.025821375 -0.028585741 0.0388731
-0.021477176 -0.05438592 -0.055246726 -0.04531136 0.002707679 0.007974117 -0.023328943 -0.015079346
-0.052525386 -0.056670655 -0.05411289 0.051144943 -0.028924836 -0.040846027 0.0067821415 0.019820629
-0.05848867 0.019089114 0.005538082 -0.021476608 0.0004966813 -0.05396828 0.0044412967 0.06257455
0.024956835 0.025415983 0.023846863 -0.04223062 -0.04695043 -0.051520232 0.06304882 0.030466868
-0.04191024 0.03609299 0.032564852 0.04354653 0.010255585 0.03997767 -0.038277768 0.04266087
0.024877066 -0.014851989 0.03526181 -0.050201714 0.006858679 0.037466116 0.03990793 -0.03328063
0.011444166 0.035289057 0.00639181 0.0019878333 -0.031651385 0.032765914 0.049274515 0.01503233
-0.047913775 0.010189616 -0.01564984 -0.011183474 0.04724386 -0.002265146 -0.014798987 0.044828504
0.058523916 -0.023689471 -0.016812187 0.03402722 0.045803696 -0.058367833 -0.020814516 -0.0013245295
-0.034116346 0.010207032 -0.020246092 0.0050311717 0.056391135 0.025507566 0.022925366 -0.057019476
-0.027109431 -0.0031593915 0.026075114 0.020190218 -0.027227335 0.04636805 -0.012477918 -0.05759533
-0.017246857 -0.032174245 0.022239437 0.045323323 -0.014949517 0.012334937 0.061092757 0.014852992
0.02147311 -0.041650098 -0.015920667 -0.014379748 -0.014182524 -0.046318844 -0.044521596 0.048530538
0.003200904 0.009605096 -0.032475255 -0.045660306 -0.004179779 -0.05585218 0.022210415 0.05638375
-0.044145912 -0.045796968 0.0053388714 0.020255003 0.0046709245 -0.039678276 0.03467879 0.033394944
0.030227246 0.033599295 0.039324924 0.060451522 -0.045814678 0.05626011 -0.032251373 -0.018460836
-0.032340642 0.0031446663 0.03745365 -0.04295769 -0.037624337 -0.022036733 -0.026353523 0.057366755
0.050446928 0.04768612 -0.02135937 0.052611127 -0.03902287 -0.048014548 0.014727122 -0.02655629
-0.033167634 -0.07160457 -0.027063277 -0.021879556 0.046446737 0.009355327 -0.011687404 -0.04632872
-0.010723224 -0.033534937 0.011694629 -0.01842372 -0.04961163 0.03620883 0.016674902 -0.019652769
0.049444214 -0.024999125 -0.048856407 -0.03223957 -0.046184134 -0.067160085 -0.028121931 0.044320382
0.0034335614 0.012931272 0.023654439 -0.057813536 -0.012582094 0.013921342 0.037448853 -0.06253987
-0.0048734886 0.0391147 0.060128577 -0.014658505 0.044686668 -0.013237281 -0.060090456 0.006064974
-0.024900451 0.012015365 0.010920405 0.042477462 -0.02656522 -0.055544365 0.00957987 0.022370534
-0.025132759 -0.048644498 -0.04038142 -0.05215332 -0.029379852 0.040033106 -0.009834122 -0.02461915
0.021754835 0.02505652 0.0517063 0.000351764 -0.05453661 0.056053262 0.03948875 -0.03336371
-0.04130258 -0.036902368 0.017878467 0.001259231 -0.0039916495 0.0043558204 -0.009046252 -0.05499255
-0.056375228 0.025185095 -0.043467566 -0.0567312 -0.03977487 -0.010041284 0.010495401 0.059431892
-0.051330283 -0.02421241 -0.012663993 -0.05483309 -0.05815651 -0.01061502 0.022883208 0.027235398
-0.031581193 0.0036716752 0.05712155 0.01488015 0.013917264 0.055790007 -0.044705488 0.05319331
00000000: 86e5 c83c 159f 023c 2b3e 893c 7072 093d
00000010: 331c 73bc 529c 54bd e110 253d 468e 74bc
00000020: 2955 b73c 04d6 a23c e954 9639 1dfa 623d
00000030: 4f7c 653b 5987 d33c a52c eabc 6639 1f3d
00000040: e7f0 afbc c5c3 5ebd 644a 62bd 6898 39bd
00000050: 5173 313b dfa5 023c 571c bfbc 5c0f 77bc
00000060: dc24 57bd 7d1f 68bd 7aa5 5dbd 5c7d 513d
00000070: c7f3 ecbc 2a4e 27bd ba3c de3b df5e a23c
00000080: d191 6fbd c660 9c3c cd78 b53b b6ef afbc
00000090: b833 023a d80d 5dbd 4c88 913b 1627 803d
000000a0: 4772 cc3c 2e35 d03c 7f5a c33c 04fa 2cbd
000000b0: 184f 40bd e106 53bd bd1f 813d a795 f93c
000000c0: 12aa 2bbd 3ed6 133d b962 053d d95d 323d
000000d0: 0b07 283c a0bf 233d 26c9 1cbd 2abd 2e3d
000000e0: fdca cb3c c255 73bc b06e 103d 50a0 4dbd
000000f0: c5be e03b 1276 193d 7f76 233d 4551 08bd
00000100: 5080 3b3c 428b 103d 6372 d13b 4f46 023b
00000110: e2a4 01bd 8d35 063d 13d4 493d 294a 763c
00000120: 3c41 44bd 59f2 263c 1834 80bc e43a 37bc
00000130: c782 413d d872 14bb 7377 72bc 189e 373d
00000140: c6b6 6f3d 6c10 c2bc b6b9 89bc 2060 0b3d
00000150: a89c 3b3d 1c13 6fbd 3483 aabc d69b adba
00000160: 95bd 0bbd 653b 273c 22db a5bc 87dc a43b
00000170: 64fa 663d 3ef5 d03c facd bb3c 418d 69bd
00000180: 9914 debc cb0d 4fbb 7a9b d53c f565 a53c
00000190: dc0b dfbc 6dec 3d3d 2e70 4cbc 15e9 6bbd
000001a0: 4849 8dbc 24c9 03bd 7b2f b63c f3a4 393d
000001b0: d2ee 74bc 7a18 4a3c 663c 7a3d f759 733c
000001c0: 60e8 af3c 4b99 2abd 0f6c 82bc 0999 6bbc
000001d0: d15d 68bc d4b8 3dbd 475c 36bd f5c7 463d
000001e0: 42c6 513b b15e 1d3c c604 05bd 4d06 3bbd
000001f0: 87f6 88bb 41c5 64bd 9ef2 b53c a6f2 663d
00000200: 58d2 34bd 9a95 3bbd b3f1 ae3b d2ed a53c
00000210: 8e0e 993b b085 22bd 590b 0e3d 23c9 083d
00000220: 219f f73c 6a9f 093d 2c13 213d 049c 773d
00000230: 2ca8 3bbd 0071 663d 041a 04bd 2e3b 97bc
00000240: 9f77 04bd bf16 4e3b 0069 193d 67f4 2fbd
00000250: fa1b 1abd 6186 b4bc 58e3 d7bc 67f9 6a3d
00000260: 70a1 4e3d 8552 433d d8f9 aebc c47e 573d
00000270: 72d6 1fbd e7aa 44bd 074a 713c 948c d9bc
00000280: c9da 07bd 6ba5 92bd ceb3 ddbc c13c b3bc
00000290: ef3e 3e3d 1647 193c 867c 3fbc 2fc3 3dbd
000002a0: 76b0 2fbc ee5b 09bd d49a 3f3c 57ed 96bc
000002b0: 9135 4bbd b64f 143d ce99 883c d8fe a0bc
000002c0: 0486 4a3d f7ca ccbc a81d 48bd a40d 04bd
000002d0: 932b 3dbd 3a8b 89bd f75f e6bc 4a89 353d
000002e0: 9a05 613b b0dd 533c f4c6 c13c e3cd 6cbd
000002f0: 2125 4ebc 5716 643c f863 193d e714 80bd
00000300: c9b1 9fbb bc36 203d 6249 763d 3a2a 70bc
00000310: 5e09 373d 2ee1 58bc 6921 76bd b0bc c63b
00000320: 08fc cbbc 18dc 443c 80eb 323c d9fc 2d3d
00000330: 4e9f d9bc 7d82 63bd e3f4 1c3c 6942 b73c
00000340: 37e3 cdbc 743f 47bd fd66 25bd b89e 55bd
00000350: 04ae f0bc c1f9 233d 4c1f 21bc 1aae c9bc
00000360: 3237 b23c 5543 cd3c fcc9 533d f76c b839
00000370: c861 5fbd 1b98 653d f5be 213d 63a8 08bd
00000380: e52c 29bd f026 17bd dd75 923c c80c a53a
00000390: 62cc 82bb 45bb 8e3b bb36 14bc de3f 61bd
000003a0: b6e9 66bd f950 ce3c 0c0b 32bd fa5e 68bd
000003b0: f9ea 22bd 3384 24bc e7f4 2b3c db6e 733d
000003c0: b43f 52bd 1b59 c6bc a37c 4fbc aa98 60bd
000003d0: 8535 6ebd 9fea 2dbc 9175 bb3c c51c df3c
000003e0: 485b 01bd 7da0 703b 49f8 693d dfcb 733c
000003f0: 3c05 643c 1084 643d 1a1d 37bd 3ae1 593d

discriminator.4.weight f4 [64, 32, 4, 4]
0.004852029 0.008377656 -0.03711838 -0.023300845 0.0181803 -0.017223785 -0.028769363 0.014437508
0.023909539 0.03207767 -0.022799168 -0.009249655 -0.021798586 0.027629552 0.026040481 0.01792077
-0.024551222 0.016612107 -0.007385553 -0.03022188 -0.039419044 0.0036120308 -0.007681498 -0.029144317
-0.018434484 0.027691292 -0.010286471 0.021424059 0.003840736 0.015908282 -0.0054436247 0.03650848
-0.0411913 -0.027661752 -0.03027252 0.001866036 0.0029043017 -0.034766696 -0.03700494 -0.03652636
-0.0006750465 0.021733692 -0.002633881 -0.020895394 0.016043153 0.032762967 -0.0014012433 0.033644717
0.003012623 0.009273951 -0.002553359 0.036060207 0.003606099 -0.03795121 0.04276694 0.03463837
-0.029763006 0.022295596 -0.0013364461 -0.03180198 -0.010936995 -0.022160165 0.017065935 0.007120857
0.03595318 -0.0052289334 0.033380337 0.0072798203 0.044872325 0.010695223 0.004119176 0.042468775
0.036558982 -0.012720497 -0.022973964 0.022122007 0.014882353 -0.040321436 0.001085799 0.009426315
-0.019340185 0.016125971 0.032872237 -0.037509345 -0.0031770295 0.020931128 0.029570127 0.02313159
0.041264597 -0.010662371 -0.012076197 0.026420651 0.0058022253 0.02829224 0.021485116 -0.021700932
0.008601777 0.00068472495 -0.036381032 -0.026086057 -0.008311813 -0.037093107 0.0020444298 -0.016650248
0.00660341 0.011976481 -0.007429777 -0.0041076094 0.023618575 0.029099641 0.014053219 0.01734665
0.000238681 -0.012847951 0.001815731 0.039694957 0.020252276 0.038371827 -0.013293206 0.01644321
0.047324717 0.0055657825 -0.007983326 0.033295132 0.04827935 -0.012876813 0.027794639 0.04598433
0.037024334 -0.014402478 0.013557053 -0.0048096646 0.044795122 -0.036544252 -0.017745644 -0.0056915246
0.03236123 0.024100263 0.019442191 0.033264164 -0.01678702 -0.010747999 0.033201195 -0.01837194
-0.0039344663 0.012556345 0.031915914 -0.00766036 -0.033437904 -0.03258323 0.033411767 -0.0031663743
-0.01786745 0.03816302 0.029438166 -0.0032962984 0.008784065 0.024908217 -0.005801077 -0.032239307
-0.032603476 -0.027398054 0.016199872 0.04656875 -0.0013650134 -0.00026550086 0.03734309 0.009330273
0.047581516 -0.029613094 0.026909279 -0.0102735525 -0.018068628 -0.03324355 0.012672904 0.0050877985
-0.014944253 0.035005722 -0.032470234 0.02433446 0.027204586 -0.00057730795 0.029133908 0.020099279
0.012369288 -0.040751547 0.0074882424 0.026690954 0.023288246 -0.037362956 -0.029360224 0.022029717
0.030877987 -0.010630662 -0.0043408084 0.0017416712 -0.03881851 0.009395537 0.0027677938 -0.019748611
-7.837632e-05 -0.032910973 0.013300244 -0.025404131 -0.03117559 -0.0039927564 -0.034930952 0.00455956
-0.025403729 0.0019804318 -0.038137887 0.019411966 -0.00206604 0.029903036 -0.022619257 -0.0010790756
0.04024468 0.038686432 -0.023242664 0.010710248 0.0008756029 -0.038226068 0.012313717 0.011204409
-0.0038540263 0.0063987756 -0.036360122 0.015242742 0.038653664 -0.011260429 -0.025139004 0.0142102
-0.009250812 0.014963141 -0.042653073 -0.03337893 0.013502053 0.03893961 -0.0075739566 -0.014607953
0.006810867 0.001845525 -8.371207e-05 -0.017680572 0.018111713 0.03763294 0.02791614 0.0075526773
0.0014639951 -0.03845585 -0.036465377 -0.012885856 -0.037208512 0.023210693 -0.033722036 -0.011824269
00000000: c5fd 9e3b 7042 093c 7109 18bd 6ae1 bebc
00000010: daee 943c e518 8dbc baad ebbc 4c8b 6c3c
00000020: f0dd c33c e063 033d 52c5 babc dd8b 17bc
00000030: f392 b2bc 5f57 e23c d952 d53c 94ce 923c
00000040: a51f c9bc 1d16 883c 8202 f2bb e093 f7bc
00000050: dd75 21bd d2b7 6c3b 13b5 fbbb 10c0 eebc
00000060: ea03 97bc d9d8 e23c 9688 28bc 8281 af3c
00000070: dcb4 7b3b 1652 823c 6f60 b2bb ea89 153d
00000080: 35b8 28bd e69a e2bc 13fe f7bc c795 f43a
00000090: 1956 3e3b 8667 0ebd 7e92 17bd aa9c 15bd
000000a0: 9bf5 30ba db0a b23c 319d 2cbb d12c abbc
000000b0: ee6c 833c 7632 063d eca9 b7ba 0bcf 093d
000000c0: 6d6f 453b c5f1 173c 4156 27bb deb3 133d
000000d0: 4d54 6c3b ba72 1bbd 632c 2f3d f7e0 0d3d
000000e0: 8cd1 f3bc 41a5 b63c b12b afba cb42 02bd
000000f0: 1531 33bc 3c89 b5bc dccd 8b3c 1456 e93b
00000100: a443 133d 7957 abbb d2b9 083d 8f8b ee3b
00000110: 0bcc 373d 043b 2f3c 27fa 863b bdf3 2d3d
00000120: dfbe 153d a269 50bc e533 bcbc 3639 b53c
00000130: 1dd5 733c 1728 25bd 5e51 8e3a d570 1a3c
00000140: 4f6f 9ebc 9d1a 843c 0aa5 063d 66a3 19bd
00000150: b635 50bb c277 ab3c 0d3d f23c 767e bd3c
00000160: 1105 293d 3ab1 2ebc 3edb 45bc 1f70 d83c
00000170: 9820 be3b 21c5 e73c 8e01 b03c 27c6 b1bc
00000180: 78ee 0c3c 1d7f 333a 4704 15bd 6db2 d5bc
00000190: 452e 08bc f1ee 17bd d7fb 053b 1a66 88bc
000001a0: 6b61 d83b 0139 443c 7d75 f3bb 2099 86bb
000001b0: be7b c13c 5f62 ee3c 793f 663c 901a 8e3c
000001c0: 7146 7a39 3680 52bc d3fd ed3a 2e97 223d
000001d0: 1ae8 a53c c72b 1d3d bfcb 59bc e9b3 863c
000001e0: 90d7 413d 2b61 b63b 7fcc 02bc 7a60 083d
000001f0: 91c0 453d 45f9 52bc 95b1 e33c 115a 3c3d
00000200: d4a6 173d 5ff8 6bbc 671e 5e3c 649a 9dbb
00000210: 177b 373d 6daf 15bd 505f 91bc f87f babb
00000220: 368d 043d ea6d c53c 3b45 9f3c 0140 083d
00000230: ef84 89bc 6018 30bc fafd 073d c080 96bc
00000240: b2ec 80bb 21b9 4d3c 43ba 023d c203 fbbb
00000250: 2ff6 08bd fe75 05bd c7da 083d f282 4fbb
00000260: c25e 92bc d450 1c3d 4f28 f13c b606 58bb
00000270: 0aeb 0f3c 510c cc3c f616 bebb 5d0d 04bd
00000280: 398b 05bd e271 e0bc 98b5 843c e0be 3e3d
00000290: 40ea b2ba ec32 8bb9 11f5 183d 00de 183c
000002a0: d6e4 423d 2997 f2bc d970 dc3c 6752 28bc
000002b0: a904 94bc 642a 08bd 03a2 4f3c 8cb7 a63b
000002c0: bdd8 74bc 2962 0f3d 82ff 04bd 1059 c73c
000002d0: 27dc de3c 7b56 17ba 3caa ee3c 3ea7 a43c
000002e0: 8ea8 4a3c 18eb 26bd ee5f f53b fda6 da3c
000002f0: fec6 be3c e609 19bd da84 f0bc aa77 b43c
00000300: d5f3 fc3c 3a2c 2ebc 573d 8ebb ca48 e43a
00000310: 2800 1fbd bdef 193c e063 353b d7c7 a1bc
00000320: f75d a4b8 a8cd 06bd 44e9 593c 531c d0bc
00000330: f363 ffbc abd5 82bb c213 0fbd 5d68 953b
00000340: 7b1b d0bc 22ca 013b 7936 1cbd d805 9f3c
00000350: 6666 07bb 36f7 f43c 054c b9bc c56f 8dba
00000360: 9bd7 243d aa75 1e3d 6667 bebc 097a 2f3c
00000370: b788 653a f092 1cbd 79bf 493c b392 373c
00000380: d593 7cbb d2ac d13b 5aee 14bd b2bc 793c
00000390: 4e53 1e3d aa7d 38bc 50f0 cdbc e6d1 683c
000003a0: b890 17bc f627 753c fdb4 2ebd 58b8 08bd
000003b0: b737 5d3c 247f 1f3d f42e f8bb 3256 6fbc
000003c0: b22d df3b 8be5 f13a 938e afb8 d9d6 90bc
000003d0: 045f 943c ff24 1a3d 64b0 e43c 737c f73b
000003e0: 86e3 bf3a e283 1dbd b85c 15bd 331f 53bc
000003f0: f467 18bd 5a24 be3c 1e20 0abd 94ba 41bc

discriminator.6.weight f4 [128, 64, 4, 4]
-0.018473506 -0.0030085314 0.03206325 0.007125636 0.023814768 -0.0025154443 0.02824095 -0.016257215
-0.018044576 0.023609323 0.012476534 0.01585122 0.022421988 0.028202303 0.013023525 -0.0010172368
-0.005713356 0.0070651383 0.011468724 -0.016879462 0.026393829 -0.018449213 -0.012825656 -0.021922205
-0.0070603136 -0.022371648 -0.0037916747 -0.022062212 0.00042763923 0.012414462 -0.027088515 -0.022053603
0.017898008 0.030102778 0.0130701475 -0.01615378 0.026432738 -0.00368062 -0.014900308 -0.0064645517
0.028292252 0.019278603 -0.017515626 0.027326047 0.006705595 -0.017012909 0.0007133837 -0.009143879
-0.0059129745 -0.009953743 0.022906145 -0.0010094923 -0.019152826 0.0141175585 0.008583699 0.0193762
-0.02401472 -0.022092363 -0.023321833 0.0043508373 0.020238677 0.0065829353 -0.0330243 0.026533281
0.01042579 -0.008923635 -0.009102871 0.02118308 -0.032819968 -0.034622587 0.010891081 -0.0051863035
-0.029253758 0.02108484 0.005962491 -0.02949814 -0.0036462608 0.0024638595 -0.034112923 0.0071371226
-0.01561096 -0.018585766 -0.00094164704 0.017622788 0.010935644 -0.011765346 -0.01903948 0.017155232
0.009149873 -0.022682363 0.031015124 -0.022540098 -0.0076914374 0.013064481 0.024953522 -0.014528322
0.02657358 0.016225219 -0.023703277 0.028488765 0.005247093 0.0044199205 0.033575226 -0.007543142
-0.00368578 0.023957545 -0.010103612 -0.019514346 0.026270946 -0.01732631 0.028143179 0.016045207
0.020615485 -0.010885675 0.034024857 0.005542484 0.0107336 -0.0046702432 0.021258295 0.020054847
0.018155318 -0.019754402 0.028284619 0.028533582 0.004955411 0.0043050176 0.019987619 -0.021793565
-0.0261575 0.030762387 -0.005314431 -0.0012055254 0.010824077 -0.010878973 0.00890267 -0.005374258
-0.008643138 -0.011391679 0.0067782835 0.0061408766 0.00786499 0.009407675 0.013205403 0.00011707528
-0.024905186 -0.0126640005 -0.010306296 0.020570133 0.028023468 0.007858045 -0.022168148 -0.017735003
0.022200126 0.0058248877 -0.02442049 0.028562315 0.028306881 -0.017358525 0.0015511636 -0.015492432
-0.014213298 -0.011283103 0.0059238994 -0.016483886 -0.014939288 0.00875352 -0.003331333 0.03410317
0.01833804 0.0039137383 0.010139289 0.012995546 0.022084652 0.023639893 -0.02456022 -0.0035748265
0.016473165 0.013590637 0.00085520465 0.0033619378 -0.010496738 -0.02037774 0.012655372 -0.01139363
-0.02112257 0.02736073 0.0025993825 0.026074162 -0.023315402 0.012273404 0.009153515 0.0044436934
0.023293868 -0.015035415 0.01631067 0.015275602 -0.0064290278 0.015752314 -0.019053616 0.029989276
0.014719963 -0.0024193872 0.015562177 0.024112307 0.0019128106 0.028481143 0.0019176607 -0.023829445
-0.016322173 0.019183965 -0.009920493 -0.019119214 -0.004238498 0.023282826 -0.011716879 -0.004214291
-0.008001706 0.025437914 -0.012804092 0.013785132 -0.022668494 -0.018067488 -0.016387174 0.030568033
0.03169504 0.03226815 0.014261939 0.033457518 -0.0031929337 -0.002026274 -0.0039832336 0.019056154
0.027210016 -0.007943916 0.011468425 0.034155883 -0.01935356 0.02187412 0.028934086 -0.028593715
0.007245251 -0.009195177 -0.006617803 0.0005893357 0.018859155 0.033926185 0.019265225 0.029461186
-0.007932289 0.026201686 -0.0080468 -0.012949418 0.006936232 0.010081107 0.00094784604 -0.017881358
00000000: c055 97bc c82a 45bb c154 033d 2b7e e93b
00000010: 3017 c33c 27da 24bb 9159 e73c da2d 85bc
00000020: 38d2 93bc 5768 c13c 606a 4c3c 6bda 813c
00000030: 51ae b73c 8408 e73c 9f60 553c ce54 85ba
00000040: 1b37 bbbb ad82 e73b 51e7 3b3c cc46 8abc
00000050: df37 d83c ce22 97bc b322 52bc 3296 b3bc
00000060: 345a e7bb bf44 b7bc bf7d 78bb d0bb b4bc
00000070: c434 e039 0766 4b3c bce8 ddbc c2a9 b4bc
00000080: d89e 923c 1a9a f63c 2c24 563c ef54 84bc
00000090: 7889 d83c 8f36 71bb 6c20 74bc 97d4 d3bb
000000a0: 27c5 e73c 29ee 9d3c ee7c 8fbc e0da df3c
000000b0: 9cba db3b a85e 8bbc 5f02 3b3a 35d0 15bc
000000c0: a0c1 c1bb 0615 23bc aba5 bb3c f150 84ba
000000d0: 63e6 9cbc 554d 673c a5a2 0c3c d6ba 9e3c
000000e0: 85ba c4bc 0bfb b4bc 6e0d bfbc 7891 8e3b
000000f0: 95cb a53c aab5 d73b 7d44 07bd 535c d93c
00000100: efd0 2a3c 7034 12bc 3524 15bc 2388 ad3c
00000110: 3b6e 06bd 6ad0 0dbd 8170 323c def1 a9bb
00000120: 94a5 efbc 1dba ac3c 0061 c33b 15a6 f1bc
00000130: 1bf6 6ebb b478 213b feb9 0bbd 86de e93b
00000140: 1dc5 7fbc 2d41 98bc ddd8 76ba aa5d 903c
00000150: 6a2b 333c 70c3 40bc aff8 9bbc 2189 8c3c
00000160: 59e9 153c 5dd0 b9bc 6e13 fe3c 03a6 b8bc
00000170: 7408 fcbb 680c 563c 546b cc3c 3308 6ebc
00000180: d6b0 d93c c0ea 843c 602d c2bc 4561 e93c
00000190: ceef ab3b fbd4 903b 2d86 093d 762c f7bb
000001a0: 218d 71bb 9d42 c43c 9f89 25bc 8ddc 9fbc
000001b0: 2b36 d73c e8ef 8dbc 868c e63c 3d71 833c
000001c0: cee1 a83c d559 32bc a65d 0b3d ba9d b53b
000001d0: fbdb 2f3c d708 99bb e025 ae3c 104a a43c
000001e0: 76ba 943c fcd3 a1bc 25b5 e73c 42bf e93c
000001f0: 0061 a23b 1b11 8d3b 13bd a33c 6b88 b2bc
00000200: 4148 d6bc 6701 fc3c ae24 aebb b802 9eba
00000210: 7857 313c b83d 32bc 81dc 113c 8b1a b0bb
00000220: f39b 0dbc 2aa4 3abc 5d1c de3b 6839 c93b
00000230: 29dc 003c a622 1a3c 7a5b 583c 5086 f538
00000240: f605 ccbc ab7c 4fbc bddb 28bc b282 a83c
00000250: 7991 e53c 08bf 003c fa99 b5bc ff48 91bc
00000260: 0add b53c b3de be3b 7b0d c8bc 84fb e93c
00000270: d5e3 e73c 7733 8ebc 6a50 cb3a f8d3 7dbc
00000280: e5de 68bc c4dc 38bc 451d c23b 3709 87bc
00000290: eac3 74bc ed6a 0f3c 7e52 5abb c4af 0b3d
000002a0: a839 963c d13e 803b 431f 263c 45eb 543c
000002b0: dfea b43c 73a8 c13c 8432 c9bc a347 6abb
000002c0: bbf2 863c 43ab 5e3c d02f 603a f553 5c3b
000002d0: 83fa 2bbc 38ef a6bc 7a58 4f3c 59ac 3abc
000002e0: 3d09 adbc 9c23 e03c 675a 2a3b 7b99 d53c
000002f0: f1ff bebc 6316 493c a0f8 153c 679c 913b
00000300: c8d2 be3c 1a57 76bc f49d 853c 8546 7a3c
00000310: 98aa d2bb ff0a 813c 5416 9cbc 12ac f53c
00000320: 002c 713c 958e 1ebb 80f8 7e3c 2c87 c53c
00000330: 46b7 fa3a 4951 e93c 045a fb3a f835 c3bc
00000340: 14b6 85bc b127 9d3c 9089 22bc e69f 9cbc
00000350: 19e3 8abb a0bb be3c 27f8 3fbc 0918 8abb
00000360: 9619 03bc 2c63 d03c 41c8 51bc 09db 613c
00000370: 47b3 b9bc 4502 94bc 653e 86bc d069 fa3c
00000380: a9d2 013d 9c2b 043d e8aa 693c c00a 093d
00000390: 8a40 51bb 3dcb 04bb c985 82bb a71b 9c3c
000003a0: 8ae7 de3c 3327 02bc 10e6 3b3c 0ae7 0b3d
000003b0: 5b8b 9ebc 5b31 b33c 2d07 ed3c 5e3d eabc
000003c0: 9269 ed3b 5ea7 16bc 28da d8bb a67d 1a3a
000003d0: 847e 9a3c 2ff6 0a3d 1bd2 9d3c 9658 f13c
000003e0: 6ef6 01bc eba4 d63c bad6 03bc cc29 54bc
000003f0: 5549 e33b 3a2b 253c df78 783a ed7b 92bc

adv_layer.0.weight f4 [1, 32768]
0.00029918813 0.0035713355 -0.0024581994 -0.0031074772 0.0043481397 0.000705318 0.004069226 0.00050067285
0.0048464537 0.001744982 0.0057919775 0.004834982 0.00014579193 -0.00014668991 0.0016221243 0.00069174235
-0.0006535447 0.0047881124 -0.0021472978 0.00019515214 0.00552318 -3.8853017e-07 -0.0023326536 -0.0017884682
-0.003885452 0.006006032 -0.0037252945 0.0043185004 0.004045043 0.0041816006 0.0029606656 0.0023217588
0.0016931494 -0.0016317477 0.0020573174 0.0020455888 -0.0023188572 -0.001553352 0.0018975745 -0.0047796336
0.0034922105 -0.0038718535 -0.0020289046 -0.00054670894 -0.0016895547 0.003298029 0.0029800376 0.0017482941
0.0007259309 0.0015519307 -0.00023826658 -0.0041598603 0.0015902482 -0.00038831242 0.0001088306 0.002396704
5.210741e-06 -0.0049940413 -0.002107746 0.0003327762 0.003975261 -0.003130489 0.0014262592 -0.0018656877
0.0035646358 -9.104863e-05 -0.0020858692 0.0030038406 -0.00015136578 -0.003046634 0.0011795651 -0.00085320533
0.003553645 0.00062553963 -0.0016904741 0.0006210947 -0.002608447 1.2869714e-05 0.0013250323 0.0010641175
0.0042653033 0.0045036906 0.0018330016 0.002696769 0.003774659 0.0038669943 0.0024722058 0.003522971
-0.0003961313 -0.0012455977 -0.0005097513 -0.0014664488 -0.0013967948 -0.0033611893 -0.00061652105 0.0015816207
0.00015887823 0.0019701254 -0.003731322 0.002128416 0.0062724696 -0.002065342 -0.0014446869 -4.1500705e-05
-0.0018136116 -0.0007595774 0.0043157768 -0.0020796747 -0.0028994584 0.0010265694 5.8851936e-05 -0.0013694386
-0.00073862186 -0.0010161274 -0.0038919174 -0.0019740877 0.0024217723 -0.0016251984 -6.863043e-05 -0.004927325
0.00037616896 -0.0017687475 0.0032148547 0.0018066111 0.003633865 0.004725691 -0.0035219728 0.00476248
0.0006736711 0.002141626 0.00014739121 0.003124296 0.005141113 -0.0022079202 0.0027753743 0.00061802875
-0.0015002748 0.0016158988 -0.0015513896 -0.004445529 0.0028637794 0.0031859947 0.004388811 -0.0003177
-0.0022372105 -6.5495056e-05 -0.0010574491 0.00014598519 0.003507074 -0.00016911638 -0.0017378427 0.0020114463
0.00748774 0.0011140797 0.004498161 -0.0041216095 0.002395825 0.00062643114 -0.0024695569 -0.00341645
0.0042616706 -0.00014758599 0.0003328086 0.0016780872 0.0011889897 -0.0016816353 0.0039685275 0.0040538902
0.0044881855 -0.0027594399 0.0030745545 -0.0012589825 0.0033612987 0.00032022173 0.0033588482 -0.0034723359
0.0016412735 -0.0025966344 -0.0021853715 0.0035247921 0.004528085 -0.0018288502 0.0040692072 0.0045624534
-0.0015199034 -0.00016669914 -0.00019500709 -0.0005704711 -0.0025602411 0.0010989468 0.0038646453 0.00044712357
0.0019910592 0.001099323 0.00096467836 -0.003213986 0.002451869 -0.0032958586 0.001163895 0.0033596773
0.0027718735 -0.0016120482 -0.0010473966 8.655566e-05 0.00086653477 -0.00034656408 0.0014473451 0.0010302984
0.0030872473 -0.0023775552 -0.0010575331 0.0036871745 0.0006917821 0.0045822957 -0.003577004 -0.003616691
0.0018010553 0.0016845448 -0.0030405757 0.0023723994 0.0029838108 0.001643582 0.0028129215 0.0027139666
-0.0014885699 0.0011127229 -0.002913234 -0.0028223353 0.00430328 -0.0029069977 -0.0002458458 0.0033866584
0.0039005245 -2.997012e-05 0.00047503947 0.00033647646 0.006202856 0.00077597855 0.00022265057 -0.0016420064
0.0025864067 0.0037197657 0.00013142913 0.0013289795 0.001039028 -0.0012168473 0.0018975205 0.005185494
-0.002054454 0.0021659962 -0.001556426 0.0015438288 -0.0019150059 -0.0010236299 -0.0029238309 0.0035334504
00000000: 5adc 9c39 110d 6a3b be19 21bb d1a6 4bbb
00000010: d77a 8e3b 17e5 383a 2457 853b 963f 033a
00000020: 00cf 9e3b e1b7 e43a a1ca bd3b c56e 9e3b
00000030: b9df 1839 c6d0 19b9 769d d43a 0b56 353a
00000040: a452 2bba 99e5 9c3b aeb9 0cbb c1a1 4c39
00000050: cbfb b43b 2e97 d0b4 6fdf 18bb 096b eaba
00000060: 11a3 7ebb 40ce c43b 1224 74bb 3582 8d3b
00000070: 488c 843b cf05 893b ba07 423b a628 183b
00000080: abec dd3a 5ee0 d5ba 0fd4 063b 490f 063b
00000090: f8f7 17bb d899 cbba 09b8 f83a 799e 9cbb
000000a0: 92dd 643b ecbe 7dbb 5ff7 04bb 0451 0fba
000000b0: 0c74 ddba bf23 583b bc4c 433b 0427 e53a
000000c0: 664c 3e3a 276a cb3a 33d7 79b9 704f 88bb
000000d0: e06f d03a 6996 cbb9 fc3b e438 0512 1d3b
000000e0: edd7 ae36 0ea5 a3bb 1c22 0abb 7778 ae39
000000f0: e842 823b e428 4dbb 51f1 ba3a 178a f4ba
00000100: aa9c 693b 5cf1 beb8 14b3 08bb 15dc 443b
00000110: f1b7 1eb9 09aa 47bb a39b 9a3a a4a9 5fba
00000120: 45e4 683b 41fb 233a e692 ddba f6d0 223a
00000130: 7bf2 2abb 00eb 5737 b5ac ad3a dc79 8b3a
00000140: f5c3 8b3b b293 933b 5441 f03a 47bc 303b
00000150: 4560 773b 666d 7d3b bb04 223b a5e1 663b
00000160: d8af cfb9 5343 a3ba d5a0 05ba db35 c0ba
00000170: a814 b7ba 6647 5cbb 079e 21ba 624e cf3a
00000180: 8d98 2639 381d 013b 3289 74bb e57c 0b3b
00000190: 4a89 cd3b b05a 07bb a65b bdba 0b11 2eb8
000001a0: b5b6 edba 601e 47ba 5c6b 8d3b 274b 08bb
000001b0: d704 3ebb f48d 863a c9d7 7638 bc7e b3ba
000001c0: 13a0 41ba 942f 85ba 8a0f 7fbb b25f 01bb
000001d0: 99b6 1e3b 9c04 d5ba aeed 8fb8 6675 a1bb
000001e0: 8b38 c539 51d5 e7ba 50b0 523b cfcb ec3a
000001f0: 2326 6e3b f8d9 9a3b e6d0 66bb 940e 9c3b
00000200: 4d99 303a 865a 0c3b 078d 1a39 fdc0 4c3b
00000210: c876 a83b c1b2 10bb 0ee3 353b 3503 223a
00000220: dea4 c4ba 91cc d33a ff57 cbba cdab 91bb
00000230: 3fae 3b3b 1fcc 503b 04d0 8f3b f990 a6b9
00000240: 2a9e 12bb 645a 89b8 1b9a 8aba 9a13 1939
00000250: f0d6 653b d554 31b9 53c8 e3ba 78d2 033b
00000260: b75b f53b 5006 923a 4f65 933b 910e 87bb
00000270: 4603 1d3b 1537 243a 4ad8 21bb 85e6 5fbb
00000280: 7ca5 8b3b 50c1 1ab9 d07c ae39 43f3 db3a
00000290: e0d7 9b3a 516a dcba 6c0a 823b 7fd6 843b
000002a0: a111 933b b8d7 34bb 777e 493b 7104 a5ba
000002b0: 3c49 5c3b 6fe3 a739 1f20 5c3b 2190 63bb
000002c0: 0020 d73a 4c2c 2abb 7338 0fbb 3300 673b
000002d0: 5460 943b 08b6 efba fc56 853b a280 953b
000002e0: 7f37 c7ba f6cb 2eb9 d17a 4cb9 ab8b 15ba
000002f0: b8c9 27bb 890a 903a fd45 7d3b e96b ea39
00000300: 6e7c 023b 2917 903a 78e2 7c3a bda1 52bb
00000310: 89af 203b 55ff 57bb d68d 983a 082e 5c3b
00000320: 52a8 353b 5d4b d3ba cc48 89ba 3785 b538
00000330: 2a28 633a 0bb3 b5b9 d8b4 bd3a 140b 873a
00000340: 6a53 4a3b c2d0 1bbb ec9c 8aba 86a4 713b
00000350: b658 353a 1527 963b 2b6c 6abb 0206 6dbb
00000360: 6311 ec3a f2cb dc3a 6544 47bb 427a 1b3b
00000370: 0a8c 433b 766d d73a fe58 383b cedc 313b
00000380: 1e1c c3ba c9d8 913a f5eb 3ebb eef6 38bb
00000390: 8702 8d3b 5483 3ebb dde4 80b9 b3f2 5d3b
000003a0: f19f 7f3b 5868 fbb7 b80e f939 1b69 b039
000003b0: 5441 cb3b 0a6b 4b3a 4f77 6939 9838 d7ba
000003c0: b480 293b 50c7 733b 3dd0 0939 2731 ae3a
000003d0: ff2f 883a 9f7e 9fba 39b6 f83a 14eb a93b
000003e0: 05a4 06bb 63f3 0d3b fe00 ccba 4c5a ca3a
000003f0: ef00 fbba 522b 86ba be9d 3fbb 7691 673b
