model/Discriminator_Final.pt (torch, 824631 bytes, 5 tensors)

discriminator.0.weight f4 [16, 3, 4, 4]
-0.13018823 0.10410011 -0.008695382 -0.056034125 -0.06500624 0.08639291 0.083228484 -0.12663363
0.0946599 0.092736304 0.10444561 0.080208935 -0.07521441 0.111362465 0.047748398 -0.05368029
-0.10918113 -0.0254871 0.1265569 -0.038160015 0.032162394 -0.046773605 -0.09054562 -0.059907913
0.09679326 -0.009734594 -0.0431913 -0.066747665 0.006149881 -0.12497865 -0.032351255 -0.12673977
-0.10210269 0.07290005 0.11193533 0.14266637 -0.015003323 -0.09489846 0.07043994 0.022113636
0.13088506 -0.03117667 -0.0733878 -0.06478973 0.1346684 0.034661513 -0.04463818 -0.043950852
0.10192663 -0.0872277 -0.09117865 -0.082831524 -0.057511438 -0.11689673 -0.13769422 0.040247347
-0.13091718 -0.090748854 0.057101563 -0.019119836 -0.073129036 0.057872534 -0.11687666 0.07691849
0.0017893645 -0.053049102 -0.04431551 -0.049736097 -0.15002224 -0.070510596 -0.08853982 -0.034059063
-0.11047066 -0.1447608 0.031779274 -0.07673411 0.06550546 0.0998929 -0.01214623 -0.0960826
-0.034682192 0.1094889 -0.10550203 0.08899545 -0.033765752 -0.014516295 0.0012360984 0.002403056
-0.12508485 -0.10213989 0.030664701 0.022100711 0.07107626 -0.08111388 -0.046150584 0.093071714
-0.047534242 0.12140556 0.066103 -0.053871084 0.088395104 0.05282921 0.11876209 0.04592457
0.021446422 0.12220271 0.004716528 0.13459866 0.047287706 0.067358226 0.095294006 0.048453145
0.05256136 -0.06470841 0.028857578 0.08665887 0.09211427 0.037534278 0.037765868 0.09333969
-0.027483612 -0.07398175 -0.030779518 0.1310267 0.14159603 -0.13518366 -0.03545948 0.1088276
0.06561439 -0.016949767 0.034394845 0.06078315 0.04635257 -0.13675371 0.14010544 -0.09890936
-0.12823929 0.08242507 -0.11328097 0.03994649 -0.0067381817 0.034867253 -0.09924532 0.03694106
-0.13138035 0.13014856 0.09787296 0.08005923 0.0041525727 0.11272683 0.031719416 -0.06706198
-0.056281544 0.024552083 0.08946092 0.04703507 0.06528667 0.04902843 -0.06519688 -0.057863556
0.06814711 -0.1152435 -0.1336164 -0.03324431 -0.06368623 -0.10097335 -0.08252963 -0.10541972
-0.09283245 0.046618234 -0.074403584 -0.1227851 -0.09694713 -0.06870768 -0.0045038518 -0.016313462
0.03556918 0.022059608 0.070520304 -0.13392304 -0.01826471 0.10005171 0.029911956 0.0658201
0.14301734 0.11725646 0.13169466 0.12627783 0.07010827 0.04595245 -0.061826434 -0.016087707
-0.0071567027 -0.093338095 0.1281896 -0.010880808 -0.09185717 0.046258423 -0.08479923 -0.07758722
0.12618326 0.09933223 -0.09880135 -0.059585445 -0.13216986 -0.050317757 0.10958412 -0.036738105
0.02743415 0.11349621 -0.10890549 0.08268175 -0.017230896 0.05511341 0.056389045 -0.0446458
0.12908597 0.11743724 -0.017028917 0.008605259 -0.047215603 0.10751872 -0.09832235 0.10974284
0.00077096117 -0.029608132 0.14246729 0.12192255 0.106423266 -0.026737105 0.10770948 -0.067338824
0.0015252789 0.09936036 0.07644599 -0.023244774 0.07289315 -0.092611745 -0.12427625 -0.10201552
0.11564381 -0.08368753 0.09728109 -0.018012838 0.06938434 -0.014969798 0.04665679 -0.13986568
-0.012131437 0.1289386 0.09670875 -0.009196936 -0.11689928 0.11788316 0.047727708 0.13857077
00000000: 1050 05be 7032 d53d 1377 0ebc 0a84 65bd
00000010: fe21 85bd c4ee b03d b273 aa3d 3fac 01be
00000020: 0ddd c13d 88ec bd3d 94e7 d53d 9544 a43d
00000030: 030a 9abd 0112 e43d d393 433d dddf 5bbd
00000040: 5b9a dfbd 53ca d0bc 2298 013e ad4d 1cbd
00000050: b7bc 033d ae95 3fbd fb6f b9bd 0062 75bd
00000060: 8b3b c63d d97d 1fbc 5ce9 30bd 00b3 88bd
00000070: f184 c93b cef4 ffbd c082 04bd 12c8 01be
00000080: 371b d1bd 9f4c 953d 5a3e e53d 2217 123e
00000090: 7fd0 75bc 205a c2bd d142 903d a827 b53c
000000a0: bc06 063e 3766 ffbc 584c 96bd 7ab0 84bd
000000b0: 83e6 093e 3bf9 0d3d 86d6 36bd cf05 34bd
000000c0: e9be d03d 70a4 b2bd dfbb babd 93a3 a9bd
000000d0: 1d91 6bbd 8e67 efbd b7ff 0cbe 67da 243d
000000e0: 270f 06be 89da b9bd 54e3 693d 34a1 9cbc
000000f0: adc4 95bd c00b 6d3d 085d efbd 7187 9d3d
00000100: 1c89 ea3a 044a 59bd 2e84 35bd 14b8 4bbd
00000110: 6e9f 19be dc67 90bd 5d54 b5bd 8481 0bbd
00000120: 713e e2bd 2d3c 14be fc2a 023d c626 9dbd
00000130: ba27 863d a694 cc3d fb00 47bc f4c6 c4bd
00000140: ea0e 0ebd b73b e03d 7311 d8bd 3f43 b63d
00000150: f54d 0abd c1d5 6dbc 9404 a23a 977c 1d3b
00000160: 3e16 00be b82e d1bd 8a34 fb3c 8d0c b53c
00000170: 6e90 913d 091f a6bd 6508 3dbd 629c be3d
00000180: 44b3 42bd 7aa3 f83d 0261 873d eda7 5cbd
00000190: 7e08 b53d 7163 583d 8a39 f33d 671b 3c3d
000001a0: 68b0 af3c 6a45 fa3d 1b8d 9a3b 3bd4 093e
000001b0: c1b0 413d 1cf3 893d 8129 c33d ce76 463d
000001c0: 954a 573d d885 84bd ba66 ec3c 357a b13d
000001d0: 68a6 bc3d 8bbd 193d 62b0 1a3d e128 bf3d
000001e0: 5025 e1bc be83 97bd 5425 fcbc dd2b 063e
000001f0: 8dfe 103e 966d 0abe f63d 11bd 01e1 de3d
00000200: d660 863d 3dda 8abc 9ce1 0c3d c1f7 783d
00000210: 31dc 3d3d 2a09 0cbe cd77 0f3e fe90 cabd
00000220: 2951 03be 7ace a83d daff e7bd ee9e 233d
00000230: f7cb dcbb f7d0 0e3d 2141 cbbd 824f 173d
00000240: 9288 06be aa45 053e 9e71 c83d 18f6 a33d
00000250: 4e12 883b 53dd e63d 38ec 013d cb57 89bd
00000260: 7a87 66bd 7321 c93c 4937 b73d d8a7 403d
00000270: 05b5 853d 09d2 483d f185 85bd 5602 6dbd
00000280: b690 8b3d c904 ecbd bdd2 08be 302b 08bd
00000290: ed6d 82bd 1ecb cebd 4b05 a9bd 4be6 d7bd
000002a0: f11e bebd c3f2 3e3d e860 98bd c176 fbbd
000002b0: 388c c6bd 9db6 8cbd 0c95 93bb cfa3 85bc
000002c0: fdb0 113d 5ab6 b43c f36c 903d 1f23 09be
000002d0: e09f 95bc e9e7 cc3d eb09 f53c b0cc 863d
000002e0: 2373 123e 2824 f03d f7da 063e fa4e 013e
000002f0: ed94 8f3d a338 3c3d b73d 7dbd 5eca 83bc
00000300: c682 eabb 0b28 bfbd 2244 033e 6b45 32bc
00000310: 9d1f bcbd 7979 3d3d 38ab adbd 0ce6 9ebd
00000320: 2f36 013e b26e cb3d 5d58 cabd de0f 74bd
00000330: 8957 07be fe19 4ebd a46d e03d b27a 16bd
00000340: 95bd e03c b370 e83d d709 dfbd 0d55 a93d
00000350: cf27 8dbc 99be 613d 33f8 663d 84de 36bd
00000360: 1d2f 043e f082 f03d 3a80 8bbc 12fd 0c3c
00000370: 2665 41bd c632 dc3d 3a5d c9bd dbc0 e03d
00000380: 541a 4a3a c18c f2bc f2e2 113e 88b2 f93d
00000390: 71f4 d93d c607 dbbc ca96 dc3d f0e8 89bd
000003a0: deeb c73a 727d cb3d b78f 9c3d d36b bebc
000003b0: 0149 953d 3aab bdbd 8c84 febd 83ed d0bd
000003c0: a9d6 ec3d 5e64 abbd 4f3b c73d a98f 93bc
000003d0: 6019 8e3d e243 75bc 311b 3f3d f338 0fbe
000003e0: efc2 46bc 7b08 043e 3d0f c63d bfae 16bc
000003f0: e468 efbd ba6c f13d 217e 433d 7fe5 0d3e

discriminator.2.weight f4 [32, 16, 4, 4]
0.025435535 0.008852255 0.017555233 0.03433104 -0.013847682 -0.050986305 0.041156873 -0.014052714
0.023302585 0.020736782 0.0011141531 0.05616472 0.004393341 0.026732137 -0.027770055 0.03965248
-0.021477176 -0.05438592 -0.055246726 -0.04531136 0.002707679 0.007974117 -0.023328943 -0.015079346
-0.052525386 -0.056670655 -0.05411289 0.051144943 -0.028924836 -0.040846027 0.0067821415 0.019820629
-0.05784899 0.019737665 0.0061796964 -0.020836737 0.0011596542 -0.05329814 0.0051055 0.06323475
0.02562235 0.026088376 0.024513526 -0.041568235 -0.046293586 -0.05085123 0.063716166 0.031131318
-0.040988877 0.036958393 0.033433933 0.044398766 0.0111365 0.040849976 -0.037427288 0.043502703
0.025727497 -0.014009435 0.036112186 -0.049372967 0.0077499133 0.038353603 0.040795982 -0.032420475
0.012091928 0.035934668 0.0070361025 0.0026328538 -0.031010665 0.033423997 0.04993815 0.015696073
-0.047229875 0.010866555 -0.014959554 -0.01050229 0.047933765 -0.001584725 -0.014100726 0.045520652
0.05922696 -0.023005739 -0.01615139 0.03469718 0.046498246 -0.05764235 -0.020151224 -0.0006244053
-0.033458054 0.010925709 -0.019584581 0.005703013 0.05706865 0.02621009 0.023600213 -0.05632908
-0.026553249 -0.002544517 0.02677234 0.02089365 -0.026662037 0.0470421 -0.01177482 -0.05682768
-0.016466955 -0.03137461 0.023147646 0.04611968 -0.014230719 0.013073134 0.061948825 0.015611985
0.022064887 -0.041028474 -0.015295017 -0.013802282 -0.013552505 -0.04567436 -0.04387948 0.04916659
0.003831237 0.010331981 -0.031801425 -0.04504513 -0.0035922162 -0.055159148 0.022875596 0.057049762
-0.04347961 -0.045099247 0.006006715 0.02094668 0.005354002 -0.03896766 0.035375908 0.034094427
0.030914158 0.03432457 0.04002224 0.061158706 -0.04513779 0.05698942 -0.031543955 -0.01774001
-0.031641208 0.0039208042 0.038181446 -0.042233266 -0.036825795 -0.021207957 -0.025552649 0.05815396
0.051261295 0.04857408 -0.02054301 0.05342036 -0.038320985 -0.04722323 0.015457017 -0.025858898
-0.03530603 -0.0700452 -0.026636925 -0.020341042 0.04573302 0.010300387 -0.011502626 -0.04586078
-0.011919131 -0.03211934 0.012542621 -0.01854042 -0.047498457 0.037106846 0.017538829 -0.016974622
0.0481669 -0.023640787 -0.047316734 -0.030967863 -0.04734715 -0.06569339 -0.026501814 0.045781653
0.0029690105 0.014236223 0.025298448 -0.05635477 -0.012443837 0.015199518 0.039121747 -0.061129533
-0.0042198026 0.039767746 0.060752403 -0.014013251 0.04529542 -0.012622458 -0.0595154 0.006700754
-0.024245488 0.01264893 0.011558142 0.043121643 -0.025909178 -0.054956965 0.010179336 0.022958217
-0.02444858 -0.04799323 -0.039750002 -0.05155324 -0.028729193 0.040686868 -0.009193426 -0.023982674
0.022454305 0.025706716 0.05237934 0.0010080772 -0.05383655 0.05668016 0.04014931 -0.03276328
-0.04065489 -0.03623905 0.01854026 0.0019361248 -0.0033317946 0.005045229 -0.008367146 -0.054310344
-0.055729415 0.025875485 -0.04278713 -0.05604836 -0.03912366 -0.009357826 0.011178717 0.06013133
-0.050674193 -0.023563955 -0.012033858 -0.05420509 -0.057513095 -0.009925846 0.023540488 0.027907366
-0.030917542 0.004361272 0.057785258 0.01553063 0.014574906 0.05643893 -0.04403979 0.053852275
00000000: 2f5e d03c 0c09 113c fecf 8f3c b49e 0c3d
00000010: 63e1 62bc 04d7 50bd 1c94 283d 5b3d 66bc
00000020: 10e5 be3c 2fe0 a93c c608 923a fa0c 663d
00000030: 04f6 8f3b 5bfd da3c 077e e3bc a46a 223d
00000040: e7f0 afbc c5c3 5ebd 644a 62bd 6898 39bd
00000050: 5173 313b dfa5 023c 571c bfbc 5c0f 77bc
00000060: dc24 57bd 7d1f 68bd 7aa5 5dbd 5c7d 513d
00000070: c7f3 ecbc 2a4e 27bd ba3c de3b df5e a23c
00000080: 10f3 6cbd e2b0 a13c 0d7f ca3b ceb1 aabc
00000090: 8aff 973a 274f 5abd 0a4c a73b 3881 813d
000000a0: f6e5 d13c 4ab7 d53c 97d0 c83c 7443 2abd
000000b0: 589e 3dbd 6149 50bd 9f7d 823d 1b07 ff3c
000000c0: f4e3 27bd af61 173d 05f2 083d 7bdb 353d
000000d0: de75 363c 4e52 273d 5b4d 19bd e42f 323d
000000e0: 79c2 d23c d487 65bc 5fea 133d 4f3b 4abd
000000f0: fcf2 fd3b ab18 1d3d b019 273d 55cb 04bd
00000100: 391d 463c 3b30 133d 1b8f e63b f58b 2c3b
00000110: 140a febc 9ae7 083d f28b 4c3d 0d95 803c
00000120: 1d74 41bd a309 323c eb18 75bc cc11 2cbc
00000130: 3256 443d 8cb6 cfba bb06 67bc dd73 3a3d
00000140: f897 723d 8876 bcbc eb4f 84bc a11e 0e3d
00000150: f274 3e3d 631a 6cbd 2e14 a5bc 21af 23ba
00000160: 500b 09bd bf01 333c d86f a0bc 57e0 ba3b
00000170: d1c0 693d 8bb6 d63c 3c55 c13c 52b9 66bd
00000180: 3386 d9bc e9c1 26bb ab51 db3c 2929 ab3c
00000190: 586a dabc 38af 403d 2deb 40bc 24c4 68bd
000001a0: b5e5 86bc aa82 00bd 22a0 bd3c fde7 3c3d
000001b0: f627 69bc b330 563c 0dbe 7d3d 69c9 7f3c
000001c0: 6cc1 b43c 790d 28bd f397 7abc f722 62bc
000001d0: 530b 5ebc 0a15 3bbd f8ba 33bd e862 493d
000001e0: 7e15 7b3b 7847 293c 3642 02bd 3e81 38bd
000001f0: 636b 6bbb 8fee 61bd 9a65 bb3c 03ad 693d
00000200: ad17 32bd fdb9 38bd fad3 c43b 5f98 ab3c
00000210: a070 af3b 8e9c 1fbd 54e6 103d 99a6 0b3d
00000220: b03f fd3c ec97 0c3d 5cee 233d 8d81 7a3d
00000230: 67e2 38bd bd6d 693d 3c34 01bd 7f53 91bc
00000240: 369a 01bd 177a 803b 2664 1c3d cafc 2cbd
00000250: a5d6 16bd 4fbc adbc ca53 d1bc d932 6e3d
00000260: 5df7 513d 9df5 463d d149 a8bc 4fcf 5a3d
00000270: 77f6 1cbd 256d 41bd 6e3f 7d3c 0ad6 d3bc
00000280: 0e9d 10bd dc73 8fbd ae35 dabc 42a2 a6bc
00000290: 8c52 3b3d f4c2 283c 8375 3cbc 83d8 3bbd
000002a0: 7548 43bc 928f 03bd 917f 4d3c 14e2 97bc
000002b0: be8d 42bd 59fd 173d 97ad 8f3c 5d0e 8bbc
000002c0: a84a 453d 53aa c1bc 31cf 41bd 51b0 fdbc
000002d0: 16ef 41bd 428a 86bd 551a d9bc 8b85 3b3d
000002e0: bb93 423b 0c3f 693c b13e cf3c 42d4 66bd
000002f0: 3ce1 4bbc 6607 793c 203e 203d f662 7abd
00000300: 4546 8abb 81e3 223d 83d7 783d d697 65bc
00000310: b187 393d 6dce 4ebc 6cc6 73bd 0092 db3b
00000320: 799e c6bc 753d 4f3c 5c5e 3d3c 52a0 303d
00000330: 7c3f d4bc 8e1a 61bd 3bc7 263c df12 bc3c
00000340: 6348 c8bc 8d94 44bd e6d0 22bd 7d29 53bd
00000350: 7c59 ebbc 46a7 263d 06a0 16bc 5077 c4bc
00000360: 17f2 b73c e496 d23c b88b 563d 7521 843a
00000370: b783 5cbd 7529 683d 9a73 243d ca32 06bd
00000380: be85 26bd 666f 14bd bee1 973c 91c5 fd3a
00000390: 3d5a 5abb 7352 a53b 5b16 09bc 8674 5ebd
000003a0: 8744 64bd d3f8 d33c 8f41 2fbd f792 65bd
000003b0: 2240 20bd 9151 19bc f026 373c 454c 763d
000003c0: be8f 4fbd 3209 c1bc a929 45bc 2806 5ebd
000003d0: da92 6bbd 04a0 22bc fbd7 c03c fd9d e43c
000003e0: c946 fdbc 00e9 8e3b 3cb0 6c3d 2f74 7e3c
000003f0: 96cb 6e3c 822c 673d 1163 34bd 3494 5c3d

discriminator.4.weight f4 [64, 32, 4, 4]
0.0060156025 0.009386703 -0.03585987 -0.02218485 0.019145668 -0.016859027 -0.027903462 0.015425111
0.025131077 0.032980658 -0.021277597 -0.008180235 -0.020760808 0.028365163 0.027315395 0.019202692
-0.023279343 0.017876057 -0.0061307657 -0.028977878 -0.03816842 0.0048689283 -0.006436909 -0.027915452
-0.01718905 0.028946439 -0.009054581 0.022643862 0.0050994856 0.01716288 -0.004204813 0.03773812
-0.039966397 -0.0264473 -0.029064761 0.0030217522 0.004039 -0.033624772 -0.03582813 -0.035427693
0.00053242495 0.022966694 -0.0014174335 -0.019734357 0.017231334 0.03397619 -0.00018950609 0.03481696
0.004385166 0.010485278 -0.0011711856 0.037395176 0.004913654 -0.036614563 0.04424584 0.035872027
-0.028390426 0.023526791 0.00016723796 -0.030456122 -0.009557196 -0.020912092 0.018552873 0.008474043
0.03717263 -0.004036221 0.034569472 0.008472238 0.046092916 0.011906958 0.005315826 0.043641064
0.037768435 -0.011515536 -0.021795904 0.023281146 0.016079595 -0.03912737 0.0022577026 0.010596449
-0.018189099 0.017361538 0.034085948 -0.036410537 -0.0019723936 0.022044424 0.0306471 0.024281269
0.042445585 -0.009470678 -0.010867071 0.027584178 0.006968292 0.029446788 0.022647226 -0.020591708
0.008887827 0.00039661003 -0.035071418 -0.02407882 -0.0076261777 -0.037468743 0.002875402 -0.015114686
0.008517842 0.011433198 -0.004959735 -0.0025803295 0.025135858 0.03157059 0.01621894 0.01984771
0.0021997374 -0.010700213 0.0023932573 0.040676694 0.02123313 0.03882089 -0.013024494 0.015844695
0.046907026 0.007949231 -0.0065034837 0.033792455 0.047979154 -0.010783821 0.028245607 0.042933613
0.03830361 -0.01312354 0.0148166185 -0.003563115 0.04606302 -0.03530448 -0.016500799 -0.004425878
0.033668056 0.02536528 0.020684702 0.034485098 -0.01552626 -0.009507091 0.034440313 -0.017113766
-0.0026006752 0.013853547 0.03320799 -0.0063514914 -0.0321322 -0.031286146 0.03467847 -0.0018759156
-0.016583715 0.039447185 0.030670827 -0.0020366707 0.010045806 0.026165303 -0.0045841006 -0.03099857
-0.031394638 -0.026223905 0.017384222 0.047787137 -0.00015232361 0.0009539843 0.03854898 0.010510014
0.04876132 -0.028387375 0.028110405 -0.00911866 -0.016854357 -0.032001957 0.0138894385 0.0062432326
-0.013657483 0.036263686 -0.031207643 0.025588548 0.028484026 0.0006662265 0.030375069 0.0213674
0.013618087 -0.039498404 0.008711281 0.027933633 0.024549194 -0.03611382 -0.028148286 0.023262717
0.0322331 -0.009332995 -0.002891162 0.003161164 -0.03746304 0.010748131 0.004013354 -0.018445447
0.001267579 -0.031519447 0.014506008 -0.024044087 -0.029865187 -0.002639675 -0.033731095 0.0058013815
-0.02410882 0.0032981355 -0.03683257 0.020740017 -0.00075182744 0.031198261 -0.021372639 0.00017570911
0.04154033 0.039977744 -0.02197154 0.011974014 0.0021758468 -0.03692562 0.013553085 0.012427565
-0.0026015241 0.0076491092 -0.0351265 0.016484609 0.03992023 -0.010022948 -0.023935644 0.015421849
-0.008021069 0.016204454 -0.041413754 -0.03215946 0.014774705 0.04014097 -0.0063678566 -0.013402503
0.00798395 0.0027257625 0.0010391646 -0.016460987 0.019134155 0.03906424 0.028943565 0.008619536
0.0024703187 -0.037340384 -0.03549073 -0.011910552 -0.036092754 0.024390427 -0.032573815 -0.010813664
00000000: 881e c53b b0ca 193c cde1 12bd 01bd b5bc
00000010: 60d7 9c3c f11b 8abc cd95 e4bc 9bb9 7c3c
00000020: b0df cd3c ba16 073d 5b4e aebc 6406 06bc
00000030: 9212 aabc 0f5e e83c 89c4 df3c f74e 9d3c
00000040: 52b4 bebc cf70 923c 97e4 c8bb 0463 edbc
00000050: 7d56 1cbd 888b 9f3b b5ec d2bb f2ae e4bc
00000060: 0dd0 8cbc 1521 ed3c aa59 14bc 9f7f b93c
00000070: 9619 a73b 2b99 8c3c 87c8 89bb 4993 1a3d
00000080: ceb3 23bd 02a8 d8bc 3919 eebc 9708 463b
00000090: 9659 843b 21ba 09bd 84c0 12bd a11c 11bd
000000a0: 6f92 0b3a a624 bc3c 2dc9 b9ba f2a9 a1bc
000000b0: ba28 8d3c 9e2a 0b3d 27b6 46b9 3b9c 0e3d
000000c0: 70b1 8f3b 72ca 2b3c 7882 99ba af2b 193d
000000d0: b802 a13b 27f9 15bd 203b 353d 8cee 123d
000000e0: 0a93 e8bc 42bb c03c 995c 2f39 1e7f f9bc
000000f0: c995 1cbc d64f abbc 32fc 973c b6d6 0a3c
00000100: 5442 183d 4742 84bb b898 0d3d 24cf 0a3c
00000110: edcb 3c3d 6715 433c 6130 ae3b f9c0 323d
00000120: 13b3 1a3d a9ab 3cbc 538d b2bc 1ab8 be3c
00000130: 5bb9 833c 0544 20bd f7f5 133b ba9c 2d3c
00000140: 4e01 95bc c939 8e3c b59d 0b3d 3723 15bd
00000150: 4643 01bb 8296 b43c a10f fb3c 83e9 c63c
00000160: 6cdb 2d3d e72a 1bbc cd0b 32bc 37f8 e13c
00000170: 4556 e43b 643a f13c ad86 b93c f1af a8bc
00000180: 409e 113c 19f0 cf39 0ca7 0fbd f240 c5bc
00000190: 04e5 f9bb d378 19bd 3e71 3c3b 97a3 77bc
000001a0: 6b8e 0b3c 4f52 3b3c 4685 a2bb bf1a 29bb
000001b0: b7e9 cd3c 2a50 013d 95dd 843c aa97 a23c
000001c0: 7829 103b f24f 2fbc 32d8 1c3b 9b9c 263d
000001d0: 1af1 ad3c a702 1f3d b064 55bc bccc 813c
000001e0: 9521 403d 7e3d 023c 2d1b d5bb f569 0a3d
000001f0: ca85 443d a0ae 30bc 5563 e73c 28db 2f3d
00000200: 3fe4 1c3d 1e04 57bc 67c1 723c 2683 69bb
00000210: 94ac 3c3d 6e9b 10bd af2c 87bc f506 91bb
00000220: 84e7 093d d9ca cf3c f772 a93c 3f40 0d3d
00000230: db61 7ebc a1c3 1bbc 4911 0d3d 2b32 8cbc
00000240: 1770 2abb fdf9 623c 1a05 083d 2c20 d0bb
00000250: 0e9d 03bd e725 00bd 030b 0e3d 48e1 f5ba
00000260: 92da 87bc 5f93 213d 6341 fb3c aa79 05bb
00000270: 2a97 243c 9e58 d63c 3936 96bb b7f0 fdbc
00000280: aa97 00bd 84d3 d6bc 5b69 8e3c 72bc 433d
00000290: 0fb9 1fb9 cd14 7a3a 89e5 1d3d 3232 2c3c
000002a0: f3b9 473d a48c e8bc cb47 e63c 6f66 15bc
000002b0: 2612 8abc 7c14 03bd 8790 633c 0894 cc3b
000002c0: a3c3 5fbc 3b89 143d 2ca7 ffbc 139f d13c
000002d0: 5557 e93c b4a5 2e3a 23d5 f83c b00a af3c
000002e0: 661e 5f3c 14c9 21bd c3b9 0e3c 13d5 e43c
000002f0: 641b c93c 16ec 13bd 3c97 e6bc 7491 be3c
00000300: db06 043d 6be9 18bc a679 3dbb 882b 4f3b
00000310: d872 19bd ee18 303c 7482 833b e81a 97bc
00000320: e524 a63a 891a 01bd 9baa 6d3c 1bf8 c4bc
00000330: d6a7 f4bc 66fe 2cbb 9e29 0abd 8419 be3b
00000340: dc7f c5bc 8825 583b c0dd 16bd f8e6 a93c
00000350: 4916 45ba 7f93 ff3c ac15 afbc 8e3e 3839
00000360: 3126 2a3d b4bf 233d a9fd b3bc a82e 443c
00000370: a798 0e3b 523f 17bd c20d 5e3c fc9c 4b3c
00000380: 557e 2abb 61a5 fa3b cee0 0fbd bb0a 873c
00000390: 6583 233d 4a37 24bc af14 c4bc ecab 7c3c
000003a0: cd6a 03bc 34bf 843c 78a1 29bd a3b9 03bd
000003b0: 9b11 723c dc6a 243d 74a9 d0bb 2c96 5bbc
000003c0: 1dcf 023c b5a2 323b 9434 883a 31d9 86bc
000003d0: 3bbf 9c3c d301 203d 0e1b ed3c f438 0d3c
000003e0: 12e5 213b 3bf2 18bd ba5e 11bd 7a24 43bc
000003f0: ffd5 13bd 6fce c73c 1f6c 05bd cb2b 31bc

discriminator.6.weight f4 [128, 64, 4, 4]
-0.018443003 -0.0030526812 0.031990137 0.007132455 0.023775067 -0.0025958458 0.028161615 -0.016272658
-0.018134343 0.023566794 0.012413137 0.015813747 0.022343582 0.028132768 0.013007236 -0.0010361219
-0.0055978773 0.0073688696 0.011718234 -0.016630914 0.026710682 -0.01821002 -0.01256837 -0.02167071
-0.006740382 -0.022144018 -0.003594423 -0.021867687 0.00063286815 0.012696719 -0.02685843 -0.021882486
0.017870745 0.030042542 0.013109695 -0.016124899 0.026340531 -0.0038959885 -0.014969445 -0.0065077096
0.028237563 0.019217987 -0.017538527 0.027283134 0.0066550034 -0.017082011 0.0006478803 -0.009074321
-0.006627713 -0.008651755 0.024353778 0.00013547982 -0.017668555 0.015143967 0.010095187 0.020464798
-0.023113651 -0.021175075 -0.021695293 0.005359917 0.02033723 0.007888434 -0.031575236 0.02748029
0.008265391 -0.007955696 -0.0069215843 0.02196693 -0.033909068 -0.03317841 0.012371507 -0.0051238975
-0.028004082 0.020345693 0.006688752 -0.029638585 -0.0051542614 0.0038399622 -0.03265117 0.007727113
-0.015067215 -0.018192336 -4.9639606e-05 0.01871888 0.011026628 -0.011617262 -0.01889117 0.017251117
0.00993987 -0.021823132 0.032183897 -0.021270204 -0.0071266647 0.013761993 0.025504198 -0.01403937
0.026544869 0.018582948 -0.022952104 0.027763167 0.0071450793 0.006571781 0.032305047 -0.0056631677
-0.002502745 0.023943314 -0.011092033 -0.0206474 0.028395025 -0.017595088 0.027478665 0.015538216
0.02073508 -0.010810058 0.03414517 0.0056491094 0.010781262 -0.004599298 0.021318564 0.02013074
0.018256892 -0.019681156 0.028363576 0.028609496 0.00504963 0.0044017946 0.020050684 -0.02170723
-0.02613366 0.03074368 -0.005361772 -0.0012258731 0.010781417 -0.010980177 0.008846887 -0.0054305256
-0.008723908 -0.011451547 0.0067403056 0.0060856123 0.007833465 0.00940023 0.0131659275 7.514068e-05
-0.024937863 -0.012793266 -0.010444508 0.020462329 0.028036684 0.007742708 -0.02223014 -0.017837105
0.022123633 0.0057820613 -0.024561485 0.028487459 0.028245071 -0.017338485 0.0015400588 -0.015593726
-0.014127733 -0.011258917 0.0060039535 -0.016382443 -0.01490765 0.008814519 -0.0032985334 0.034131587
0.018311227 0.003984622 0.010195931 0.0130344825 0.022111258 0.02358204 -0.024531659 -0.0035493264
0.016677005 0.01398959 0.0011061289 0.0034984266 -0.010265284 -0.020146001 0.012790548 -0.011369496
-0.020999996 0.02753133 0.0027983412 0.026321286 -0.023308964 0.012302475 0.009295886 0.0045924406
0.023407346 -0.014953213 0.016394801 0.015369274 -0.0063348575 0.015806014 -0.01898881 0.030053554
0.014793342 -0.0023604645 0.0156107955 0.024181852 0.002004428 0.0285887 0.0019805736 -0.02379773
-0.01638503 0.019063817 -0.010063152 -0.019163586 -0.004367578 0.023207376 -0.011853329 -0.00432526
-0.008140288 0.025334788 -0.0129720755 0.013711744 -0.022760637 -0.018146668 -0.016456008 0.030451724
0.03172754 0.032250717 0.014252857 0.033512454 -0.0032136831 -0.0020946877 -0.004014636 0.019060597
0.027223805 -0.007934408 0.011444721 0.03414114 -0.019351844 0.021898469 0.028956454 -0.028572056
0.0072448775 -0.009456396 -0.006653234 0.00030496417 0.018722564 0.03385679 0.019226568 0.029286964
-0.008089324 0.025932813 -0.0081032 -0.013147714 0.0068808785 0.009965093 0.00084401784 -0.018096728
00000000: c815 97bc 7e0f 48bb 1708 033d 5eb7 e93b
00000010: eec3 c23c 111f 2abb 30b3 e63c 3d4e 85bc
00000020: 798e 94bc 260f c13c 7860 4b3c d58b 813c
00000030: e309 b73c b176 e63c 4d1c 553c 7bce 87ba
00000040: 666e b7bb 8f76 f13b d6fd 3f3c 8e3d 88bc
00000050: 5cd0 da3c 2e2d 95bc 91eb 4dbc c686 b1bc
00000060: 6cde dcbb 5f67 b5bc 6990 6bbb dd23 b3bc
00000070: 10e7 253a e605 503c 3606 dcbc e642 b3bc
00000080: ab65 923c c71b f63c 0cca 563c 5d18 84bc
00000090: 19c8 d73c d753 7fbb 6742 75bc a03e d5bb
000000a0: 7652 e73c 0a6f 9d3c f5ac 8fbc e180 df3c
000000b0: 3712 da3b 93ef 8bbc 83d6 293a 76ac 14bc
000000c0: 492d d9bb 17c0 0dbc 9381 c73c 960f 0e39
000000d0: a5bd 90bc 671e 783c 4966 253c cba5 a73c
000000e0: d758 bdbc 5a77 adbc 54ba b1bc 3ea2 af3b
000000f0: 439a a63c 7e3e 013c 0955 01bd 581e e13c
00000100: 906b 073c 9c58 02bc 75ce e2bb fef3 b33c
00000110: 3ce4 0abd 16e6 07bd dcb1 4a3c 5ee6 a7bb
00000120: d168 e5bc 03ac a63c 522d db3b 9ecc f2bc
00000130: 14e5 a8bb e0a7 7b3b 3cbd 05bd b933 fd3b
00000140: 7bdc 76bc 1808 95bc 1f34 50b8 5658 993c
00000150: 08a9 343c 5456 3ebc a8c1 9abc 3752 8d3c
00000160: d6da 223c 6dc6 b2bc 43d3 033d da3e aebc
00000170: cc86 e9bb fb79 613c 2eee d03c 6305 66bc
00000180: a074 d93c 443b 983c 0d06 bcbc 956f e33c
00000190: 4521 ea3b 1858 d73b 4c52 043d 1892 b9bb
000001a0: 1805 24bb c524 c43c 5cbb 35bc bc24 a9bc
000001b0: af9c e83c 9323 90bc f01a e13c 0094 7e3c
000001c0: 9ddc a93c ab1c 31bc cedb 0b3d 2a1c b93b
000001d0: e4a3 303c b5b5 96bb 45a4 ae3c 39e9 a43c
000001e0: 7a8f 953c 603a a1bc bb5a e83c 765e ea3c
000001f0: 5e77 a53b ee3c 903b 5541 a43c 5cd3 b1bc
00000200: 4216 d6bc 2cda fb3c ceb1 afbb 7aad a0ba
00000210: 8aa4 303c 33e6 33bc 89f2 103c 8df2 b1bb
00000220: b9ee 0ebc 459f 3bbc c8dd dc3b d169 c73b
00000230: ef57 003c 6c03 1a3c e7b5 573c d894 9d38
00000240: 7d4a ccbc d99a 51bc 711f 2bbc 9da0 a73c
00000250: 30ad e53c 8bb6 fd3b fc1b b6bc 1f1f 92bc
00000260: 9f3c b53c 7277 bd3b 2b35 c9bc 885e e93c
00000270: 3562 e73c 7009 8ebc ccdb c93a d47c 7fbc
00000280: 0278 67bc 5277 38bc d0bc c43b 7934 86bc
00000290: 373f 74bc c66a 103c 352c 58bb 90cd 0b3d
000002a0: 6d01 963c 6f91 823b d60c 273c 958e 553c
000002b0: ab22 b53c 1f2f c13c 9ef6 c8bc d19b 68bb
000002c0: 379e 883c 9834 653c 87fb 903a dc45 653b
000002d0: b92f 28bc 3a09 a5bc 728f 513c 1f47 3abc
000002e0: 2f08 acbc 6289 e13c 6064 373b bd9f d73c
000002f0: 71f2 bebc 5290 493c c64d 183c 2f7c 963b
00000300: c3c0 bf3c 52fe 74bc 644e 863c 68cf 7b3c
00000310: a394 cfbb 9d7b 813c 6c8e 9bbc df32 f63c
00000320: c65f 723c 06b2 1abb 6cc4 7f3c 0519 c63c
00000330: b95c 033b d932 ea3c 83cc 013b 75f3 c2bc
00000340: e639 86bc b92b 9c3c ebdf 24bc f4fc 9cbc
00000350: e61d 8fbb 651d be3c 7734 42bc e9ba 8dbb
00000360: d85e 05bc e78a cf3c d488 54bc 39a7 603c
00000370: 8474 babc 52a8 94bc c0ce 86bc e575 f93c
00000380: bdf4 013d 5419 043d d184 693c 5b44 093d
00000390: a89c 52bb 0747 09bb 358d 83bb f824 9c3c
000003a0: 7504 df3c 52ff 01bc a482 3b3c 94d7 0b3d
000003b0: c287 9ebc 6b64 b33c 1636 ed3c f20f eabc
000003c0: 7066 ed3b 00ef 1abc 5f03 dabb 99e3 9f39
000003d0: 1060 993c 6bad 0a3d 0981 9d3c 37eb ef3c
000003e0: 1689 04bc 0d71 d43c 49c3 04bc 8269 57bc
000003f0: fe78 e13b a144 233c 1441 5d3a 973f 94bc

adv_layer.0.weight f4 [1, 32768]
3.6379726e-05 0.0033125563 -0.002665513 -0.003322147 0.0041290657 0.0005160219 0.0038912431 0.00029420186
0.0045535024 0.001593387 0.0057456424 0.0048420895 2.5100042e-05 -0.00034016522 0.001495984 0.0005719565
-0.0009272699 0.0045425217 -0.0023617907 -2.309203e-05 0.005338 -0.00020049384 -0.002545149 -0.0019512901
-0.004122808 0.00586925 -0.0037571606 0.0043074074 0.0039158813 0.004014634 0.0028115879 0.0022159014
0.0013235896 -0.0018583199 0.0018535062 0.0018599516 -0.0025392016 -0.0018004505 0.0017565854 -0.004817486
0.0033447507 -0.0041022184 -0.0021147968 -0.00056724856 -0.0017504473 0.003180887 0.002853455 0.0016058554
0.00034596483 0.0012801908 -0.00048274032 -0.0042946273 0.0014451331 -0.00057585584 -1.7585959e-05 0.0023747461
-7.8583784e-05 -0.0053172833 -0.0022986114 0.00025572703 0.003910609 -0.0032200674 0.0013129428 -0.0019990136
0.003251621 -0.00040973967 -0.0024142046 0.0028418913 -0.00035423195 -0.0032563165 0.0010672593 -0.0008620477
0.0035780745 0.0003868135 -0.0019823362 0.00040715604 -0.002642077 -4.3901855e-05 0.001234064 0.0009309674
0.003915858 0.0041523245 0.0015029476 0.0025161535 0.0036010095 0.0037071062 0.0023509844 0.0034843155
-0.00042380343 -0.0013952729 -0.0009300736 -0.0018105789 -0.0015707139 -0.0034269025 -0.0006811882 0.0015114822
-0.00023661832 0.0016075599 -0.0040298495 0.0019288287 0.006141745 -0.0021703676 -0.0015653103 -5.9260896e-05
-0.0017639479 -0.00082696363 0.0039959024 -0.0024297705 -0.0032158971 0.0009229753 -1.0610055e-05 -0.0015037673
-0.001121683 -0.0013737999 -0.0042050323 -0.0021153355 0.002316976 -0.0017407775 -0.00018290916 -0.005016364
0.00034282095 -0.0018214891 0.0030244065 0.0015606357 0.0033635576 0.0045493217 -0.0036622246 0.00460894
0.00031766607 0.001718323 -9.711892e-05 0.002932755 0.0050248015 -0.0022988527 0.0026653241 0.00047997566
-0.0015808941 0.0015624416 -0.0016627358 -0.00471889 0.0025441088 0.0030084595 0.004259159 -0.0004794638
-0.0027569425 -0.0003229685 -0.0013612057 -6.84882e-06 0.0033757563 -0.00029337796 -0.0018543992 0.0018663217
0.0073689963 0.0010860186 0.0044326205 -0.0043204743 0.0021071495 0.0004551891 -0.002591916 -0.0035651624
0.0037838113 -0.0003075814 4.7760957e-05 0.0014965538 0.0010515478 -0.0017950437 0.003815041 0.00391185
0.004401941 -0.002870018 0.00299609 -0.0013999023 0.0031609915 0.00015740338 0.0032057497 -0.003663586
0.0015552421 -0.0026252633 -0.0024762833 0.003237077 0.00435432 -0.0019618087 0.0039369706 0.004425835
-0.0016649277 -0.00031114978 -0.000252664 -0.0006546547 -0.002768358 0.000852445 0.0035965974 0.0001261644
0.0019117441 0.0010224027 0.00075485744 -0.0034197827 0.0022775608 -0.0034488158 0.0010388835 0.0032334183
0.002656105 -0.0017333052 -0.0011164407 5.4582238e-06 0.00072729855 -0.0005184802 0.0011541445 0.0006902788
0.0026286289 -0.0026324214 -0.0011361842 0.0034335502 0.0005200917 0.0044442737 -0.003712037 -0.003763016
0.0017072664 0.0015665906 -0.003168701 0.002311491 0.0028774561 0.0014329356 0.00262679 0.0023226095
-0.0018626807 0.00092173263 -0.002841176 -0.002960258 0.0040706974 -0.0030931465 -0.00039170924 0.0032825193
0.0038089047 -0.00016034792 0.00032527905 0.00023809267 0.0060890643 0.00057204365 -4.516239e-05 -0.002016216
0.0023733957 0.0035830091 0.00033293478 0.0012532849 0.00075575477 -0.0014342752 0.0017056571 0.0050913333
-0.0021316735 0.0020600588 -0.0016918987 0.0014255784 -0.002009999 -0.0012377679 -0.0031698646 0.0032214061
00000000: 6f96 1838 7917 593b e3af 2ebb 61b8 59bb
00000010: 1d4d 873b a545 073a 3a04 7f3b 1b3f 9a39
00000020: 8c35 953b 32d9 d03a f145 bc3b 64aa 9e3b
00000030: ee8d d237 3458 b2b9 e514 c43a 5aef 153a
00000040: 0814 73ba 6fd9 943b 46c8 1abb c2b5 c1b7
00000050: 64ea ae3b a83b 52b9 84cc 26bb 6ec2 ffba
00000060: 9f18 87bb d652 c03b b23a 76bb 2725 8d3b
00000070: cb50 803b 318d 833b 9e42 383b a838 113b
00000080: 4c7c ad3a de92 f3ba 59f1 f23a 9fc9 f33a
00000090: bc68 26bb 18fd ebba 3a3d e63a 00dc 9dbb
000000a0: 9b33 5b3b e76b 86bb 6798 0abb 68b3 14ba
000000b0: 446f e5ba 6e76 503b 0801 3b3b 917b d23a
000000c0: 9d62 b539 13cc a73a 4f18 fdb9 f2b9 8cbb
000000d0: 9f6a bd3a 08f5 16ba 8f85 93b7 a1a1 1b3b
000000e0: 59cd a4b8 9b3c aebb 4da4 16bb 1a13 8639
000000f0: 9124 803b c407 53bb 0d17 ac3a e201 03bb
00000100: 2619 553b 54d2 d6b9 a237 1ebb 063f 3a3b
00000110: 35b8 b9b9 ed67 55bb 48e3 8b3a 0bfb 61ba
00000120: 217e 6a3b 3bcd ca39 15ea 01bb 8f77 d539
00000130: b226 2dbb 4223 38b8 51c0 a13a 2a0c 743a
00000140: 9950 803b 3910 883b 8efe c43a 0de6 243b
00000150: eafe 6b3b ecf2 723b f912 1a3b 1d59 643b
00000160: ef31 deb9 97e1 b6ba 2fd0 73ba f250 edba
00000170: 6ae0 cdba e295 60bb c491 32ba ed1c c63a
00000180: bf1c 78b9 c2b4 d23a d40c 84bb c0d0 fc3a
00000190: b140 c93b ba3c 0ebb 192b cdba e78e 78b8
000001a0: 4534 e7ba 97c8 58ba 0ff0 823b c93c 1fbb
000001b0: cdc1 52bb d3f3 713a d701 32b7 0f1a c5ba
000001c0: 7005 93ba 1311 b4ba 5eca 89bb 71a1 0abb
000001d0: 68d8 173b cd2a e4ba 4ecb 3fb9 5060 a4bb
000001e0: a6bc b339 08bf eeba 1f35 463b 3f8e cc3a
000001f0: 226f 5c3b 7a12 953b ef01 70bb 9706 973b
00000200: 6b8c a639 5a39 e13a 53ac cbb8 7733 403b
00000210: 17a7 a43b 59a8 16bb b8ac 2e3b 3ea5 fb39
00000220: 0136 cfba d7ca cc3a 28f0 d9ba eba0 9abb
00000230: 10bb 263b 9329 453b 6a90 8b3b 8b60 fbb9
00000240: d2ad 34bb 1954 a9b9 7c6a b2ba eace e5b6
00000250: cb3b 5d3b 86d0 99b9 500f f3ba 5d9f f43a
00000260: 9f77 f13b bd58 8e3a 843f 913b c492 8dbb
00000270: 1a18 0a3b 72a6 ee39 22dd 29bb 80a5 69bb
00000280: d2f9 773b e042 a1b9 f052 4838 0328 c43a
00000290: 17d4 893a ac47 ebba c405 7a3b fa2e 803b
000002a0: 283e 903b e916 3cbb 0d5a 443b ed7c b7ba
000002b0: a328 4f3b a60c 2539 8e17 523b c618 70bb
000002c0: 44d9 cb3a 9c0c 2cbb 2449 22bb 2425 543b
000002d0: afae 8e3b b091 00bb b401 813b 9806 913b
000002e0: b439 daba d121 a3b9 fd77 84b9 229d 2bba
000002f0: 576d 35bb 9e76 5f3a e4b4 6b3b 004b 0439
00000300: 7d93 fa3a 2402 863a a0e1 453a 6f1e 60bb
00000310: 2143 153b 8705 62bb 252b 883a c2e7 533b
00000320: 0c12 2e3b 1230 e3ba 8955 92ba c925 b736
00000330: 2ea8 3e3a 9eea 07ba aa46 973a d3f3 343a
00000340: 1345 2c3b b484 2cbb 04ec 94ba 6a05 613b
00000350: c356 083a 45a1 913b a645 73bb ef9c 76bb
00000360: 5bc6 df3a 0f56 cd3a fba9 4fbb 627c 173b
00000370: b493 3c3b 57d1 bb3a 3926 2c3b ec36 183b
00000380: 3125 f4ba 6ea0 713a 0633 3abb e300 42bb
00000390: 7c63 853b 63b6 4abb 535e cdb9 891f 573b
000003a0: d19e 793b 1123 28b9 378a aa39 84a8 7939
000003b0: c686 c73b 33f5 153a bf6c 3db8 7e22 04bb
000003c0: f98a 1b3b ebd0 6a3b c08d ae39 4345 a43a
000003d0: d81d 463a 4afe bbba 5b90 df3a 33d5 a63b
000003e0: 8cb3 0bbb 0d02 073b b3c2 ddba 79da ba3a
000003f0: 30ba 03bb 993c a2ba 81bd 4fbb 3a1e 533b
