model/Discriminator_finetuned_liyun1500_shtech.pt (torch, 825247 bytes, 5 tensors)

discriminator.0.weight f4 [16, 3, 4, 4]
-0.12694234 0.10532131 -0.008783613 -0.05530104 -0.061952353 0.08797125 0.08371855 -0.1257636
0.09716595 0.09411808 0.105075315 0.080690436 -0.07229578 0.113016404 0.048592057 -0.052991755
-0.10578737 -0.024130102 0.12672478 -0.036771253 0.035452366 -0.045440115 -0.09056605 -0.059236143
0.09932242 -0.009360586 -0.043976955 -0.06716855 0.008582164 -0.12499 -0.03340729 -0.12710798
-0.100527234 0.07304406 0.111620806 0.14358267 -0.013683557 -0.09483633 0.06983583 0.022273319
0.13178696 -0.03173281 -0.07478657 -0.06579221 0.13564281 0.033861782 -0.046383005 -0.04512547
0.12605345 -0.06197526 -0.062436942 -0.057247374 -0.032182667 -0.090228274 -0.10897576 0.06642822
-0.10683969 -0.06635706 0.08410463 0.008116528 -0.05153821 0.07878929 -0.09496612 0.09937501
0.025594965 -0.029412221 -0.019870998 -0.028711386 -0.12575352 -0.04595787 -0.06281377 -0.012762471
-0.09056145 -0.12413728 0.05420101 -0.058081836 0.08389437 0.116481334 0.0016735529 -0.08406699
-0.030711154 0.113688365 -0.10081822 0.09296595 -0.028746773 -0.009504226 0.0069633145 0.006982991
-0.12361689 -0.10033743 0.03546911 0.028019719 0.07456103 -0.07822742 -0.0425764 0.0990588
-0.046885815 0.122700006 0.06744141 -0.05309088 0.08881466 0.053642664 0.11988683 0.047093745
0.021292234 0.122528024 0.005792347 0.1360647 0.04685359 0.06755647 0.09631923 0.049740136
0.050157376 -0.06680739 0.026973287 0.084314175 0.08934583 0.034773953 0.03541921 0.091136076
-0.030715851 -0.07719608 -0.033269264 0.12891434 0.13820659 -0.13849749 -0.03809376 0.106298216
0.06407571 -0.018490566 0.03267349 0.059142385 0.044412185 -0.13885999 0.13789712 -0.10071201
-0.1305315 0.08003853 -0.115568824 0.03819884 -0.008936957 0.032712918 -0.101348884 0.035186872
-0.13578843 0.1258363 0.093681626 0.07637169 -0.00045408722 0.10853073 0.027931826 -0.070457645
-0.060978465 0.020376889 0.08579518 0.043827448 0.060406405 0.044355225 -0.06963153 -0.061616663
0.06274129 -0.12062396 -0.13895038 -0.03856353 -0.06909521 -0.10590834 -0.08713832 -0.110305764
-0.09806832 0.042155504 -0.0785102 -0.12724045 -0.10257192 -0.07389759 -0.0096146725 -0.021423802
0.031126264 0.017591119 0.06552146 -0.13921008 -0.022763295 0.09597822 0.025630027 0.061052673
0.13873011 0.11363129 0.12796482 0.12203454 0.06544398 0.04169173 -0.06637528 -0.020807628
-0.005724869 -0.092324354 0.1294404 -0.009353059 -0.089192666 0.048343956 -0.083087526 -0.07643435
0.12951511 0.10163342 -0.09734499 -0.05894638 -0.12899603 -0.04830664 0.110801436 -0.035852533
0.030354736 0.116883844 -0.1052469 0.086333565 -0.0131755695 0.0593847 0.060342994 -0.041381653
0.13334724 0.121241584 -0.01391667 0.011017461 -0.043636195 0.11040629 -0.09598969 0.111995876
0.0042054127 -0.02578193 0.14694084 0.12636304 0.110494696 -0.022334656 0.11229343 -0.06333928
0.0057941005 0.10336089 0.08017292 -0.020035872 0.0763072 -0.0897814 -0.121561706 -0.0991505
0.11684662 -0.083066694 0.09475887 -0.020433826 0.071239084 -0.0137494 0.0451003 -0.14134033
-0.010480447 0.13065273 0.09712584 -0.008957657 -0.11654818 0.11947805 0.049390554 0.14028616
00000000: 2cfd 01be b3b2 d73d 25e9 0fbc 5883 62bd
00000010: c0c1 7dbd 452a b43d a274 ab3d 2cc8 00be
00000020: f1fe c63d fbc0 c03d ba31 d73d 0741 a53d
00000030: cf0f 94bd 2575 e73d 7708 473d e20d 59bd
00000040: 0ca7 d8bd 7eac c5bc 24c4 013e 749d 16bd
00000050: 8036 113d 6a1f 3abd b17a b9bd 99a1 72bd
00000060: 8e69 cb3d 255d 19bc 2e21 34bd aa8f 89bd
00000070: 349c 0c3c c2fa ffbd 15d6 08bd 9828 02be
00000080: 39e1 cdbd 2098 953d 7399 e43d 5607 133e
00000090: ff30 60bc 8d39 c2bd 1606 8f3d 8976 b63c
000000a0: 29f3 063e 43fa 01bd b429 99bd 11be 86bd
000000b0: f3e5 0a3e a7b2 0a3d 1bfc 3dbd 7cd5 38bd
000000c0: 2814 013e c5d9 7dbd e1bd 7fbd 397c 6abd
000000d0: f9d1 03bd 9ac9 b8bd af2e dfbd 850b 883d
000000e0: c4ce dabd 36e6 87bd 0c3f ac3d 30fb 043c
000000f0: bb19 53bd 475c a13d 997d c2bd 2085 cb3d
00000100: 88ac d13c e6f1 f0bc 81c8 a2bc 2434 ebbc
00000110: 88c5 00be 523e 3cbd 81a4 80bd af19 51bc
00000120: 4878 b9bd b03b febd e101 5e3d 38e7 6dbd
00000130: d0d0 ab3d c48d ee3d 1e5b db3a 502b acbd
00000140: f595 fbbc 72d5 e83d c879 cebd ef64 be3d
00000150: 5a7e ebbc 9db7 1bbc 842c e43b 93d1 e43b
00000160: da2a fdbd b67d cdbd 0f48 113d 9c89 e53c
00000170: 74b3 983d b335 a0bd 9764 2ebd 57df ca3d
00000180: 570b 40bd 244a fb3d b91e 8a3d d375 59bd
00000190: 76e4 b53d 69b8 5b3d 3a87 f53d 5fe5 403d
000001a0: 0d6d ae3c f9ef fa3d bacd bd3b 8b54 0b3e
000001b0: 8de9 3f3d 0c5b 8a3d 0443 c53d 50bc 4b3d
000001c0: d271 4d3d 50d2 88bd 15f7 dc3c e9ac ac3d
000001d0: f2fa b63d 226f 0e3d bc13 113d 8da5 ba3d
000001e0: cf9f fbbc fa18 9ebd 5a45 08bd 1f02 043e
000001f0: 0786 0d3e 49d2 0dbe 3408 1cbd e1b2 d93d
00000200: 203a 833d 8779 97bc a3d4 053d 493f 723d
00000210: 8de9 353d 5031 0ebe e734 0d3e 1942 cebd
00000220: 0daa 05be 3eeb a33d 59af ecbd 6376 1c3d
00000230: 516c 12bc fbfd 053d 0190 cfbd 1c20 103d
00000240: 1f0c 0bbe 3bdb 003e 27dc bf3d c368 9c3d
00000250: 8e12 eeb9 5c45 de3d 49d1 e43c 194c 90bd
00000260: 8ec4 79bd 6fed a63c 62b5 af3d 6984 333d
00000270: b56c 773d d3ad 353d fa9a 8ebd c161 7cbd
00000280: 817e 803d b209 f7bd 0249 0ebe cbf4 1dbd
00000290: ca81 8dbd 79e6 d8bd 9375 b2bd fde7 e1bd
000002a0: 0bd8 c8bd 40ab 2c3d f5c9 a0bd 524b 02be
000002b0: 3a11 d2bd 9f57 97bd dc86 1dbc f880 afbc
000002c0: 82fc fe3c 401b 903c 1d30 863d 168d 0ebe
000002d0: 177a babc 3b90 c43d 10f6 d13c 5e12 7a3d
000002e0: 440f 0e3e 86b7 e83d 3609 033e 3fed f93d
000002f0: 7e07 863d f3c4 2a3d c3ef 87bd c274 aabc
00000300: af97 bbbb 8d14 bdbd 068c 043e 933d 19bc
00000310: a5aa b6bd 5004 463d cb29 aabd 9d89 9cbd
00000320: 9c9f 043e 2f25 d03d cf5c c7bd c271 71bd
00000330: 8917 04be 2fdd 45bd ddeb e23d 1bda 12bd
00000340: 7faa f83c cc60 ef3d b08b d7bd a7cf b03d
00000350: 58de 57bc 5f3d 733d 372a 773d cf7f 29bd
00000360: 2e8c 083e 824d f83d bf02 64bc 9582 343c
00000370: debb 32bd b11c e23d 3e96 c4bd 185e e53d
00000380: 8fcd 893b a034 d3bc a977 163e 5065 013e
00000390: 0b4b e23d 2bf7 b6bc 19fa e53d 06b8 81bd
000003a0: 70dc bd3b e0ae d33d b331 a43d 4522 a4bc
000003b0: f346 9c3d 50df b7bd 58f5 f8bd 6b0f cbbd
000003c0: 484d ef3d df1e aabd f010 c23d d764 a7bc
000003d0: cce5 913d 2a45 61bc 18bb 383d 85bb 10be
000003e0: 2eb6 2bbc d4c9 053e eae9 c63d 23c3 12bc
000003f0: d0b0 eebd e8b0 f43d c04d 4a3d 2da7 0f3e

discriminator.2.weight f4 [32, 16, 4, 4]
0.021999966 0.005920695 0.0117297545 0.030737335 -0.01897876 -0.05337311 0.03900674 -0.016782675
0.018779473 0.018120952 -0.0026562307 0.05449727 0.00036422058 0.023560997 -0.032813195 0.03556417
-0.005335929 -0.040948458 -0.04024294 -0.031939115 0.014280301 0.018416991 -0.014346684 -0.0072730402
-0.03799491 -0.044659454 -0.042930875 0.060749467 -0.014246523 -0.030106155 0.015728854 0.02896906
-0.057423957 0.020941677 0.00895593 -0.017168954 0.0017538001 -0.05241863 0.007630277 0.06676971
0.026858544 0.02779258 0.027220739 -0.038510293 -0.045194723 -0.04912373 0.066717416 0.034328867
-0.046909623 0.031450327 0.027426235 0.039234437 0.0049421815 0.035584014 -0.044142187 0.03788632
0.019561214 -0.018976754 0.029943759 -0.055042844 0.0016621762 0.033052966 0.0347357 -0.03726985
0.007685359 0.031922422 0.0030954878 0.000539463 -0.03601072 0.02948431 0.04633926 0.013441476
-0.05126106 0.0077387565 -0.018027753 -0.01233793 0.044173665 -0.005107737 -0.0173698 0.042965673
0.06069389 -0.019222239 -0.012077914 0.041779775 0.04878505 -0.053424112 -0.017195232 0.004172223
-0.03131296 0.01494752 -0.016001066 0.010437372 0.059302483 0.030557016 0.027202988 -0.050821293
-0.03698361 -0.011211418 0.016875591 0.0127908895 -0.036899805 0.038481735 -0.021406224 -0.06525082
-0.025864283 -0.0398721 0.013248311 0.03795622 -0.023304759 0.0040897466 0.05219701 0.0071238945
0.029519098 -0.03176852 -0.0031271656 -0.0043526115 -0.006727412 -0.039058007 -0.035673212 0.05879652
0.013573433 0.019638319 -0.022035718 -0.03797373 0.0048574023 -0.045645695 0.033433028 0.06610436
-0.04749474 -0.04758033 0.004628171 0.020264545 0.0019352274 -0.04174496 0.033893004 0.033284564
0.028316041 0.032242395 0.038343433 0.05950667 -0.04823681 0.054785967 -0.033193056 -0.019524444
-0.030553186 0.010947651 0.044195943 -0.033719044 -0.033406947 -0.014251209 -0.019594548 0.06488228
0.05660619 0.05668087 -0.013636051 0.059510898 -0.033678275 -0.038544312 0.022491742 -0.018056778
-0.019454284 -0.05455898 -0.012461169 -0.0065183877 0.06391231 0.026580881 0.001999415 -0.034601387
0.0034939977 -0.018638095 0.028252775 -0.00034852573 -0.032289527 0.050774544 0.03250842 -0.0009220167
0.069825776 -0.0037014808 -0.0279957 -0.013555656 -0.026512008 -0.04523452 -0.008110793 0.06309264
0.022729173 0.033939466 0.04441959 -0.039223876 0.008469007 0.035570882 0.057121202 -0.042570002
0.0009746686 0.043373287 0.067083605 -0.006117526 0.05177492 -0.0070216274 -0.05343466 0.015975608
-0.01740144 0.019930637 0.019806828 0.052833613 -0.019816738 -0.049289286 0.018240098 0.033570174
-0.015767366 -0.042971186 -0.036283758 -0.04657822 -0.020546922 0.047126234 -0.0052865758 -0.019498128
0.02912941 0.03306977 0.058907114 0.009319614 -0.04795427 0.0636747 0.045798823 -0.02482663
-0.04461785 -0.039881513 0.017599441 0.0016086497 -0.005202876 0.0032800373 -0.009385783 -0.055678032
-0.057941925 0.024396678 -0.043076772 -0.05730616 -0.04231808 -0.011690039 0.010094957 0.059168138
-0.045567904 -0.018319773 -0.005402721 -0.047506507 -0.053106055 -0.0059986827 0.02810267 0.032842327
-0.02650228 0.009683369 0.06411645 0.021154948 0.019095063 0.06289121 -0.0377959 0.061100576
00000000: 4639 b43c 6402 c23b 282e 403c ddcc fb3c
00000010: 5879 9bbc c39d 5abd 88c5 1f3d d27b 89bc
00000020: 69d7 993c 6472 943c 2814 2ebb 8838 5f3d
00000030: dcf4 be39 fe02 c13c 2167 06bd bcab 113d
00000040: 04d9 aebb 92b9 27bd c8d5 24bd 97d2 02bd
00000050: ecf7 693c 3bdf 963c 5b0e 6bbc af52 eebb
00000060: 8da0 1bbd d5ec 36bd 49d8 2fbd 6fd4 783d
00000070: 406a 69bc 2fa1 f6bc ccd9 803c 8650 ed3c
00000080: 6235 6bbd e18d ab3c e5bb 123c e8a5 8cbc
00000090: c4df e53a ebb4 56bd 6707 fa3b 8fbe 883d
000000a0: 7306 dc3c 44ad e33c 07fe de3c f8bc 1dbd
000000b0: 1a1e 39bd f735 49bd 24a3 883d 6d9c 0c3d
000000c0: 4e24 40bd 0fd2 003d fcac e03c 4ab4 203d
000000d0: 06f2 a13b 8bc0 113d 70ce 34bd b02e 1b3d
000000e0: d73e a03c 2375 9bbc 9d4c f53c 9b74 61bd
000000f0: 61dd d93a 8c62 073d 0547 0e3d 45a8 18bd
00000100: 77d5 fb3b 16c1 023d abdd 4a3b c06a 0d3a
00000110: fa7f 13bd 1489 f13c 3cce 3d3d a339 5c3c
00000120: 1ef7 51bd 6595 fd3b f0ae 93bc 0725 4abc
00000130: 72ef 343d ce5e a7bb 1c4b 8ebc c6fc 2f3d
00000140: 289a 783d f577 9dbc 71e2 45bc 4521 2b3d
00000150: d5d2 473d 3ed3 5abd 04dd 8cbc 25b7 883b
00000160: 0542 00bd 71e6 743c ab14 83bc 8301 2b3c
00000170: 29e7 723d b552 fa3c cdd8 de3c fd29 50bd
00000180: 207c 17bd 18b0 37bc ae3e 8a3c e190 513c
00000190: 4024 17bd 069f 1d3d 1b5c afbc 39a2 85bd
000001a0: 55e1 d3bc ed50 23bd 720f 593c fb77 1b3d
000001b0: 9fe9 bebc 4803 863b 88cc 553d 8f6f e93b
000001c0: 09d2 f13c b51f 02bd 22f1 4cbb 5aa0 8ebb
000001d0: 9f71 dcbb 4afb 1fbd 131e 12bd 9fd4 703d
000001e0: 1b63 5e3c 8ae0 a03c 4084 b4bc 588a 1bbd
000001f0: d82a 9f3b fbf6 3abd 12f1 083d b961 873d
00000200: d889 42bd 98e3 42bd eaa7 973b d501 a63c
00000210: 75a7 fd3a c3fc 2abd 64d3 0a3d 6555 083d
00000220: 0bf7 e73c 9a10 043d 010e 1d3d 44bd 733d
00000230: f693 45bd 4067 603d 71f5 07bd baf1 9fbc
00000240: ad4a fabc c75d 333c ce06 353d fb1c 0abd
00000250: b9d5 08bd e77d 69bc bf84 a0bc 00e1 843d
00000260: e4db 673d 332a 683d be69 5fbc b3c1 733d
00000270: 3bf2 09bd a4e0 1dbd 9a40 b83c cfeb 93bc
00000280: 975e 9fbc 3d79 5fbd ee29 4cbc 3398 d5bb
00000290: 75e4 823d 26c0 d93c 9e08 033b 2fba 0dbd
000002a0: 8efb 643b ebae 98bc 5d72 e73c 55ba b6b9
000002b0: 0642 04bd f8f8 4f3d 8d27 053d 7eb3 71ba
000002c0: d100 8f3d 8b94 72bb 3d57 e5bc 8b18 5ebc
000002d0: b62f d9bc d547 39bd 22e3 04bc b736 813d
000002e0: 8832 ba3c 1c04 0b3d 51f1 353d 37a9 20bd
000002f0: 97c1 0a3c c6b2 113d ecf7 693d e25d 2ebd
00000300: e780 7f3a 30a8 313d 2163 893d 8775 c8bb
00000310: f011 543d ae15 e6bb 4dde 5abd 47df 823c
00000320: 778d 8ebc 9345 a33c ee41 a23c 0f68 583d
00000330: b656 a2bc 90e3 49bd 426c 953c e180 093d
00000340: 902a 81bc 8e02 30bd 479e 14bd cec8 3ebd
00000350: 0552 a8bc 7007 413d 033b adbb 8aba 9fbc
00000360: cda0 ee3c 2b74 073d 9648 713d 4bb1 183c
00000370: b26b 44bd e267 823d 8c97 3b3d 3761 cbbc
00000380: 35c1 36bd cc5a 23bd b42c 903c 54d9 d23a
00000390: e37c aabb e5f5 563b d4c6 19bc a60e 64bd
000003a0: 8354 6dbd 8bdb c73c 4571 30bd ddb9 6abd
000003b0: b955 2dbd 9487 3fbc 5265 253c 4a5a 723d
000003c0: 69a5 3abd 5913 96bc 4f09 b1bb 2f96 42bd
000003d0: bc85 59bd 9990 c4bb 9237 e63c ad85 063d
000003e0: 4f1b d9bc fea6 1e3c 7c4f 833d 244d ad3c
000003f0: 406d 9c3c 1bcd 803d e0cf 1abd 9944 7a3d

discriminator.4.weight f4 [64, 32, 4, 4]
0.006073772 0.007824364 -0.037110124 -0.022752123 0.014895972 -0.01762911 -0.029947018 0.017248198
0.025033664 0.030291855 -0.021934481 -0.0097439 -0.021920176 0.02800407 0.024305576 0.019958587
-0.023040276 0.017400643 -0.005275758 -0.030373588 -0.040349316 0.0033451025 -0.0075673177 -0.029200613
-0.0168573 0.028836591 -0.008893915 0.021106882 0.00400151 0.015977168 -0.0046435306 0.035593566
-0.04243015 -0.029416066 -0.030246692 0.0009188197 0.0015878713 -0.03651998 -0.039248116 -0.038601186
-0.001286944 0.021850659 -0.0033489943 -0.022384383 0.014774592 0.031009307 -0.0018070017 0.032109004
0.0027585633 0.004998545 -0.004766555 0.03433062 0.00076716335 -0.0445054 0.04054438 0.029513016
-0.032576267 0.020744 -0.0016872918 -0.034344643 -0.013649668 -0.025245564 0.014060036 0.0005524701
0.03858089 -0.003762366 0.036516562 0.008629332 0.046830084 0.013318118 0.0069793374 0.045045797
0.040419035 -0.011324413 -0.020381015 0.023221817 0.017408697 -0.037827414 0.0029494236 0.011593881
-0.017976275 0.01823136 0.036395177 -0.036713324 -0.0026035758 0.02035746 0.029719053 0.023687806
0.043467697 -0.008336062 -0.009310922 0.02813988 0.0056854836 0.029339956 0.024745198 -0.020801723
0.005367251 -0.0032922765 -0.039311893 -0.028388772 -0.010331057 -0.040804084 -0.001218568 -0.018497318
0.0046430565 0.008211581 -0.009155373 -0.006122886 0.021513512 0.028304078 0.01126032 0.01627376
-0.007786029 -0.021237569 -0.005690775 0.031471323 0.0111908605 0.030946529 -0.023371425 0.007574053
0.037952513 -0.002236572 -0.015574585 0.023576064 0.03693932 -0.020142179 0.016636366 0.03426016
0.038717814 -0.014132122 0.014737796 -0.005291695 0.044585545 -0.038861454 -0.017783383 -0.006910861
0.03318294 0.024108335 0.020279203 0.033063006 -0.01719912 -0.011945144 0.033235304 -0.020943357
-0.003206426 0.012268754 0.03244349 -0.008016417 -0.034249425 -0.033208482 0.034123898 -0.0040991358
-0.017191172 0.03771604 0.0294327 -0.004470128 0.009183335 0.02470438 -0.006026031 -0.033243995
-0.03420744 -0.027385546 0.016009046 0.046069156 -0.0010902839 -0.00052051066 0.03993881 0.008765389
0.04685543 -0.029463762 0.025102247 -0.0119689945 -0.017109767 -0.03409146 0.013267144 0.0042727683
-0.014721292 0.03600462 -0.032593835 0.024600692 0.026548153 -0.0009590319 0.028522672 0.019828547
0.012429196 -0.04026314 0.006845443 0.026749322 0.023345111 -0.037846036 -0.03012194 0.021103663
0.037061136 -0.009235692 0.0033718038 0.004965276 -0.037229903 0.011515137 0.008891476 -0.015041373
0.007065498 -0.032780476 0.021802869 -0.021839563 -0.029535903 -0.00017786873 -0.028662324 0.0077136667
-0.027738163 0.00022940128 -0.037329275 0.018386446 -0.0034360592 0.026303774 -0.022730038 -0.0041552437
0.03918901 0.03796364 -0.023659896 0.008686902 -0.0004522663 -0.040938403 0.0122591145 0.00826123
-0.003334707 0.008715989 -0.035755914 0.017430164 0.040247288 -0.010709197 -0.024080712 0.015010773
-0.008945319 0.017757598 -0.042356037 -0.031030316 0.014264098 0.03967112 -0.0067466344 -0.014170465
0.0072725005 -0.00422152 0.0013880103 -0.018844739 0.017955257 0.037572663 0.029588249 0.008215623
0.000957831 -0.041832972 -0.034390684 -0.015471477 -0.03817863 0.0229265 -0.033622157 -0.013600134
00000000: 7e06 c73b c331 003c c900 18bd a962 babc
00000010: 3c0e 743c ec6a 90bc 7353 f5bc 184c 8d3c
00000020: 6613 cd3c a026 f83c f1af b3bc e1a4 1fbc
00000030: f191 b3bc cb68 e53c 7d1c c73c 3180 a33c
00000040: f6be bcbc cb8b 8e3c 44e0 acbb 08d2 f8bc
00000050: 5345 25bd 8239 5b3b 43f7 f7bb 2036 efbc
00000060: 5218 8abc b73a ec3c c9b7 11bc 57e8 ac3c
00000070: 191f 833b 8de2 823c c228 98bb 8fca 113d
00000080: 3dcb 2dbd f6f9 f0bc e9c7 f7bc f2dc 703a
00000090: 1f20 d03a f995 15bd a2c2 20bd 471c 1ebd
000000a0: adae a8ba 2700 b33c cd7a 5bbb 745f b7bc
000000b0: 2111 723c 3b07 fe3c ead8 ecba bb84 033d
000000c0: 03c9 343b d6ca a33b c330 9cbb 449e 0c3d
000000d0: 761b 493a 4b4b 36bd dd11 263d 48c5 f13c
000000e0: b16e 05bd 52ef a93c 1e28 ddba f8ac 0cbd
000000f0: dba2 5fbc c9cf cebc 115c 663c a4d3 103a
00000100: ff06 1e3d 0792 76bb 6492 153d 0b62 0d3c
00000110: e7d0 3f3d 3c34 5a3c edb2 e43b f181 383d
00000120: 6e8e 253d 088a 39bc 16f6 a6bc ae3b be3c
00000130: af9c 8e3c ebf0 1abd 1e4b 413b 43f4 3d3c
00000140: fb42 93bc ef59 953c 1c13 153d b660 16bd
00000150: c1a0 2abb b0c4 a63c 5f75 f33c ee0c c23c
00000160: 2f0b 323d fa93 08bc d68c 18bc 9b85 e63c
00000170: 4b4d ba3b 595a f03c 71b6 ca3c 6068 aabc
00000180: c4df af3b 3cc3 57bb 8205 21bd 928f e8bc
00000190: 9843 29bc 2f22 27bd 5bb8 9fba b087 97bc
000001a0: c824 983b de89 063c 6b00 16bc 7ea2 c8bb
000001b0: 1b3d b03c f4dd e73c 357d 383c 8c50 853c
000001c0: f221 ffbb 69fa adbc ae79 babb 13e8 003d
000001d0: df59 373c 9383 fd3c 6e75 bfbc c32f f83b
000001e0: 1874 1b3d 7493 12bb 8b2c 7fbc 9722 c13c
000001f0: af4d 173d 3601 a5bc fd48 883c 6254 0c3d
00000200: 9296 1e3d 6a8a 67bc cc76 713c f465 adbb
00000210: 559f 363d 302d 1fbd 75ae 91bc 8174 e2bb
00000220: d6ea 073d d87e c53c 9220 a63c 136d 073d
00000230: 2be5 8cbc 91b5 43bc be21 083d 6791 abbc
00000240: e722 52bb e202 493c 77e3 043d 4a57 03bc
00000250: 2049 0cbd 9e05 08bd 80c5 0b3d 0b52 86bb
00000260: 80d4 8cbc 227c 1a3d d81c f13c 277a 92bb
00000270: b375 163c d760 ca3c 0376 c5bb db2a 08bd
00000280: 1a1d 0cbd a757 e0bc 6725 833c 03b3 3c3d
00000290: dbe7 8eba e172 08ba e196 233d b59c 0f3c
000002a0: 7beb 3f3d fd5d f1bc 3aa3 cd3c 9a19 44bc
000002b0: c829 8cbc 7da3 0bbd 6f5e 593c 9402 8c3b
000002c0: 9331 71bc 9579 133d 1d81 05bd 6487 c93c
000002d0: 837b d93c 8b67 7bba 61a8 e93c 7a6f a23c
000002e0: d4a3 4b3c f6ea 24bd bd4f e03b 6521 db3c
000002f0: 3f3e bf3c 7204 1bbd 49c2 f6bc 97e1 ac3c
00000300: 6bcd 173d 4d51 17bc 7bf9 5c3b c1b3 a23b
00000310: 627e 18bd fca9 3c3c 8ead 113c 1770 76bc
00000320: b185 e73b d244 06bd ee9b b23c e2e8 b2bc
00000330: 47f5 f1bc 4682 3ab9 40cd eabc edc2 fc3b
00000340: 253b e3bc 708b 7039 95e6 18bd 2c9f 963c
00000350: 822f 61bb 037b d73c 5834 babc b628 88bb
00000360: a884 203d c37f 1b3d 66d2 c1bc 8253 0e3c
00000370: 281e edb9 07af 27bd 74da 483c 1c5a 073c
00000380: 1a8b 5abb 82cd 0e3c cb74 12bd b4c9 8e3c
00000390: 57da 243d a175 2fbc ea44 c5bc bfef 753c
000003a0: 638f 12bc 6278 913c 867d 2dbd 4a33 febc
000003b0: f7b3 693c 2f7e 223d df12 ddbb 3d2b 68bc
000003c0: 284e ee3b ad54 8abb e6ed b53a 4860 9abc
000003d0: e716 933c cbe5 193d 0e63 f23c d29a 063c
000003e0: f316 7b3a 0d59 2bbd 3fdd 0cbd 147c 7dbc
000003f0: 3261 1cbd 5bd0 bb3c 63b7 09bd 19d3 5ebc

discriminator.6.weight f4 [128, 64, 4, 4]
-0.022188747 -0.0029906705 0.030208722 0.0052694953 0.023603342 -0.004631165 0.029784376 -0.01761848
-0.018641215 0.023268256 0.0133184595 0.013887516 0.021574141 0.028918374 0.012848806 -0.002970353
-0.006749702 0.0019551686 0.017154291 -0.015731445 0.028452374 -0.02423442 -0.015203999 -0.02353428
-0.0014290388 -0.026782531 -0.0045538624 -0.024910914 -0.0020450482 0.01170788 -0.027703138 -0.025847683
0.013133848 0.029697984 0.014015361 -0.022272393 0.026777515 -0.007298168 -0.016122079 -0.008401405
0.02667233 0.014093857 -0.021684282 0.025091073 0.0026262593 -0.018933859 -0.0049964595 -0.010904762
-0.0044076513 -0.0112341475 0.027944665 0.0030735028 -0.01578182 0.014972976 0.013019751 0.022181077
-0.02080245 -0.022896407 -0.018524215 0.0070354766 0.021634143 0.008888825 -0.029934237 0.02923817
0.010435188 -0.005230318 -0.004293065 0.022981588 -0.0314278 -0.03077359 0.013914532 -0.0047329017
-0.025404777 0.023675539 0.008340046 -0.028334623 -0.0025624265 0.005665997 -0.031978454 0.0088421395
-0.006776548 -0.01293836 0.009747059 0.022958023 0.017515546 -0.010329414 -0.022410398 0.019481579
0.016353937 -0.019506043 0.035041932 -0.020688986 -0.012393967 0.015210714 0.028500924 -0.012326017
0.023289137 0.023829484 -0.022070186 0.03095664 0.0052134725 0.010940035 0.03124081 -0.0043939897
0.00486189 0.032068342 -0.008993675 -0.013199777 0.029051527 -0.015268662 0.029966984 0.015616226
0.02098412 -0.012841776 0.03325568 0.0003808649 0.012109579 -0.0032729805 0.021824742 0.018134622
0.01765829 -0.02088586 0.029849721 0.027895635 0.005206682 0.0072512156 0.020779641 -0.023350835
-0.026274858 0.027972743 -0.010392309 -0.0048838235 0.008797213 -0.010851821 0.009070095 -0.0077406755
-0.0092907 -0.013860781 0.0032650752 0.0030225753 0.0088356305 0.00879916 0.011255638 -0.002724527
-0.025771562 -0.013081399 -0.010602724 0.024317702 0.033203986 0.005480995 -0.026150392 -0.021441001
0.027389973 0.004944742 -0.022556936 0.029722037 0.028178226 -0.015394254 -0.00023350706 -0.01799388
-0.014793204 -0.015260111 0.006778287 -0.028367668 -0.02180271 0.004465518 -0.004821518 0.030299315
0.020716779 0.0040710196 0.008299803 0.011454379 0.019313024 0.019802837 -0.030655693 -0.0074777137
0.0066857715 0.0040530753 -0.0022850542 -0.0058941646 -0.015356634 -0.027375158 0.012307179 -0.012461482
-0.030104667 0.019693239 0.00022427524 0.02111626 -0.027599389 0.008985802 0.010354548 -0.00077986513
0.02355908 -0.016286679 0.013551999 0.012211418 -0.007176705 0.015413048 -0.02125722 0.03006534
0.013891306 -0.0039037843 0.015423749 0.021952212 0.0032280227 0.02779895 0.00029818155 -0.026347289
-0.01587062 0.021868765 -0.013085662 -0.020493425 -0.003241316 0.027991958 -0.012515411 -0.004668962
-0.008183526 0.026967615 -0.0147366505 0.014868115 -0.024776788 -0.019292768 -0.017302299 0.031389143
0.032022614 0.030448817 0.0104387645 0.031347863 -0.0056982557 -0.0044635297 -0.0068968385 0.018253684
0.024093056 -0.0086911395 0.009867719 0.031153517 -0.020875406 0.022588486 0.02790188 -0.029369358
0.007419322 -0.013934688 -0.012181321 -1.6324619e-05 0.02039246 0.029789288 0.018107321 0.028065404
-0.008948882 0.022836098 -0.013988435 -0.017795457 0.005138034 0.0034399221 -0.0014336497 -0.019005373
00000000: 2dc5 b5bc 20ff 43bb 4878 f73c bbab ac3b
00000010: cc5b c13c 07c1 97bb 5dfe f33c a154 90bc
00000020: 76b5 98bc 129d be3c ab35 5a3c 7788 633c
00000030: 41bc b03c 3ae6 ec3c cc83 523c 41aa 42bb
00000040: 9b2c ddbb 4922 003b 2887 8c3c 3bdf 80bc
00000050: f414 e93c 4387 c6bc 321a 79bc f6ca c0bc
00000060: 964e bbba 0a67 dbbc 9138 95bb f911 ccbc
00000070: 3706 06bb 68d2 3f3c b1f1 e2bc 85be d3bc
00000080: 5a2f 573c 3049 f33c afa0 653c 9874 b6bc
00000090: 855c db3c 7825 efbb 7312 84bc 0ca6 09bc
000000a0: ee7f da3c ece9 663c 3ca3 b1bc cb8b cd3c
000000b0: 521d 2c3b 2e1b 9bbc 57b9 a3bb e3a9 32bc
000000c0: 0f6e 90bb 6e0f 38bc 36ec e43c d26c 493b
000000d0: e048 81bc 3751 753c cb50 553c 17b5 b53c
000000e0: e669 aabc 3f91 bbbc 18c0 97bc db89 e63b
000000f0: 163a b13c 6fa2 113c a538 f5bc e384 ef3c
00000100: 5af8 2a3c 1663 abbb d7ac 8cbb e243 bc3c
00000110: 70ba 00bd e518 fcbc c7f9 633c 7516 9bbb
00000120: ae1d d0bc 34f3 c13c b0a4 083c 031e e8bc
00000130: 62ee 27bb d4a9 b93b d7fb 02bd 9fde 103c
00000140: ce0d debb 6afb 53bc 21b2 1f3c 7712 bc3c
00000150: c37c 8f3c b43c 29bc 0396 b7bc d597 9f3c
00000160: b1f8 853c 23cb 9fbc 2188 0f3d f37b a9bc
00000170: 1110 4bbc 5c36 793c c57a e93c 10f3 49bc
00000180: dcc8 be3c 0d36 c33c 89cc b4bc c898 fd3c
00000190: c7d5 aa3b d53d 333c baec ff3c 75fb 8fbb
000001a0: 7d50 9f3b 185a 033d 355a 13bc e143 58bc
000001b0: 78fd ed3c 6929 7abc 527d f53c 33db 7f3c
000001c0: e4e6 ab3c 5066 52bc 1c37 083d d2ae c739
000001d0: 4167 463c 807f 56bb cdc9 b23c 0f8f 943c
000001e0: 1ea8 903c d318 abbc 6787 f43c 6385 e43c
000001f0: d09c aa3b 9b9b ed3b 113a aa3c 404a bfbc
00000200: 5f3e d7bc 1827 e53c 8144 2abc 7b08 a0bb
00000210: 3022 103c d6cb 31bc bc9a 143c 7ea5 fdbb
00000220: 0538 18bc 5418 63bc dffa 553b 6616 463b
00000230: 52c3 103c 5a2a 103c 9169 383c fa8d 32bb
00000240: e21e d3bc 5d53 56bc 0cb7 2dbc eb35 c73c
00000250: e700 083d eb99 b33b 5939 d6bc 0aa5 afbc
00000260: f060 e03c 8107 a23b 53c9 b8bc a17b f33c
00000270: 06d6 e63c 2e38 7cbc 93d9 74b9 e767 93bc
00000280: 325f 72bc 8b05 7abc 641c de3b 5063 e8bc
00000290: 999b b2bc 7b53 923b d3fd 9dbb 4536 f83c
000002a0: 3cb6 a93c 3066 853b e6fb 073c 26ab 3b3c
000002b0: 5936 9e3c 8f39 a23c a621 fbbc 9c07 f5bb
000002c0: 5114 db3b a9cf 843b d9c0 15bb d623 c1bb
000002d0: 649a 7bbc de41 e0bc 0da4 493c 3e2b 4cbc
000002e0: 109e f6bc b753 a13c 6d2b 6b39 02fc ac3c
000002f0: 1d18 e2bc 2f39 133c 1fa6 293c dd6f 4cba
00000300: f9fe c03c a46b 85bc 3409 5e3c 6612 483c
00000310: 912a ebbb 0287 7c3c 9f23 aebc 974b f63c
00000320: 5c98 633c a2d6 7fbb e4b3 7c3c 20d5 b33c
00000330: 3c8d 533b a0ba e33c 4055 9c39 45d6 d7bc
00000340: 1a03 82bc 2026 b33c 3f65 56bc d4e1 a7bc
00000350: 426c 54bb 644f e53c 700d 4dbc 18fe 98bb
00000360: 3214 06bc 30eb dc3c fe71 71bc 6599 733c
00000370: b1f8 cabc de0b 9ebc 8dbd 8dbc e791 003d
00000380: 252a 033d cc6f f93c 5a07 2b3c 9e66 003d
00000390: 6fb8 babb cd42 92bb e0fe e1bb c088 953c
000003a0: cd5e c53c 4865 0ebc 37ac 213c a935 ff3c
000003b0: e602 abbc 7d0b b93c 7c92 e43c 0298 f0bc
000003c0: c91d f33b 514e 64bc 2a94 47bc daf0 88b7
000003d0: 170e a73c aa08 f43c ce55 943c 6be9 e53c
000003e0: 559e 12bc c512 bb3c c02f 65bc c7c7 91bc
000003f0: f45c a83b 5170 613b 4de9 bbba 28b1 9bbc

adv_layer.0.weight f4 [1, 32768]
0.0016394078 0.0025126263 -0.0032390165 -0.0047320994 0.002981223 -0.005285415 -0.0004307461 -0.0014008845
0.0061223856 0.0015123697 0.005864479 0.0058226334 0.0009996234 -0.001385884 0.0049694316 0.0028893389
0.00013117533 0.0038805003 -0.0038998204 0.00044333973 0.005144006 -0.0038855723 -0.002198417 -0.0042242385
-0.005183215 0.0063020033 -0.0038312601 0.0063577583 0.0044580963 0.004369934 0.004573508 0.0031197215
0.0029207908 -0.002309207 0.00085534825 0.004498192 -0.004309447 -0.0008499324 0.0023478968 -0.0055471724
0.0051959143 -0.0032113711 -0.0021675357 -0.0011979638 -0.0047153216 0.0042163255 0.0031918548 0.0036221922
-0.0007748035 0.0039380174 0.00033865354 -0.005246046 0.0023197823 -0.002773709 0.0008739342 0.0037794882
0.0016042801 -0.006485391 -0.002344935 0.0018794092 0.003726088 -0.0040631522 -0.0001009497 -0.0038413708
0.008240164 0.0018328266 -0.0036423386 0.0028752242 -2.0925138e-05 -0.0047218394 0.002365948 -0.0004341723
0.0054110675 -0.00035478195 -0.0016674387 -0.0015501262 -0.0029906572 0.0010789732 0.00085439265 0.0022876742
0.0071966546 0.0048739566 0.0021238464 0.003006103 0.005841829 0.005233895 0.0030022261 0.005141224
-0.00021196653 -0.002409103 -0.001245096 -0.0029355532 -0.0018249112 -0.0048885276 0.00094874535 0.0029125195
0.0018312214 0.0030532142 -0.0047954326 0.003878603 0.006822421 -0.0038563667 -0.0025852735 -0.000988443
-0.0020791648 -0.0039706095 0.004801715 -0.004066081 -0.004451715 0.00018591584 -0.002299838 -0.003561426
0.0027470316 -0.002171527 -0.004682611 -0.0032169814 0.0021162524 -0.0029752406 -0.00028637913 -0.005971052
-0.0006472505 -0.0028643715 0.003473228 0.00257677 0.0055013546 0.0046757315 -0.0060064327 0.004831223
0.0032662856 0.0010731135 -0.0003969537 0.0039774785 0.005853559 -0.0020975329 0.0027037424 -0.00019804727
-0.0030993628 0.00072215823 -0.0032821433 -0.004436599 0.0041385065 0.0038911265 0.0042794365 -0.0019207081
-0.002848253 -0.00020476493 -0.0025661134 -0.0006924877 0.0040702675 -0.001053819 -0.0050774473 0.0017685851
0.0057402193 2.1996002e-05 0.0056995414 -0.0046214666 0.0023425734 0.0021982102 -0.005003306 -0.0037362424
0.0071802028 -0.00023441917 3.9195405e-05 0.0024867165 0.0006675475 -0.004996182 0.003790433 0.0034606457
0.002671939 -0.005427541 0.0011659832 -0.0040524164 0.0039947317 -0.0007933288 0.004774321 -0.00585905
0.004864195 -0.0055793747 -0.0043790233 0.004708478 0.003809692 -0.004518877 0.0031161874 0.0017486297
-0.0034815539 -0.0013063434 -0.0014005709 -0.0023284848 -0.005648641 -0.0016569273 0.0023930576 0.00028319893
0.00282957 -0.00087846955 -0.000295881 -0.0044553378 0.0004982197 -0.0057889232 -0.0014888583 0.0013236017
-4.464144e-06 -0.0040243617 -0.0017653925 -0.0004564176 -0.00072050584 -0.0046288115 -0.00023187582 0.0008020877
0.0050928504 -0.0046660854 -0.0029687344 0.003799222 0.0016810395 0.0035165714 -0.004176628 -0.0061677927
-0.00012466978 0.001224122 -0.006163346 0.0013068599 0.0016077298 -0.00089960685 0.002848668 0.004758139
-0.0033436397 0.00017901648 -0.0053631915 -0.0063741338 0.0033790178 -0.005466441 -0.0029696864 0.0027284378
0.0023252754 -0.001241297 -0.0034777366 -0.0008995758 0.0047030044 -0.00026217417 -0.002346582 -0.004892122
0.002028004 0.0028215596 -0.002681429 0.0011311277 -0.0045654 -0.003996664 0.0001036983 0.004440231
-0.0042285 0.00047628238 -0.006820369 0.00094351673 -0.0015909133 -0.0026939672 -0.005269411 0.0011871026
00000000: 66e1 d63a e0aa 243b ae45 54bb ba0f 9bbb
00000010: 9f60 433b 4631 adbb c3d5 e1b9 e29d b7ba
00000020: 4b9e c83b b53a c63a d12a c03b cacb be3b
00000030: cc05 833a 8da6 b5ba 9dd6 a23b 105b 3d3b
00000040: 1c8c 0939 fe4f 7e3b 2194 7fbb 0d70 e839
00000050: 0d8f a83b 16a5 7ebb 5113 10bb 7b6b 8abb
00000060: f5d7 a9bb 0981 ce3b e115 7bbb be54 d03b
00000070: 3915 923b aa31 8f3b 5edd 953b 3e74 4c3b
00000080: bd6a 3f3b 1156 17bb 7339 603a 9265 933b
00000090: 4336 8dbb ffcd 5eba 2cdf 193b 0ec5 b5bb
000000a0: 7d42 aa3b de75 52bb 370d 0ebb ff04 9dba
000000b0: fc82 9abb 1a29 8a3b 702e 513b 4d62 6d3b
000000c0: 2f1c 4bba 7c0a 813b 4f8d b139 06e7 abbb
000000d0: 7d07 183b 1dc7 35bb bb18 653a 4ab1 773b
000000e0: b546 d23a 6783 d4bb 7bad 19bb 8256 f63a
000000f0: 6231 743b 3124 85bb f5b4 d3b8 82bf 7bbb
00000100: c101 073c 753b f03a 4db4 6ebb 426e 3c3b
00000110: 6488 afb7 a9b9 9abb 050e 1b3b 9fa1 e3b9
00000120: 534f b13b 0702 bab9 f58d daba 9b2d cbba
00000130: e7fe 43bb 556c 8d3a 52f9 5f3a ceec 153b
00000140: ead1 eb3b b6b5 9f3b 3b30 0b3b 0a02 453b
00000150: d06c bf3b 1881 ab3b ffc0 443b b677 a83b
00000160: 5543 5eb9 0be2 1dbb 7d32 a3ba 6962 40bb
00000170: dc31 efba f12f a0bb 39b5 783a f8df 3e3b
00000180: 9805 f03a 6f18 483b 0123 9dbb 2930 7e3b
00000190: 9e8e df3b 19bb 7cbb b16d 29bb a58e 81ba
000001a0: 9942 08bb e31b 82bb b457 9d3b c23c 85bb
000001b0: b1df 91bb 67f2 4239 e1b8 16bb d066 69bb
000001c0: 8b07 343b 2d50 0ebb 9770 99bb fed3 52bb
000001d0: d3b0 0a3b 41fc 42bb 2825 96b9 d1a8 c3bb
000001e0: 3fac 29ba 2eb8 3bbb 199f 633b 07df 283b
000001f0: b544 b43b e136 993b 9cd1 c4bb 3c4f 9e3b
00000200: 2e0f 563b b7a7 8c3a 391e d0b9 8255 823b
00000210: 36cf bf3b c376 09bb 4531 313b e9aa 4fb9
00000220: ae1e 4bbb 384f 3d3a 3a19 57bb e460 91bb
00000230: 4f9c 873b 4502 7f3b 843a 8c3b 45c0 fbba
00000240: c1a9 3abb 2bb6 56b9 3d2c 28bb 1088 35ba
00000250: e15f 853b 4c20 8aba b760 a6bb decf e73a
00000260: 7318 bc3b 0e84 b837 38c3 ba3b ac6f 97bb
00000270: dc85 193b d90f 103b c6f2 a3bb bfdb 74bb
00000280: e847 eb3b 6bce 75b9 bf65 2438 2ef8 223b
00000290: 5bfe 2e3a 03b7 a3bb ea68 783b 00cc 623b
000002a0: b31b 2f3b 84d9 b1bb e7d3 983a 22ca 84bb
000002b0: 3de6 823b 65f7 4fba e871 9c3b 46fd bfbb
000002c0: d363 9f3b 30d3 b6bb e97d 8fbb 9449 9a3b
000002d0: 07ac 793b 1613 94bb f338 4c3b 4732 e53a
000002e0: c82a 64bb 9c39 abba 5c93 b7ba 7e99 18bb
000002f0: 3c18 b9bb 412d d9ba d8d4 1c3b 517a 9439
00000300: 4f70 393b 1849 66ba 7a20 9bb9 15fe 91bb
00000310: f59a 023a 02b1 bdbb cb25 c3ba b47c ad3a
00000320: b4ca 95b6 cbde 83bb be64 e7ba 554b efb9
00000330: 54e0 3cba 49ad 97bb b123 73b9 3243 523a
00000340: ede1 a63b f6e5 98bb 198f 42bb 5efc 783b
00000350: 5356 dc3a 4776 663b 18dc 88bb 321b cabb
00000360: cab9 02b9 b872 a03a e5f5 c9bb f14a ab3a
00000370: 76ba d23a 98d3 6bba b8b0 3a3b 2aea 9b3b
00000380: f720 5bbb 5fb6 3b39 b6bd afbb 1cde d0bb
00000390: 8372 5d3b d51f b3bb 129f 42bb 97cf 323b
000003a0: a663 183b 04b3 a2ba bdea 63bb 83d1 6bba
000003b0: a91b 9a3b 6c74 89b9 1dc9 19bb 184e a0bb
000003c0: 43e8 043b eae9 383b eaba 2fbb 5942 943a
000003d0: 5a99 95bb 73f6 82bb 9a78 d938 5b7f 913b
000003e0: 3b8f 8abb 8ab5 f939 677d dfbb 5656 773a
000003f0: 3186 d0ba 458d 30bb 06ab acbb 8e98 9b3a
