model/Discriminator_15fps_2000epoch.pt (torch, 825159 bytes, 5 tensors)

discriminator.0.weight f4 [16, 3, 4, 4]
00000000: 4c94 ffbd 8a79 db3d 905f dcbb 44e7 59bd
00000010: 354e 75bd 3266 b73d ae3b af3d 2306 fdbd
00000020: f6b8 ca3d ea64 c33d 1db0 da3d 679b a93d
00000030: 73d3 90bd 7fcf e93d 4d58 4d3d 346c 51bd
00000040: 80d3 d1bd dfd4 adbc 9693 043e 1b77 0cbd
00000050: 804f 1e3d 20a6 2fbd 8764 b4bd 3038 68bd
00000060: 8c8d d13d c537 e7bb ba2e 2abd b575 84bd
00000070: bd32 3a3c 156c fbbd 8df7 febc 4bc3 ffbd
00000080: f2c0 cbbd fed3 973d 960e e63d 4b93 133e
00000090: dc81 4dbc 904c c0bd c111 903d 5acd ba3c
000000a0: 8f30 083e e005 fdbc fe14 98bd d89e 85bd
000000b0: 5818 0c3e 4c04 0e3d 4c2f 3cbd 7925 37bd
000000c0: 3edd f83d 73c6 8dbd 77ea 8cbd bd40 81bd
000000d0: 77cc 0fbd 3f0d c2bd 8b61 e7bd d972 7c3d
000000e0: 4f84 ddbd 0ed4 89bd 994a a63d 54cb 493b
000000f0: 5dd8 52bd b6a3 a13d 2b19 c5bd eec1 c43d
00000100: 8584 9a3c 865c 1fbd 0017 d4bc 5226 0dbd
00000110: eb9b 05be 7c6a 51bd cef9 85bd ff6a 89bc
00000120: 0623 bbbd 2545 ffbd 83c2 563d 942d 7fbd
00000130: d1fd ab3d 23d1 ee3d 9b01 243a ecca b1bd
00000140: e11e 1cbd 912e d93d b32c d8bd 82c1 b53d
00000150: 8883 0cbd 90ba 61bc d5cb 833b 79cd 783b
00000160: 4512 00be 81d0 cfbd 908b 073d 5efb c43c
00000170: 5d46 993d 6378 9fbd 7d16 32bd 6f99 c53d
00000180: 3bee 42bd 0ce5 f93d f27d 883d c10c 5cbd
00000190: b507 b43d 4b6e 583d 7989 f33d 70d4 3d3d
000001a0: 617e a33c ec3e f83d da41 843b 5745 0a3e
000001b0: 3632 3c3d b71c 883d 0ca3 c13d a90c 473d
000001c0: d4f5 4a3d ff38 89bd 2952 d73c 4d65 ac3d
000001d0: e0ae b53d b4ce 0d3d c26d 0e3d 6d83 ba3d
000001e0: 0919 01bd 39d3 9ebd b458 0cbd bae9 033e
000001f0: ddf4 0c3e 260f 0ebe 1a36 20bd fe60 d93d
00000200: 3d34 843d c2c2 95bc 7369 073d d0b7 723d
00000210: abeb 373d ddef 0dbe d4a4 0d3e 7de9 cdbd
00000220: ab5b 05be b400 a43d 0d80 ecbd 55ca 1c3d
00000230: 10e9 0abc 7936 063d 2676 cfbd f02c 103d
00000240: ae90 06be e2f1 033e 3f67 c63d 1723 a53d
00000250: 987c 863b c1b5 e43d b540 003d 0f5e 87bd
00000260: a385 67bd e831 c13c 0a32 b73d 908f 453d
00000270: d0d6 843d 7747 433d 77b9 86bd c8d3 6abd
00000280: 784b 863d 85f1 f3bd 88fd 0cbe c94e 14bd
00000290: e9a6 87bd f9b5 d5bd 4762 afbd 11d7 dcbd
000002a0: 17c0 c2bd 30ec 333d b432 9cbd 7f43 febd
000002b0: 80ea cbbd c8a6 93bd 6755 efbb 9b9e 97bc
000002c0: f443 063d 7141 9b3c 0e23 883d 8500 0dbe
000002d0: 1387 acbc a953 c73d 3503 d93c 76bd 7f3d
000002e0: defa 0f3e f1c4 eb3d e460 043e 9ed3 fd3d
000002f0: ff12 8a3d cdc2 303d 5443 85bd 4719 9bbc
00000300: c694 b2bb 5661 bcbd f703 053e 3111 12bc
00000310: 38ff b5bd 7ee8 473d edef a8bd 066d 9bbd
00000320: 24f8 043e 9952 d13d 2ae9 c5bd 16e4 6ebd
00000330: c493 03be 25aa 42bd 9cc4 e43d 1a1c 10bd
00000340: 0804 f73c 4e29 ef3d 4c80 d7bd 75d4 b03d
00000350: bec2 5abc 0315 733d df69 773d b691 29bd
00000360: db73 083e 1b80 f83d 4493 61bc 2bd9 353c
00000370: 8740 33bd 1941 e23d f64c c4bd 2d5c e53d
00000380: 2377 693b bd8f d7bc 1bff 153e 4b14 013e
00000390: e7f2 e03d c70d bbbc 8409 e53d d062 82bd
000003a0: 98c2 aa3b 4ce7 d23d 0666 a33d 62e3 a5bc
000003b0: b81c 9b3d 88a3 b8bd b6bd f9bd 16a3 cbbd
000003c0: c4a4 f23d 516b a8bd bea1 c33d 6e73 9ebc
000003d0: 082a 953d 579c 54bc e6d4 3b3d 81bb 0fbe
000003e0: 7ba0 13bc f876 063e 8b59 c83d bbdf 03bc
000003f0: c011 ecbd 83b5 f53d bef8 4c3d 53b1 103e
-0.12479457 0.10716541 -0.006725259 -0.053199068 -0.059889037 0.08955039 0.08556305 -0.12354686
0.0989856 0.09540732 0.10678122 0.08281594 -0.07071581 0.1141653 0.05013304 -0.05112858
-0.102454185 -0.021219669 0.12946925 -0.034293275 0.038650036 -0.04288304 -0.088082366 -0.05669421
0.10232076 -0.007056209 -0.04154847 -0.06467763 0.011364636 -0.122764744 -0.0311239 -0.12488421
-0.09948911 0.07413481 0.11233251 0.14411657 -0.012543168 -0.09389603 0.07034636 0.022802997
0.13299774 -0.03088659 -0.07425879 -0.06524438 0.13681161 0.034672067 -0.045943543 -0.04471347
0.121515736 -0.06922617 -0.06880658 -0.06311176 -0.035107102 -0.09475183 -0.11297902 0.061632965
-0.108162515 -0.06729899 0.08119697 0.003079136 -0.05147587 0.078925535 -0.09623941 0.09607302
0.018862018 -0.038906597 -0.025889874 -0.034460373 -0.13047759 -0.051126942 -0.06541787 -0.016774653
-0.091375396 -0.1246436 0.052431595 -0.062299326 0.08398021 0.116609834 0.0006256343 -0.086812824
-0.038115386 0.10604585 -0.10555401 0.08874799 -0.034305125 -0.01377739 0.0040221014 0.0037964268
-0.1250697 -0.10147191 0.03309208 0.024045642 0.07484124 -0.07786634 -0.043478478 0.09648406
-0.047590476 0.1220189 0.06664647 -0.0537231 0.087905325 0.05283956 0.11891455 0.046345174
0.019957723 0.121213764 0.0040361704 0.13503014 0.045946322 0.06646102 0.09454927 0.048596058
0.049550846 -0.06700324 0.026284294 0.08417759 0.088712454 0.034620956 0.034772642 0.09107099
-0.031518016 -0.07755131 -0.03426428 0.12882128 0.13765283 -0.13872966 -0.039114095 0.10614203
0.06455276 -0.018281344 0.03305955 0.05925733 0.044902485 -0.13861032 0.13832408 -0.100543
-0.1302325 0.080079466 -0.11547861 0.038278896 -0.008478418 0.032766793 -0.10129957 0.035199106
-0.13141128 0.1288524 0.096876614 0.080633335 0.004104208 0.11167479 0.03131171 -0.06609737
-0.05652393 0.023583367 0.08945091 0.048232615 0.06486285 0.047675576 -0.06578343 -0.057330877
0.06557363 -0.119113006 -0.1376859 -0.036207948 -0.066236325 -0.10435099 -0.08563667 -0.10783208
-0.095092945 0.043926418 -0.07626858 -0.124152176 -0.09956837 -0.072095454 -0.007303882 -0.018508246
0.03277965 0.018952103 0.06647311 -0.1376973 -0.021060502 0.09732754 0.026490787 0.062436543
0.14060542 0.11512173 0.12927586 0.123938784 0.067419045 0.043154527 -0.065069824 -0.018932952
-0.005449864 -0.09198253 0.12989794 -0.008915232 -0.0888657 0.048805706 -0.08248887 -0.07589154
0.12985283 0.102208324 -0.09663613 -0.05832299 -0.12849337 -0.047525544 0.11170313 -0.03518305
0.03015329 0.116778 -0.105225176 0.08634273 -0.013352094 0.05934621 0.0604037 -0.041398726
0.13325445 0.12133809 -0.013768021 0.01109914 -0.04376271 0.11047573 -0.09584992 0.11199222
0.003562399 -0.026313657 0.14648096 0.12605397 0.1098383 -0.022833718 0.111834556 -0.06366503
0.0052111857 0.10298023 0.07978444 -0.020250026 0.07573837 -0.09015566 -0.121943876 -0.099432155
0.11847833 -0.08223594 0.09552334 -0.01934215 0.072834074 -0.012976727 0.045857333 -0.14036371
-0.0090104295 0.1313132 0.09782704 -0.008048947 -0.11526823 0.11997511 0.050041907 0.14130144

discriminator.2.weight f4 [32, 16, 4, 4]
00000000: 3969 ad3c d486 c23b 5ba1 253c 8c82 f03c
00000010: 56bd a6bc 7f16 5cbd ba59 1a3d ad47 96bc
00000020: 9503 8f3c 6a13 8c3c 4696 89bb d349 5c3d
00000030: fe6b 19ba 5488 c13c 26aa 0abd e277 0e3d
00000040: 5713 3abc e6af 3cbd dd29 3fbd 25ba 1dbd
00000050: 1033 3d3c adff 823c 9fd5 8bbc 8138 14bc
00000060: ac9c 2fbd d79b 44bd f071 48bd 76c9 623d
00000070: ee7d 7dbc ce45 edbc 6e52 8c3c b890 f53c
00000080: 7099 66bd 3d20 b23c 2791 1c3c 09ca 8bbc
00000090: eb80 323b 3f23 54bd ff4f 073c b570 893d
000000a0: e212 e23c 8de7 e83c 6de4 e33c 0cee 1bbd
000000b0: 350f 36bd c2c5 46bd d903 8a3d 9d58 0e3d
000000c0: a618 44bd ec1a fb3c 31a2 d53c 1561 1d3d
000000d0: 8ebd 8b3b 4f40 103d 6afe 38bd d205 193d
000000e0: c356 9a3c b351 9dbc b0b8 ef3c b107 62bd
000000f0: 6dd4 873a 5d58 063d 4a38 0c3d 68fa 19bd
00000100: f0e2 213c 75ed 103d 49b0 c03b 9f88 473b
00000110: 095e 09bd 4bca 073d 4819 493d 4304 7c3c
00000120: 4491 4abd b142 283c 3957 84bc 6e37 2abc
00000130: 0981 3d3d 31bd 2cbb 8659 7cbc ffc2 383d
00000140: 86c5 733d d83f a2bc d17c 5ebc ed3e 273d
00000150: ea4b 413d 92d0 5cbd d647 9abc fb44 6b3b
00000160: fa95 06bd 7e90 6d3c 2b4c 8dbc b02b 1d3c
00000170: 347b 6f3d 81a7 f33c 48ad d33c c2bc 53bd
00000180: 6e70 09bd fd28 dfbb 1183 ac3c 1b09 8c3c
00000190: aff9 0abd e51a 2d3d 1ce5 8cbc 2eb1 7abd
000001a0: 3b86 b6bc 1aff 13bd 5b1f 8d3c ea6d 2e3d
000001b0: 360d 9dbc 81b7 0b3c db91 673d ae25 3a3c
000001c0: 5bc8 ee3c f02c 0abd 5b8b 7fbb c9f6 d0bb
000001d0: 5da6 d0bb 35fa 25bd 25a4 14bd e0a2 6e3d
000001e0: 2170 563c 9438 9c3c 1f45 babc f075 1fbd
000001f0: c085 723b 1d11 42bd e28d 063d b409 863d
00000200: e010 3cbd d6c3 3cbd ffe8 b33b dcb3 a73c
00000210: ec80 723b 6634 26bd 28ee 0e3d 9027 0a3d
00000220: affa f03c c297 083d 22a7 203d 7179 773d
00000230: 668f 40bd 2453 653d 4a75 03bd 2a2d 99bc
00000240: 8e34 01bd 3449 1f3c baa7 2b3d 7086 11bd
00000250: e3eb 0fbd 0212 83bc 28c7 b1bc bea3 823d
00000260: 0126 613d 3482 633d b271 79bc aad0 703d
00000270: 4bf4 0cbd cad6 1fbd f156 ad3c 043e 9cbc
00000280: e6d5 9ebc ef8e 5ebd 7cff 3fbc 7a8f acbb
00000290: adef 823d de42 de3c 3396 6b3b e1a4 0bbd
000002a0: c37d 7e3b f175 97bc f7e7 ed3c aa58 163a
000002b0: dfec 02bd a0f8 4e3d 4d0b 083d 09cf a439
000002c0: f720 8b3d 1bc3 76bb 2e07 00bd 6700 58bc
000002d0: c3b8 eabc e069 3ebd 9716 2cbc 3278 7e3d
000002e0: 0e1a aa3c cd76 063d 2e26 303d 5e6c 25bd
000002f0: 84ae c13b 0d18 0e3d f8be 663d cd78 36bd
00000300: e632 5eb9 70ae 2b3d d443 883d 2a84 debb
00000310: 3187 4f3d 88e0 05bc dd1d 5dbd 9339 7f3c
00000320: 5cc9 99bc 0708 993c 6640 9e3c 8ce2 563d
00000330: e9e2 a9bc 66ef 4cbd 01be 923c 395f 083d
00000340: 9931 8cbc cf7b 32bd 5116 12bd 63e2 3abd
00000350: 9edf b7bc ec1f 403d 10b1 a6bb e16d 9abc
00000360: 47f9 e53c 2f72 053d 56bb 713d eb81 1f3c
00000370: 9284 45bd 9d60 823d cf7b 3b3d 4c03 c3bc
00000380: d11a 2abd 10ae 1abd 6416 a33c 40e5 5a3b
00000390: 3bad 15bb 7c8d b03b 1f74 f1bb 6ffc 5cbd
000003a0: 00a8 64bd 9508 d83c b2e7 26bd f66b 64bd
000003b0: 9b7a 1fbd 7243 1abc f1e9 4c3c fe68 7a3d
000003c0: 5d73 41bd 3f03 a8bc 970a debb 6e38 48bd
000003d0: 8ea7 60bd f9c3 eebb 6087 da3c 9623 013d
000003e0: 6453 e7bc 890d 003c 12e7 803d 0780 9f3c
000003f0: 1ef6 8f3c e406 7a3d 09cb 21bd 59e8 743d
0.021168338 0.005936483 0.010109271 0.029359125 -0.020353954 -0.05373239 0.037683226 -0.018344725
0.017457763 0.017099101 -0.004198822 0.05378134 -0.0005852579 0.023624577 -0.033853672 0.034782298
-0.01135715 -0.046066187 -0.046670783 -0.0385076 0.011547819 0.015991056 -0.017069636 -0.009046675
-0.042874023 -0.048000183 -0.048936784 0.05536791 -0.0154719185 -0.02896395 0.01712915 0.029976234
-0.056298673 0.021743888 0.009556091 -0.017064111 0.0027237486 -0.051791426 0.008258819 0.0671095
0.027596895 0.028430725 0.027818883 -0.038068816 -0.044448096 -0.04852844 0.06739015 0.034752477
-0.04787507 0.030652486 0.026078315 0.038422663 0.00426454 0.03521758 -0.045164503 0.037359066
0.0188402 -0.019203996 0.02926287 -0.055183116 0.001036299 0.032799114 0.03423337 -0.03759232
0.009880766 0.035382707 0.00588039 0.0030446423 -0.033536945 0.033151906 0.049096376 0.015381875
-0.049454942 0.010269807 -0.016154872 -0.010389192 0.046265636 -0.0026357884 -0.015402203 0.045107838
0.059514545 -0.019805834 -0.013579563 0.040831495 0.047191538 -0.053909846 -0.018833082 0.003589927
-0.032857873 0.014499782 -0.017248234 0.009592935 0.058467105 0.029742958 0.025839463 -0.051693685
-0.033554487 -0.006810306 0.021058591 0.017094186 -0.033929523 0.042261977 -0.017199092 -0.061204128
-0.022280803 -0.036131956 0.017226866 0.04258529 -0.019171339 0.008527637 0.056535583 0.011361523
0.029148271 -0.033734262 -0.0038992974 -0.0063770753 -0.0063674883 -0.04052182 -0.036289353 0.0582608
0.013088257 0.019069947 -0.022738038 -0.038930833 0.003700599 -0.0473796 0.032850154 0.065448195
-0.04591453 -0.0460852 0.005490422 0.020471506 0.0037003113 -0.040577315 0.034895092 0.033729136
0.02941641 0.033347853 0.03922189 0.06041855 -0.047011755 0.055987492 -0.032094277 -0.018698294
-0.03154426 0.009722043 0.041908003 -0.0355286 -0.03513707 -0.015999798 -0.02170141 0.063788876
0.054967884 0.055544093 -0.015224861 0.058792748 -0.034412663 -0.0390232 0.021159621 -0.01907254
-0.019389104 -0.05433553 -0.011718627 -0.005266127 0.06393371 0.027131494 0.003594768 -0.034092788
0.0038832284 -0.018488856 0.029041274 0.0005735258 -0.03196418 0.050530076 0.033213902 0.0003143477
0.06793397 -0.0037652913 -0.031256847 -0.01318369 -0.028652554 -0.04648769 -0.010503433 0.062126346
0.020764377 0.03282814 0.04300516 -0.04038655 0.0059106965 0.034690905 0.056334466 -0.0445488
-0.00021190531 0.041914403 0.06653562 -0.0067906575 0.050666038 -0.008171208 -0.053983558 0.015577692
-0.018772773 0.018680586 0.019317817 0.052462146 -0.020738082 -0.050032996 0.017912867 0.033293936
-0.017113494 -0.043575104 -0.035665814 -0.045626055 -0.022445496 0.046905443 -0.0050870255 -0.018851222
0.028072966 0.032579597 0.059016548 0.009735565 -0.048222132 0.06366084 0.04577237 -0.023805283
-0.04152948 -0.037763655 0.019908138 0.0033400804 -0.002283885 0.00538796 -0.007368579 -0.053951677
-0.05582428 0.02637128 -0.040748306 -0.055767022 -0.038935285 -0.009415494 0.012506948 0.061135285
-0.04722916 -0.02050936 -0.0067761648 -0.04888194 -0.054847293 -0.0072865454 0.02667588 0.031528078
-0.028238006 0.007815727 0.06294073 0.019470228 0.017573413 0.061041728 -0.03950027 0.059791896

discriminator.4.weight f4 [64, 32, 4, 4]
00000000: 2530 c43b deec f23b a080 17bd f1b6 c3bc
00000010: 7f32 753c 33a4 97bc 67ee f7bc 3eba 7e3c
00000020: ff99 cf3c e20b f93c 66ca b0bc e583 2dbc
00000030: dc3a afbc 4f1c e43c 3e83 cd3c d2e6 9b3c
00000040: f39f b7bc 6123 953c 8367 8ebb 6859 eebc
00000050: 2dd3 23bd 79c3 6c3b 71c0 e3bb bc66 e7bc
00000060: 7919 84bc a282 f23c a448 03bc 543e b73c
00000070: 6336 9e3b 31b9 893c 86d9 7cbb 289f 163d
00000080: fac4 25bd 88f3 ddbc b098 e6bc 71ce 323b
00000090: 55b7 3d3b 9ec1 0ebd 7ecb 19bd 73ff 17bd
000000a0: 8ac1 2e3a 3880 c33c e7e7 a0ba 58e4 a5bc
000000b0: 4058 853c 0bee 063d 69b0 61b9 1666 0a3d
000000c0: ac92 b13a 3334 7b3b c005 babb 475a 0c3d
000000d0: 9bff a9ba 3054 40bd c81f 213d 859f ef3c
000000e0: fcaf 0abd 5a97 a03c 8f13 1dbb f636 0abd
000000f0: d107 71bc 2aab d9bc 7753 5d3c e452 313a
00000100: 3d2f 1c3d 31d8 7dbb 8a08 163d 21fe 163c
00000110: a895 3e3d 1146 5b3c 8fd6 ee3b 152b 3b3d
00000120: 9bb8 223d cbfb 3fbc 2ce0 a5bc 171f c23c
00000130: 6eda 8a3c 3d47 1cbd 557f 3b3b d806 433c
00000140: d903 91bc 971d 993c 2864 153d d2d0 16bd
00000150: 057e 42bb cd90 a43c 7fb9 ef3c 4fb3 bc3c
00000160: cc4c 313d e652 0abc 5dfc 1bbc b284 e43c
00000170: f944 b33b a78c ee3c 7db0 c83c 8e26 aabc
00000180: fdac dc3b 366c bcba b873 1bbd 15d8 d8bc
00000190: 5e66 15bc bc65 1fbd ace0 1d3a 62f0 84bc
000001a0: f41a d03b ee20 283c 8d11 f2bb 5927 58bb
000001b0: 8b6b be3c 937b f83c 878f 623c d1fd 973c
000001c0: 12b7 86bb cb15 96bc f35b 17bb 808c 0b3d
000001d0: c783 823c 09ad 0d3d cde9 9bbc 66cc 363c
000001e0: 0279 303d cd71 033b 8e75 60bc fa72 d33c
000001f0: a77c 2e3d 2b04 94bc 7e77 ab3c 028b 183d
00000200: f9a3 203d b345 5bbc 760f 7e3c 6e23 83bb
00000210: 5e9d 383d 380c 1dbd 532c 8dbc ae5d c0bb
00000220: 0806 0b3d e5ab cc3c 85b5 ad3c 57f2 0c3d
00000230: 6a18 86bc 08dc 37bc c7a9 0b3d 7d25 a2bc
00000240: 33ff c1ba 34a2 613c 93e6 0e3d 7e26 c3bb
00000250: 6e02 06bd e310 03bd 372f 153d 5279 01bb
00000260: e633 7dbc 7cab 203d 3c4d 033d 42d7 0dbb
00000270: 7d2d 333c f5aa d63c 8bc8 69bb 317a ffbc
00000280: 2f1e 0dbd 5d96 e2bc 8748 853c 294c 3e3d
00000290: 90c2 cfba 28c7 deb9 60dd 243d 7137 153c
000002a0: 2048 3e3d 5d83 f3bc 241f d03c ef21 3ebc
000002b0: e626 90bc 1867 0bbd 4376 623c 39af 9d3b
000002c0: 64a8 5fbc 5e5e 183d 3199 fdbc ae59 d63c
000002d0: 1065 e23c 3d92 4c39 e7b1 f53c 425c ae3c
000002e0: 7172 623c 6a03 1fbd fcdc 0d3c e6bb e73c
000002f0: 2162 ca3c 957e 15bd b4d6 e7bc e479 bb3c
00000300: 9f52 0b3d 16e3 47bc 7c4b ebba 5c21 9c3a
00000310: f7fb 25bd 22e5 2a3c 4664 703b 04c2 95bc
00000320: 1400 a83b 7929 13bd 2aae 863c a68f d7bc
00000330: 6b8f fcbc e902 6dbb e03a 10bd d95c af3b
00000340: 77f2 e4bc e32d e6b9 b172 1ebd 9bb7 953c
00000350: d585 89bb 2883 d03c 9fc5 c6bc c350 9bbb
00000360: 8808 1f3d 35fb 163d bb54 cbbc 0239 0b3c
00000370: 4032 2fba f00d 2abd 512b 3b3c 6a45 0b3c
00000380: 8d11 33bb c712 263c 1854 0dbd b04d 9d3c
00000390: 9e8b 283d 979d 18bc f24c bcbc 5e32 893c
000003a0: 2443 05bc 8c06 9e3c 54ba 28bd c5f1 eebc
000003b0: 6b8e 763c eb15 273d 41f4 bebb b2c9 4ebc
000003c0: 3caf db3b 9532 8cbb 4996 a63a 24a6 a6bc
000003d0: 839b 973c d94f 173d 21a0 ed3c eaaf e53b
000003e0: eddd 733a ff4b 2dbd eacc 0fbd 6008 8fbc
000003f0: eb42 18bd 0f60 b93c bc77 09bd fb27 6dbc
0.0059871846 0.0074134907 -0.0369879 -0.023890944 0.0149656525 -0.018510913 -0.030265046 0.015547333
0.025341986 0.030401174 -0.021580886 -0.010590528 -0.021390371 0.02784553 0.025086995 0.019030962
-0.022415137 0.018205347 -0.0043458357 -0.029095367 -0.039996315 0.0036127253 -0.006950431 -0.02824723
-0.016125428 0.029603306 -0.008012924 0.022368588 0.0048282607 0.016811939 -0.0038581803 0.036772877
-0.040471055 -0.027093664 -0.028148979 0.0027283693 0.0028948386 -0.034852616 -0.03754758 -0.03710885
0.0006666413 0.02386485 -0.0012276144 -0.020250484 0.016277432 0.03294186 -0.0002152339 0.033788763
0.001354774 0.0038330674 -0.005676955 0.034265783 -0.0012969853 -0.046955287 0.03933695 0.02925087
-0.033859238 0.01960342 -0.0023967957 -0.03374382 -0.014711336 -0.026570875 0.013508669 0.0006764366
0.038130987 -0.0038733596 0.036629237 0.0092158625 0.046529442 0.013383404 0.007288761 0.045695383
0.039726835 -0.011717747 -0.020248495 0.023696465 0.016949859 -0.038153876 0.0028609831 0.011903487
-0.01770203 0.018690867 0.03647247 -0.03682024 -0.0029677164 0.020088578 0.029263256 0.02303472
0.04328613 -0.008442616 -0.009520617 0.027895305 0.0054708687 0.029119803 0.024498219 -0.020770337
0.006734489 -0.0014375511 -0.037952155 -0.026470223 -0.0091186445 -0.03891538 0.00060225534 -0.016227905
0.0063508693 0.010261757 -0.007387346 -0.0032982437 0.02324464 0.030332362 0.013828165 0.018553646
-0.004111179 -0.018320939 -0.0023095577 0.034069538 0.015931977 0.034588847 -0.019032383 0.011157131
0.043084152 0.0020056844 -0.013699902 0.025811661 0.042599346 -0.018068394 0.020931002 0.037241943
0.039218877 -0.013383317 0.015506616 -0.0040020263 0.045071952 -0.03834173 -0.01723305 -0.0058705425
0.0339413 0.02498431 0.02120472 0.0344108 -0.016369063 -0.011221893 0.03409746 -0.019793266
-0.0014800787 0.013771582 0.03488786 -0.0059555164 -0.03271716 -0.031998526 0.03642198 -0.001975615
-0.015454268 0.03922604 0.03205608 -0.0021643196 0.010936138 0.026204566 -0.0035672511 -0.031186195
-0.034452613 -0.02765959 0.016269935 0.04645935 -0.0015850831 -0.00042491523 0.040250182 0.009107457
0.046455503 -0.029725725 0.025405474 -0.01160477 -0.017596673 -0.034033865 0.013822141 0.004812148
-0.013650987 0.03719937 -0.030956836 0.02616581 0.027636081 0.00019509434 0.029992057 0.021284226
0.01382123 -0.038821615 0.008658644 0.02828784 0.024704995 -0.03649767 -0.02830062 0.02288527
0.03401434 -0.012200138 -0.0017951573 0.0011911797 -0.040523496 0.010430606 0.0036680861 -0.01828099
0.0051269624 -0.035928223 0.01644047 -0.026313614 -0.030830106 -0.0036165065 -0.035212398 0.0053516445
-0.027947647 -0.00043903207 -0.038683597 0.018276026 -0.004196862 0.025453165 -0.024264155 -0.004739852
0.038826495 0.036860663 -0.024820676 0.008497478 -0.0006683208 -0.041517198 0.011423902 0.008500436
-0.0027323694 0.010136313 -0.034504026 0.019202083 0.041148774 -0.009314916 -0.02298591 0.01674765
-0.008133683 0.019290231 -0.04119332 -0.02916802 0.0150486035 0.040792387 -0.005827457 -0.01262133
0.006704239 -0.004278491 0.0012709583 -0.020342894 0.018506771 0.036941383 0.02900702 0.007009496
0.0009302784 -0.042308804 -0.03510753 -0.017460048 -0.037173193 0.022628812 -0.033561453 -0.014474864

discriminator.6.weight f4 [128, 64, 4, 4]
00000000: 85d1 bcbc 7d1a 64bb 8a29 f23c 0e8a d23b
00000010: 0394 b93c 1cbb b7bb c1a1 f53c a256 91bc
00000020: 40d8 9fbc 2744 bd3c 9c7e 6b3c 6a7e 693c
00000030: 0b27 ae3c fdf8 e83c b947 5e3c e41d 23bb
00000040: 1373 cbbb f921 4d3b ab14 9a3c afd1 6abc
00000050: 57d0 e83c eb5f bdbc d50c 68bc f60e c3bc
00000060: 3993 d7ba c07f d2bc 9c91 26bb 4e58 cbbc
00000070: 31a2 38bb eff4 383c 9d7a d5bc 7ad0 d0bc
00000080: 1137 7d3c 3104 013d 843b 7a3c 6c1b a3bc
00000090: 05d7 dc3c e562 b9bb 3517 7ebc 4d85 e3bb
000000a0: e12e e43c 30bb 7e3c 8c92 9abc 192c d73c
000000b0: c3e6 753b 8706 8bbc 4037 81bb 95f5 16bc
000000c0: 0187 79bb 3a72 29bc 7ef1 f43c f2ab 9c3b
000000d0: c2bf 81bc 5055 823c 7eb3 5b3c 70f3 b83c
000000e0: 6dc0 b2bc 03c2 c1bc 3b8b 96bc bf38 ef3b
000000f0: c043 ad3c 7386 083c c87b f1bc b5a3 f93c
00000100: d509 2d3c ab09 9ebb cbc4 ebba da92 bd3c
00000110: 1216 fabc 12a5 f6bc 9e9d 823c 7693 acbb
00000120: 248b cfbc 2a1e c53c f6d7 203c f3b1 dabc
00000130: a537 08bb cd15 d93b 6cdd e7bc 5f61 253c
00000140: ca26 c6bb ee03 31bc 1fd8 143c f407 be3c
00000150: c5c8 953c 0f20 fbbb e951 9dbc 622e b53c
00000160: f361 833c 7c4a 80bc 3f9a 163d acb8 81bc
00000170: d4fa 1abc 57ac 913c 1be1 f63c ce07 03bc
00000180: 89e4 b83c d744 bc3c aee2 c1bc 694d ec3c
00000190: 515a 9b3b 2da7 0f3c bdbe f33c 1e9c 61bb
000001a0: 8b2f 423b f0e0 f23c c620 2fbc 1568 66bc
000001b0: 462a e93c c6a0 86bc f975 ee3c e506 7a3c
000001c0: 9a15 8f3c 800a 50bc 4640 033d 5db6 cfb8
000001d0: 3f11 353c 64a4 05b9 b26e ba3c 306b 953c
000001e0: fa3e 963c c799 86bc de71 f43c 1940 d73c
000001f0: 8781 963b 1157 223c ba10 a53c 841f b9bc
00000200: 5396 d1bc 78e0 fa3c c17d 08bc 2bfc 18bb
00000210: 9b19 103c a2f8 0cbc e36f 233c 65e3 c3bb
00000220: d76a 23bc 6ed6 3dbc b393 573b 733d 8d3b
00000230: ae4d 063c 9ef9 613c b2d2 4c3c 4000 f83a
00000240: beef e0bc 10fd 6ebc 207f 31bc 48f6 bd3c
00000250: d945 003d a8fa af3b 44f6 ccbc 768b a9bc
00000260: 2c30 d23c f350 783b 260d abbc 0e35 f13c
00000270: af38 e83c 1920 7fbc 2654 0b3b a475 91bc
00000280: 1276 64bc 956d 79bc 82a0 083c fb04 d1bc
00000290: cf4a a7bc 6ee2 963b 2c27 92bb cd56 f83c
000002a0: 5c7e ab3c f312 663b abe9 253c c051 403c
000002b0: 632b a33c 0322 9c3c adff f7bc f792 a8bb
000002c0: 1b20 f33b bb9d b33b f514 0139 3986 6ebb
000002d0: b5db 64bc a68d d3bc 921e 753c 6f08 2cbc
000002e0: 2a4d debc 2c4d ae3c 61f3 083b f925 b93c
000002f0: 5c06 c5bc 98bb 373c d159 553c 43ab ad3a
00000300: 510f bb3c 37b5 83bc fd10 503c cc61 4c3c
00000310: 9cee febb 2f9d 7d3c 445b b0bc d087 f83c
00000320: 14d3 4c3c 46f8 7abb 013e 6d3c 12cc b23c
00000330: 05d2 7a3b e7f7 f13c f13b 1b3a 1f8d d6bc
00000340: c954 84bc 5a1b 9a3c 8aa8 4cbc c04b a3bc
00000350: 1bb7 99bb 8d2b d93c 0028 55bc 8352 90bb
00000360: a220 0bbc 2e9b d83c c30a 6abc af1f 7e3c
00000370: 7b85 c8bc 4f1a 95bc 991b 8fbc 9381 073d
00000380: 5d0a 063d 5b6e 053d 6b83 493c 30d6 083d
00000390: 75a9 a0bb ab61 2fbb 6d3d 9bbb 8e5e a43c
000003a0: c19b cf3c 1408 d1bb 97a9 4a3c 3cde 073d
000003b0: 24a9 9bbc 321d cf3c 9ae1 f33c f95f dbbc
000003c0: 7195 093c 220b 61bc 25d4 2ebc a3d8 96ba
000003d0: 5ada a93c 857e f93c 30e0 943c f54f eb3c
000003e0: f8fb febb 6653 bb3c 36d7 60bc df1e 83bc
000003f0: 13af 9b3b bcad 533b 6f4e c8ba 4e8d 9ebc
-0.023049125 -0.0034805827 0.029560823 0.006425149 0.022653585 -0.005607022 0.029984357 -0.017741505
-0.019512296 0.023103787 0.014373448 0.014251331 0.021258852 0.02843904 0.013566905 -0.0024889642
-0.0062087863 0.0031300767 0.018808683 -0.014332219 0.028419657 -0.023117026 -0.014163216 -0.023810845
-0.0016447074 -0.025695682 -0.002541638 -0.02482238 -0.0028172845 0.0112888655 -0.026059443 -0.025490034
0.015455023 0.031498138 0.015272979 -0.019910537 0.026957998 -0.005657541 -0.015508463 -0.006943381
0.027854385 0.015547559 -0.018868707 0.026266145 0.0037521578 -0.016970886 -0.003943354 -0.009213825
-0.0038074853 -0.010342175 0.029900309 0.0047812397 -0.015838508 0.01590982 0.0134094935 0.022577018
-0.021820271 -0.023652082 -0.018376937 0.007300466 0.02115047 0.008332836 -0.029477969 0.03047357
0.010561426 -0.00482293 -0.0017987726 0.023141313 -0.030528102 -0.030108009 0.015944298 -0.005266602
-0.025334902 0.024062235 0.009817114 -0.02669618 -0.002078512 0.0066249133 -0.028303824 0.010094016
-0.0060471045 -0.01080416 0.00908473 0.023197152 0.018284211 -0.007663734 -0.019204097 0.022116844
0.016037917 -0.015660517 0.036768194 -0.015835129 -0.009459216 0.017782373 0.030136636 -0.007997466
0.022569912 0.022982044 -0.02366766 0.028845506 0.004740991 0.008767885 0.029754037 -0.0034425328
0.0029630389 0.029648274 -0.010688966 -0.014062901 0.02846254 -0.016434085 0.029108988 0.015260433
0.017466355 -0.012697816 0.032043718 -9.904497e-05 0.011051475 -0.00012745109 0.022757862 0.018239588
0.018340576 -0.016430749 0.029839452 0.026275681 0.0045930776 0.009908454 0.020149577 -0.022598036
-0.025584375 0.030624613 -0.008330763 -0.0023343663 0.008795167 -0.008604201 0.009975406 -0.0059780353
-0.009974203 -0.011586769 0.0032894432 0.004310304 0.008197231 0.0137924235 0.012501406 0.0018920973
-0.027458068 -0.014586702 -0.010833532 0.023188725 0.031316612 0.0053704567 -0.025019772 -0.020696383
0.025657736 0.0037890046 -0.020880293 0.029444244 0.028347341 -0.0155716175 0.0021259873 -0.01775629
-0.013944166 -0.01522388 0.008339049 -0.02551507 -0.020421414 0.0046046292 -0.004460236 0.030314827
0.020934276 0.003510651 0.010126512 0.011738241 0.01991815 0.019059187 -0.030273283 -0.0051444727
0.0074195988 0.0054814494 0.00012310206 -0.003639592 -0.013968398 -0.02582438 0.014960902 -0.010500058
-0.027136404 0.021277033 0.0020897018 0.022601115 -0.024050884 0.011214159 0.013021902 0.0013249893
0.022834452 -0.01607762 0.012699363 0.0124744885 -0.0077799093 0.01547937 -0.021527894 0.030338198
0.012501497 -0.0038294955 0.014480115 0.021825824 0.0038272154 0.029537154 0.0005921713 -0.026190339
-0.01615371 0.01881187 -0.012491355 -0.019933581 -0.0046910173 0.026510024 -0.013010025 -0.0044043674
-0.008491667 0.026441183 -0.014284792 0.015510484 -0.024477711 -0.018201021 -0.017469214 0.033082556
0.032724727 0.032575946 0.012299399 0.03340739 -0.0049030134 -0.0026761096 -0.004737547 0.020064618
0.025342824 -0.006379137 0.012369535 0.033170924 -0.019001551 0.025282476 0.029770661 -0.026779162
0.008397446 -0.013735564 -0.010670696 -0.0011508655 0.020734001 0.030455837 0.018173307 0.02872465
-0.007781502 0.022866916 -0.013723185 -0.016005931 0.004751095 0.0032299599 -0.0015282164 -0.019354489

adv_layer.0.weight f4 [1, 32768]
00000000: dfc7 4bbb 5860 f83a a61e 87bb 0df8 9dbb
00000010: dc4e 3d3b d6f9 97bb eba3 a3ba 8ffd e7ba
00000020: 47a3 a33b 3df0 dd39 f6b1 8a3b dc7a 803b
00000030: 0331 a5ba e9fa 30bb 68b8 563b a70a 433b
00000040: 9893 a9ba a848 733b 45af 53bb 4434 0e3b
00000050: 81d8 af3b 8caa 72bb 602e 27bb a138 a2bb
00000060: d13c d3bb 43f9 b33b 0ab3 90bb c9c5 be3b
00000070: e433 8a3b 035e 673b 9fb9 7c3b 36b8 863b
00000080: da3e c53a b328 03bb a2f5 743a e966 8d3b
00000090: 2e60 7bbb 2ad9 d3ba eabb d03a 468f c4bb
000000a0: e3ef 773b a8ca 5ebb a006 3cbb 0fc0 05bb
000000b0: 8937 b3bb 41b6 533b 8065 2a3b 5264 8b3b
000000c0: 0066 a0ba e24b 863b b643 0f3a d3e6 a8bb
000000d0: 87a0 273b 6f46 50bb 6fba 1039 eb80 393b
000000e0: 3a64 1e3b 6971 e7bb bc1a 0fbb e02e f93a
000000f0: c85b 3b3b 5efb 6fbb 473a 90ba c1fa 52bb
00000100: c313 d23b 01b0 a13a 50dc 44bb 0fb1 323b
00000110: 8688 d8b9 5b54 9ebb 91d0 d03a eded 5ab9
00000120: ad0b ab3b b30b dcb9 e308 a3ba e458 93ba
00000130: 2648 3dbb 1274 413a 53e0 e839 4b61 443b
00000140: 8326 e33b 4b75 9f3b 2871 483b 767b 8a3b
00000150: d229 b43b 6212 993b 3348 613b 6b41 bf3b
00000160: 6b94 7d3a df2d 12bb baea 52b9 2721 19bb
00000170: 9399 93ba be76 8cbb 8a3a ea3a f5d2 583b
00000180: 6b9f 0c3b d696 7c3b e170 35bb 92c6 803b
00000190: a194 fc3b 541f 5ebb 80a3 37ba 4a92 9ab9
000001a0: 5a38 c6ba 8d88 8cbb 900c a53b 56bb 38bb
000001b0: f377 48bb d14c 533a cad7 d4ba 4e06 fdba
000001c0: a7c6 153b 53bb 61ba dcb9 64bb ae5d 28bb
000001d0: a07c 343b e489 d0ba 2980 233a 927a 9fbb
000001e0: d2f3 113a d155 e9ba 5a9a 743b feaf 253b
000001f0: af65 c73b 5547 a43b 5f55 c5bb 45d4 bf3b
00000200: 9b07 223b 1d6f 143b 5a34 583a febe a33b
00000210: f35b d23b af51 c5ba ce4c 4b3b 5260 893a
00000220: 3c93 87ba 19fe c53a 73eb 33bb d42f 79bb
00000230: 92f2 9f3b 38c2 813b 001a 7c3b 19bb 82b9
00000240: 25d9 bbba 4156 183a 3edf 82ba 352c 1239
00000250: cace 6e3b 2a54 9938 5f55 3fbb 4057 4b3b
00000260: 815c f63b c6a1 c837 2580 e53b b064 87bb
00000270: b519 5c3b 6294 4f3b 3cb1 8abb 2535 c0ba
00000280: c1d3 0d3c 5f76 cf3a a5ab 113b 3017 333b
00000290: d599 fc3a 71b5 4ebb f724 ac3b f693 bd3b
000002a0: ed87 843b 3ff6 87bb cfa1 373b 7b38 38bb
000002b0: 545f 9d3b 69d2 ab37 48b7 9f3b 411e 50bb
000002c0: 50f2 8f3b c046 97bb cdad 18bb 04fb be3b
000002d0: da00 bc3b cd3b 05bb 4905 9b3b 1cdf 5d3b
000002e0: d8cd e0ba 2ec2 55b8 105e b9b9 4220 6aba
000002f0: a596 84bb 285a c038 bcd5 5b3b 9863 383b
00000300: dee4 833b 1b42 7e3a 02e6 bc3a 261f 4ebb
00000310: 01e3 023b 06f8 5bbb 3f2a 923a 8d59 673b
00000320: 3b51 c83a dea0 36bb a781 8aba cbd4 c239
00000330: 62a7 cab9 670c 5ebb 82c2 5e39 1930 4d3b
00000340: 82ce ed3b 600a 1bbb f1d4 1dba fed8 9f3b
00000350: af2f 683b fd1c ad3b 5cad 0dbb 9b1b 82bb
00000360: 423c 073b 180e 523b 69fc 85bb 65ed 1c3b
00000370: 87b6 103b 74b4 a839 3369 853b 8cc0 de3b
00000380: da5d d339 da5a 563b 87ba 54bb 0124 a2bb
00000390: bcfe aa3b 9f41 6bbb db55 c6ba b81a 703b
000003a0: 12bd 713b c7ad 333a 1820 6aba 2af5 f739
000003b0: 5723 bf3b 061d 223a d7c8 7aba 534f 9dba
000003c0: 9e1e 7a3b 9c88 a83b 0d9b 5fba 6e93 203b
000003d0: a4fa 4fbb 11b7 32bb a191 cc3a 4387 a13b
000003e0: b80b 4dbb 80ed 493b 4df2 b1bb 12a1 fe3a
000003f0: cc9a 94ba 3f43 48bb 7bb9 5bbb b814 6a3b
-0.0031094474 0.0018949611 -0.0041235266 -0.0048208297 0.0028886115 -0.004637937 -0.0012484764 -0.0017699468
0.0049938294 0.00042331396 0.0042326404 0.003920896 -0.0012603108 -0.0027005023 0.0032763723 0.0029760988
-0.0012937663 0.0037122164 -0.0032300514 0.0021698633 0.0053663854 -0.0037027923 -0.002550982 -0.0049505983
-0.006446459 0.005492361 -0.0044158744 0.0058219177 0.0042176116 0.0035303838 0.0038562787 0.004111315
0.0015048638 -0.0020013272 0.00093444635 0.0043152464 -0.0038356888 -0.0016162742 0.0015925143 -0.005998525
0.0037832193 -0.0033995304 -0.0028690472 -0.0020408665 -0.005469267 0.0032304677 0.002600044 0.0042539025
-0.001223743 0.0040984014 0.0005465107 -0.0051544695 0.002557786 -0.0031780263 0.00013802362 0.00283056
0.0024168626 -0.00706308 -0.0021836003 0.0019011162 0.0028588641 -0.0036618332 -0.0011003696 -0.0032192918
0.006411047 0.0012335778 -0.0030038543 0.002726618 -0.00041300448 -0.0048318333 0.0015931298 -0.00020878734
0.0052198977 -0.00041970387 -0.0012438562 -0.0011241701 -0.0028882115 0.00073796615 0.00044417623 0.0029965218
0.006932081 0.0048662773 0.0030585025 0.0042261435 0.0054981494 0.004671381 0.003437531 0.005836656
0.00096733 -0.0022305173 -0.00020114603 -0.0023365708 -0.0011260979 -0.004286616 0.0017870229 0.0033084725
0.0021457325 0.0038542054 -0.002768569 0.0039299214 0.0077081476 -0.0033893185 -0.00070052594 -0.00029482163
-0.0015122995 -0.004288739 0.005036898 -0.0028187833 -0.0030589073 0.0008060458 -0.0016238627 -0.0019304247
0.0022854002 -0.00086109823 -0.003490082 -0.0025690603 0.0027540103 -0.0015910235 0.0006237054 -0.0048669064
0.0005567643 -0.0017802065 0.0037323446 0.0025281901 0.0060851197 0.0050133863 -0.00602214 0.005854162
0.0024723771 0.0022649236 0.0008247547 0.0049971333 0.0064196526 -0.0015054251 0.003102112 0.0010480976
-0.0010343562 0.0015105634 -0.002745357 -0.0038022893 0.0048812116 0.0039599203 0.0038467646 -0.0002493493
-0.0014331682 0.00058111927 -0.0009984744 0.00013940113 0.0036439174 7.311285e-05 -0.0029195172 0.0031027347
0.0075183515 2.391719e-05 0.0070038014 -0.004131876 0.0033584659 0.0031674136 -0.0042325538 -0.0014664276
0.008656443 0.0015828124 0.0022227552 0.0027327053 0.001927192 -0.0031541253 0.00525343 0.0057854606
0.004044524 -0.004149228 0.002802003 -0.0028109837 0.0048026238 2.0482768e-05 0.0048741437 -0.0031756314
0.0043928996 -0.0046165884 -0.0023296953 0.0058282632 0.005737406 -0.0020329833 0.0047308546 0.0033854907
-0.001715119 -5.0964e-05 -0.00035356032 -0.00089311984 -0.0040462785 9.172066e-05 0.0033544144 0.0028135534
0.004025086 0.00096991815 0.0014411809 -0.0031451671 0.001997173 -0.0033564582 0.0011151506 0.003530118
0.0015282998 -0.002786688 -0.0010567204 0.00037161107 -0.00038653152 -0.0033881904 0.0002124403 0.0031309186
0.0072572837 -0.0023657307 -0.00060208054 0.0048781624 0.0035428812 0.0052829967 -0.0021618223 -0.003970576
0.0020635282 0.0032051858 -0.0040889275 0.002394521 0.002208145 0.00032177905 0.0040713786 0.0067978557
0.0004031498 0.003270796 -0.0032459812 -0.0049481397 0.005218355 -0.0035897268 -0.0015131788 0.003663702
0.0036886376 0.0006854203 -0.0008931174 0.00047294173 0.0058330703 0.00061841344 -0.00095666706 -0.001200179
0.0038165222 0.005143238 -0.0008529879 0.0024501937 -0.0031735087 -0.002726976 0.0015607366 0.0049294545
-0.0031287502 0.0030811727 -0.005430496 0.0019426665 -0.0011337637 -0.003055766 -0.0033527303 0.0035717916
